preTrained/PPO_continuous_BipedalWalker-v2.pth (torch_old, 31956 bytes, 11 tensors)

actor.0.weight f4 [64, 24]
00000000: 4872 bd3e 1a59 ddbe b3b3 dc3e 0632 50be
00000010: c4f0 96bf 3154 81bd 3036 a2be 625b ecbe
00000020: a969 2c3f fb21 f83e e491 3cbe f1ac 343f
00000030: e82f e6bd 0855 2abf 14ea 243e 78f3 853d
00000040: 45fc 3d3e 59b2 ecbc e64c 303e cdd9 463e
00000050: 9ce4 2a3e e90c aebd 88e5 e53d 3b31 90bd
00000060: 0f64 e4be 5600 973f 259b a2bd 1c33 11be
00000070: e049 ee3e a1b9 a93e 011e 373f 4128 9abf
00000080: b222 15be 2bf3 3fbd d47e 96be 4ae5 97bd
00000090: a8d9 6cbe ad66 f33e 1c94 6a3e 3709 d33e
000000a0: a918 343e 1285 2f3e 5e2f e73e 135a 3d3e
000000b0: b578 463e 7063 a73d 18ce 513e f233 223e
000000c0: 8306 3cbe 7167 6e3f d687 473e db53 af3e
000000d0: c322 923d 3f11 c73e 0033 013f 414a bf3c
000000e0: f7d6 073f 2d4b 5abe eb9c 09be 880a 43bf
000000f0: 52f2 83be fa6e 0c3f eb3c 2c3e 412c 773c
00000100: 6ce0 903e dbbf 5c3d 9eeb 073e 5fcc 993e
00000110: 512e a43e ec7c 183e 5d44 09be b6a8 73bd
00000120: 519e 63be 82dd 85bf aacd e0bd a8e1 06be
00000130: eab1 363e bbe6 8ebd c162 9a3e 6e1a a0be
00000140: f6fc f8be d77c 67be d44c 593f 5d06 953f
00000150: cfa9 56bf 79e1 cebe ea35 4bbd d700 133c
00000160: 2dd7 363e a528 7f3e 7bfe 833e c5ee 1bbd
00000170: 1bdc 0c3e eab9 273d 0c03 b83d 4e11 2bbe
00000180: 7a65 b33e ce7c ef3e 3e62 43be e9cd b13f
00000190: 715e 71bf 3bae c83a 6c6d 91be 2533 ba3e
000001a0: b576 a63d 1399 5ebd 6f11 ffbc a59c 63be
000001b0: 0cf5 7cbe 0d94 bfbe c6f0 bb3d 8a15 acbd
000001c0: 81df 143e 4c6f e6bd 71e7 0ebd 624e 4cbe
000001d0: c2d0 d5bd f30e 06be db6c 63bd 2a9f 483e
000001e0: 26db 473e b21c 253f f892 83be 89b7 923f
000001f0: db77 9c3e 6705 f73d d43e d8be fc66 c3be
00000200: 5931 993f b109 b83e 17a4 603f f7c5 643b
00000210: f614 0fbf 720b fbbd db31 a13e 3a5f cd3d
00000220: cfce a03c 4802 f63d dab8 a8bd fd8d aabd
00000230: 14fd 383e 0965 51be 54d2 ee3b 96a4 ab3d
00000240: 5335 883e 0847 8dbf 4e82 8f3d 89c0 0bbf
00000250: b467 0b3d d5ff 42bf c3df 89bf ccd4 dd3e
00000260: cbd2 893e 800e 5a3e 8116 1a3f 7d03 0b3e
00000270: 599e 00bf bd97 6d3e abc0 07be 276a 8dbc
00000280: 4a52 f43b 0dcf 2dbe 021a 8fbd 0fea 43bd
00000290: 6859 b8bd a602 88be ac0f 3ebe ee13 443e
000002a0: 4429 303f 1806 04bf cd7a a1bd e66a 16bf
000002b0: 566e e0be 2331 143e 4896 c3bc a5de 2b3f
000002c0: 4ff8 a1be b906 11be 0f0c 57be 151e 4ebe
000002d0: c92a 443e b5f1 cb3e b8c5 28bc 3c36 68be
000002e0: 1d26 b6bd 5641 c9bd b8b5 4ebe 6341 cd3d
000002f0: 367b 11be 76c7 53bd 56d8 b6be 3f3a c93d
00000300: 60bf 173f 6f81 5e3f 9a94 27be 3760 ccbe
00000310: 5348 823e 0dc7 b53a fefb 163e 11de 483e
00000320: c26b a2bd b321 07bf 2d16 8ebe 73d6 4abe
00000330: d785 babe 7fa7 233e cb03 233e 117c 973d
00000340: 984d 293e 98a4 39be 9603 1dbe d141 983d
00000350: e266 3f3e cf4e 183e ab60 8dbd 5997 9e3c
00000360: 5ca0 71be c772 2abf 7a22 943e 39e1 863f
00000370: eea0 c6be cbc7 b43e 8a8f 053f 4afe 0ebf
00000380: 0b45 953d 1667 29be da6a a63e 0d2d f93e
00000390: 74b2 37bf 3420 823d f536 153e d2a4 e63d
000003a0: f500 0d3e 97a2 56bd d09b b33d 1659 953d
000003b0: 4371 17be f42a 3bbe 553c 02be 4a0b 99be
000003c0: b7ab 39bf 152a 84be 64b7 003f a503 cdbf
000003d0: 9208 ca3e 8f50 bdbe ccc8 0cbf a930 d2bd
000003e0: c20b 19bf cdf3 d13e b04c a5bd 1980 56bf
000003f0: 5667 923d 7920 b6be afd8 32be e511 f5bd
0.37001252 -0.43232042 0.4310585 -0.20331582 -1.1792226 -0.06314886 -0.31681967 -0.4616347
0.67348725 0.48463425 -0.18415028 0.7057639 -0.11239606 -0.66536 0.16104919 0.065405786
0.18553264 -0.028893637 0.17216834 0.19419022 0.1668877 -0.08498556 0.1122542 -0.0704064
-0.4460759 1.1796978 -0.07939748 -0.14179653 0.46540737 0.33149436 0.7153016 -1.2043535
-0.14564016 -0.046862762 -0.29393637 -0.0741678 -0.23129904 0.47539273 0.22908062 0.41217968
0.17587532 0.17140606 0.45153326 0.18491392 0.19381984 0.08173263 0.20488775 0.15840128
-0.18361859 0.9312659 0.19485411 0.34243664 0.071355365 0.38880345 0.50468445 0.023350837
0.53062385 -0.2131774 -0.13438766 -0.76187944 -0.25770813 0.54856837 0.16820113 0.015086235
0.2829622 0.053893905 0.13273475 0.30038735 0.32066587 0.14891404 -0.13404985 -0.059487067
-0.22228362 -1.0458224 -0.10976727 -0.13172019 0.17841306 -0.06977602 0.30153468 -0.31270164
-0.48630494 -0.22606216 0.84882855 1.1642567 -0.8385286 -0.40406397 -0.049611963 0.008972368
0.1785552 0.24917848 0.2578009 -0.038069505 0.13755839 0.040948786 0.08984956 -0.1670582
0.35038358 0.46774906 -0.19080445 1.3890964 -0.9428473 0.0015310714 -0.28403795 0.36367145
0.0812811 -0.0543452 -0.031136243 -0.22227724 -0.24702853 -0.3741764 0.09176783 -0.08402546
0.14538385 -0.11251697 -0.03488869 -0.19951776 -0.10440208 -0.1309164 -0.055523735 0.19591966
0.19517192 0.6449691 -0.25698066 1.146226 0.30560192 0.12061577 -0.42235434 -0.38164508
1.1968185 0.35944894 0.8775038 0.0034908035 -0.5589136 -0.122580424 0.3148335 0.10027929
0.019629864 0.12012154 -0.08238383 -0.08327863 0.18065292 -0.20448698 0.0072882567 0.08381002
0.26603183 -1.1037302 0.070072755 -0.5459066 0.034034446 -0.7617162 -1.0771412 0.43326414
0.26918635 0.21294594 0.6019059 0.1357555 -0.5024162 0.23202415 -0.13257091 -0.017262531
0.0074560987 -0.16973515 -0.069873825 -0.047830638 -0.09001428 -0.2656452 -0.18560666 0.19148228
0.68812966 -0.515718 -0.078847505 -0.58756864 -0.4383418 0.14471869 -0.02387537 0.67136604
-0.31634757 -0.1416272 -0.21000694 -0.20128663 0.19156946 0.39832845 -0.010301046 -0.22676939
-0.08893988 -0.09826915 -0.20186508 0.10022237 -0.14207157 -0.051703893 -0.35711926 0.09825563
0.5927639 0.8691625 -0.16365281 -0.39917156 0.25445804 0.0013868526 0.14744565 0.19615962
-0.079307094 -0.52785796 -0.27751294 -0.19808368 -0.36430237 0.15981863 0.15919416 0.07396711
0.16533506 -0.18129194 -0.15333399 0.074344285 0.1869159 0.14873813 -0.069032036 0.019359278
-0.23596328 -0.66581386 0.28932554 1.0537483 -0.38794655 0.3530868 0.5217215 -0.55856764
0.072885595 -0.1654323 0.32503396 0.48667184 -0.7175667 0.063537985 0.14571746 0.11261906
0.13769896 -0.05240115 0.08769953 0.072923824 -0.147893 -0.18278104 -0.12718327 -0.29891425
-0.7252764 -0.25813356 0.5027983 -1.6016737 0.39459664 -0.36975524 -0.5499389 -0.102631874
-0.59783566 0.41006318 -0.080712676 -0.8378921 0.07148616 -0.3557165 -0.1746547 -0.11966304

actor.0.bias f4 [64]
00000000: 46aa 84bb 7c71 9ebc 6ed1 02bd 8940 96be
00000010: dbb8 1d3e 8eb5 8dbd bf60 18bd ccd0 793d
00000020: f755 47be 27ef 8dbe e46e 3dbe 9988 0bbe
00000030: a616 72be 17c4 9b3e 7615 5cbe 79f7 ffbd
00000040: 03a6 e9bd 5d91 73bd 91c8 41be 6294 363e
00000050: daee 99bd 5401 71be 8e28 cabe 20c6 9fbe
00000060: 41da 9c3e 23c4 10bd de76 1d3e e3b8 86be
00000070: 085e 9a3e 899e 103e 4e98 98be 425a 88be
00000080: c661 3e3c 375d 163e 9edf 75bd 5740 5fbd
00000090: ee55 c23c ec1c 8b3d b659 0a3e a9d1 9e3e
000000a0: fde0 25bd 1c85 c8bc ef37 13be a059 e3bd
000000b0: e0be 213e ed8f a0be df1d 913c d546 443d
000000c0: d9f3 3abe a5c2 2b3d edd7 a0be a64f a33e
000000d0: f0b9 283e 1271 c0bc 26ec 37bd 7ff3 22be
000000e0: 4554 84bd fab2 44be ab96 34be 15de 51be
000000f0: b5c3 233e 5bca 50bd 6723 243e 5748 5a3c
-0.0040486185 -0.019341223 -0.03193801 -0.2934611 0.15402548 -0.069193944 -0.03720164 0.06099014
-0.19466387 -0.2772152 -0.18499333 -0.13626327 -0.23641452 0.30423042 -0.21492562 -0.124983735
-0.11408617 -0.0594648 -0.18924166 0.17830041 -0.075162604 -0.23535663 -0.39484066 -0.31205845
0.30635265 -0.0353433 0.15377375 -0.26312932 0.30149865 0.14122976 -0.298037 -0.2663136
0.011619991 0.14683996 -0.06002771 -0.05450472 0.023722615 0.06792626 0.13510785 0.31019333
-0.04049777 -0.024477534 -0.14376806 -0.11101079 0.1579547 -0.31359807 0.017714439 0.047919113
-0.18257083 0.041933674 -0.31414738 0.31896704 0.1647718 -0.023491416 -0.044902943 -0.15913199
-0.06461386 -0.19208899 -0.176356 -0.20494874 0.15992625 -0.05097423 0.1602913 0.013322911

actor.2.weight f4 [32, 64]
00000000: ad5e 573f eaae 12bf 48dc f2be a5cf a63e
00000010: 544e ef3e 10dc 27be 8068 62be 660c a43d
00000020: 46c8 f8be b2ae c03e a72d c7bd bd89 aebc
00000030: b6ed 01be a49f 85bd 466d 323e d3c2 433d
00000040: 6bb6 0e3f b805 c5bc 2004 223e 8ae5 2f3e
00000050: 71ba 083e d068 293f 7f22 9d3e 77e3 123d
00000060: e6e1 1f3e 8f0e 823f d67d a0bd b21d 0e3f
00000070: 496c 22be cb58 b53e 69ec cdbc cbef 353f
00000080: 739c 923d 7e90 093e c36a 2ebe 6537 083e
00000090: 7113 16be d886 66be 2394 753e 4503 8ebe
000000a0: 281f b83e c228 063f a0f4 80be a43c 54be
000000b0: 9439 eabe 6fe8 793f b5bb 723e 0097 a63d
000000c0: 33fb eebc 1123 41bd 3210 d1bd d6ac 5a3e
000000d0: 4b87 d53e 34b4 16bf 64c6 95be bea0 e13d
000000e0: 7782 d5be e564 263f a87a 053f 5962 6cbd
000000f0: 080d 64be 659b 8ebe 80bb abbe 7d30 56be
00000100: e56c 563e e47b 14be e450 5c3e 542b dfbe
00000110: 63b5 6a3f ea24 093d 497a a8bd ffaa 773e
00000120: d570 413f 789c 2bbe faaf a4bf e7ac 0cbd
00000130: 000f c3bc 6b9d 193f 5813 7c3d 98cb 203f
00000140: c8c4 8bbe 5ea5 e4be 1b32 1cbf 7967 e5bc
00000150: ed16 99bd df4f 9d3e 9cc6 eebe 89c2 50be
00000160: dbb2 b2be 6144 6b3e 7703 063f d29a 6d3e
00000170: ced5 a03e b178 813c bdda e1be 8906 76be
00000180: b88e 193f 703f 653e 3d2e c73d db5c f03e
00000190: 8324 01be 31b1 cfbd ee9c 85be fb4f 833e
000001a0: f4c3 293f b5da 08bf efff 2e3e 851b 243e
000001b0: 520e f7bd 37e6 c53e 926d 073f 963e 993f
000001c0: 4635 34bf 9bf4 44be 5574 aebe c091 1f3f
000001d0: 6d8a 693f be9e d33d 2608 ecbe 8b71 3dbf
000001e0: 2dab 3cbf 7a42 913e 78e9 d5bd 5fbd 29bf
000001f0: a763 fb3e 3df6 54bf 61bc 983e ac8c e6be
00000200: 125d c7be 8a6a 643e b4fe 913f 5959 64be
00000210: 3475 a53e 1371 e33e e022 81be cee4 1cbb
00000220: 5c9d 353d 9cbe 853d 5c47 d5be 917e 94be
00000230: 8e92 c83e 51c1 91be 0950 123f 1590 4d3f
00000240: 1de5 5bbe c9ad ba3c c3f4 8e3d 0d24 95bf
00000250: f5af 5abf a9e0 81be cc75 1d3e fdaf 78bd
00000260: acd6 86be 595b 6abe 87cc cbbe 70d4 de3e
00000270: 7a31 123f fac3 23bf df5e 46bf a0cd 5cbf
00000280: 9d06 e03c 31c8 0ebf 2df5 1c3f 7770 b3bd
00000290: a9a4 34bf dbc1 1dbf 418d b93f 7784 b3be
000002a0: f4ad 0c3e 2480 aebe ba4e 583f 5103 36bf
000002b0: ef16 a23c d3d1 32bf f4c6 22bf d2e2 bb3d
000002c0: 5720 d93e 2623 a3be 4f65 b13d c558 013f
000002d0: fb5d 80bd bfce cb3d 8a62 9c3e d224 dabd
000002e0: 897c 8f3e f21e 9d3d 8036 f13c c793 893e
000002f0: e73c 36be 665a a03c 4771 bc3f b066 493f
00000300: a014 f03c c2d0 b63d a0e4 82be bbe6 113f
00000310: 0256 8fbe fc2d e4be 075a b2bd 53f2 963e
00000320: 12e6 3bbd 12e0 8cbe e79f f3bc 7523 5ebf
00000330: acdc d1be 7790 3f3e 9c47 2d3f 5cae 2b3e
00000340: bb34 02be faf8 24bf 4a63 e0be cab0 e03e
00000350: 82b7 3fbf e7b0 bc3e 3803 4fbe e507 9fbe
00000360: 45aa 1f3f 37ea 8c3e e610 ec3e 2cf9 75be
00000370: bf87 e23e 437a c43e dbc6 e3be b6e2 c5be
00000380: 2124 3a3f bb7b d3bd 1ec6 243f b758 083e
00000390: beb1 d1bd 1481 aa3b 8097 293e 9867 fb3e
000003a0: 6478 cabe 075c acbd 0065 9dbe 782e dbbd
000003b0: 2bf3 903d 0d4a 1c3c 2c2e 913d 46dc 87be
000003c0: c71f 93bc ce21 393e 5eae cfbe be04 2e3e
000003d0: 60c0 193f 9e5b 3c3c 5d75 d0bd f0d3 033f
000003e0: ece8 e2be 3bb6 debe 2298 4bbe 8c4b 18bf
000003f0: 6921 f13d 22b1 6abe 38e4 f13e 62a9 683e
0.8412884 -0.5729815 -0.47433686 0.32580295 0.46739447 -0.16392541 -0.22110176 0.08010177
-0.48590297 0.37633282 -0.09725504 -0.021305913 -0.12688336 -0.0652459 0.17424497 0.04779322
0.557471 -0.024050578 0.15821886 0.17177406 0.13352372 0.66175556 0.3069038 0.03586146
0.15613517 1.0160693 -0.07836501 0.5551406 -0.1586162 0.35419306 -0.025137143 0.7106902
0.071587466 0.13434026 -0.17032914 0.13302381 -0.14655854 -0.22512376 0.23982291 -0.2773687
0.3596127 0.5240594 -0.25186634 -0.20726258 -0.45747054 0.9762029 0.23704417 0.0813427
-0.029172515 -0.047152583 -0.10208167 0.21354994 0.41704783 -0.5886872 -0.29252923 0.11016987
-0.417011 0.649977 0.52140284 -0.05771098 -0.22270596 -0.27852932 -0.3354149 -0.20916934
0.20939977 -0.14500386 0.21515232 -0.43587744 0.91683024 0.03348247 -0.08226449 0.24186324
0.75562793 -0.16758907 -1.2866204 -0.03434458 -0.023810863 0.60005826 0.061541885 0.6281066
-0.2729857 -0.44657415 -0.61013955 -0.028003441 -0.07475076 0.30725 -0.46635902 -0.2038671
-0.3490208 0.22975303 0.52349037 0.2320359 0.3141312 0.01580462 -0.44112197 -0.2402593
0.59983397 0.2238748 0.09725616 0.46945843 -0.12611584 -0.101412185 -0.2609629 0.25646958
0.66314626 -0.5345872 0.17089818 0.16026123 -0.12063278 0.38652202 0.52901566 1.1972225
-0.7039379 -0.19233935 -0.3407313 0.6233177 0.91226846 0.10333012 -0.46099967 -0.7400138
-0.73698694 0.2837103 -0.10444921 -0.6630458 0.49099466 -0.8318823 0.29831222 -0.450292
-0.38938195 0.22306266 1.1405854 -0.22299708 0.3231598 0.44422206 -0.2522192 -0.002394009
0.044339523 0.065304965 -0.41656005 -0.29002813 0.39174312 -0.284678 0.57153374 0.80297977
-0.21474119 0.022787945 0.06980278 -1.1651627 -0.8542474 -0.25366715 0.15376967 -0.06071471
-0.26335657 -0.22886409 -0.3980448 0.43521452 0.57106745 -0.6397091 -0.7748851 -0.8625126
0.027346903 -0.5577422 0.6131161 -0.08761685 -0.7056375 -0.61623925 1.4496232 -0.35062
0.13738233 -0.3408214 0.8449513 -0.7109881 0.019786326 -0.69851416 -0.6358483 0.09174122
0.42407486 -0.31862754 0.08661901 0.50526077 -0.06267925 0.09951543 0.3054393 -0.10651554
0.280247 0.07671918 0.029444933 0.26870558 -0.1779667 0.019574355 1.472207 0.78672314
0.02930671 0.08926536 -0.25565052 0.5699269 -0.27995306 -0.44566333 -0.087085776 0.29481754
-0.04587371 -0.27514702 -0.029739333 -0.86772853 -0.40988672 0.18707453 0.6768739 0.16765732
-0.12715428 -0.6444241 -0.43825752 0.4388488 -0.74889386 0.36853716 -0.20216072 -0.3106071
0.62369186 0.27522442 0.46106642 -0.24020833 0.4424419 0.38374528 -0.44487652 -0.3864953
0.7271138 -0.10326334 0.643648 0.13315092 -0.1023898 0.0052033756 0.16561699 0.49102473
-0.39544976 -0.0841599 -0.3074112 -0.107022226 0.070776306 0.009539139 0.07088885 -0.26535243
-0.017959489 0.18079302 -0.4056272 0.16993997 0.60059166 0.011496453 -0.10178635 0.51495266
-0.4431833 -0.43498406 -0.19882253 -0.59490275 0.117739506 -0.22919133 0.4724443 0.22720864

actor.2.bias f4 [32]
00000000: 08e9 b33d 1908 ab3e f2fb 2cbc f6ac c73c
00000010: 538c a9bb b658 fe3d 84a9 5c3d fb95 68be
00000020: c35f dc3d bac8 3abd b03a 42bb 2ae6 213e
00000030: 35bf 9c3e 7934 9d3e 092c 02be c2db 62bb
00000040: ba17 81be d1f1 abbe 3d8d 313e ce68 dabe
00000050: 4697 0ebe d41d e73e 8eb3 063d 8df9 b2bd
00000060: e0ff ea3d 24d3 0e3d 3e3e 39bd a7b8 a4be
00000070: 02e5 9ebe c9ce b8bd 7419 43be 99a5 eb3d
0.087846816 0.33404616 -0.010558115 0.024374466 -0.0051741987 0.12419264 0.0538726 -0.22713463
0.107604526 -0.045601584 -0.0029637031 0.15810457 0.3061463 0.30704096 -0.1271211 -0.003461585
-0.25213414 -0.3358293 0.17339034 -0.42658085 -0.13924894 0.45139945 0.03288608 -0.08739004
0.114745855 0.03486933 -0.045225374 -0.3217213 -0.31034094 -0.09023816 -0.19052678 0.115061946

actor.4.weight f4 [4, 32]
00000000: 3eed 76bf b3f0 11be 30bd f8be 150a 48bd
00000010: b138 febe 8655 54bd 7eb5 0e3f b7c4 9bbe
00000020: 6c24 13be 10b4 5d3f 54a2 13be 4d33 bd3e
00000030: 11aa bbbe 61a2 1dbd 5a26 b3be b73f e2be
00000040: fc12 10be 38a2 4cbf 649e 8d3e 1d2e 503f
00000050: 6083 3cbf 2eae 6e3f 53b0 273f 31ed 6dbf
00000060: e4f5 3d3e 18d6 843f 4df2 c7be 9ac8 13bf
00000070: dd1a 8b3e 762a c3be f086 3fbf 3b35 e6be
00000080: 22a2 3c3f bbae 81be 0aa4 94bf 8d54 aa3f
00000090: 9ff6 1bbf c5dd febe ec48 82bf 0edb 59bf
000000a0: a397 283d a569 7bbf 03ca 613e 9754 efbe
000000b0: 7318 a13f 60b7 a83f 66e1 9bbe b579 7d3d
000000c0: 3301 60bf c865 c1bd 170c 71be 4b18 62bf
000000d0: 855b 1f3f 25d0 febc aceb 91bf a369 643f
000000e0: 8a33 12bf 10e6 cb3d 5bcd 883f 6a51 0c3e
000000f0: 83bf 05bf f2be babe b8d7 4f3e 1d47 4cbf
00000100: 12be 80be fe89 9d3f 5384 43bf 1d2f 753f
00000110: c513 df3f 94aa d8be b72f 23bf a9e8 483f
00000120: 90ba 1d3f d089 af3e 0f52 07bf 08c9 8e3f
00000130: 437a 983f abe9 5dbf f39a 99be c948 c6be
00000140: 8084 03bf 3cc9 a33e 3430 24bf 61db 16bf
00000150: c852 093e 4054 1c3f 1a9e 12bf f9a8 05bf
00000160: 8e64 39bf c1d3 4bbe 2614 053d a01a c63d
00000170: 4e82 f23d 0dfb 573f e898 1e3f bb4e 073f
00000180: d423 e43e b7ef 57bf e2ee 02bf 0313 023e
00000190: dc4f 04bf cf93 4bbf e985 d43c 748e 9abd
000001a0: 3088 a83f 0d1c 2dbe 7f7c 37bf 2e55 393f
000001b0: 52a4 38bf 3a72 26bf a765 803f c085 24be
000001c0: 35d8 1e3f 8f89 9fbe 81b3 2abf f9c6 d43e
000001d0: 887a 533f a426 0ebe f9d5 fd3e f7ad eb3d
000001e0: 9e88 363f 42c3 e9bc 946b 953f 555b 223f
000001f0: 4721 33bf c537 2d3f 3df8 99be 9c95 e03e
-0.9645575 -0.14251976 -0.4858184 -0.04883774 -0.49652627 -0.051839374 0.55745685 -0.3042352
-0.14369363 0.8660288 -0.14417392 0.36953202 -0.36653188 -0.038484935 -0.34990197 -0.44189236
-0.14069742 -0.79935026 0.27659905 0.81320363 -0.7363796 0.9323453 0.65503424 -0.9294005
0.18550831 1.0377836 -0.39052048 -0.5772797 0.27168933 -0.38118333 -0.74815273 -0.44962487
0.73684895 -0.2532862 -1.1612561 1.3307053 -0.6092319 -0.49778572 -1.0178504 -0.85099876
0.041160237 -0.98208076 0.22049718 -0.46744224 1.2585586 1.3180962 -0.30445403 0.061883647
-0.8750183 -0.09443241 -0.23539768 -0.8831832 0.6224902 -0.03110511 -1.1400046 0.8922369
-0.5710989 0.0995599 1.068767 0.13702932 -0.5224535 -0.36473805 0.20297134 -0.7979601
-0.25145012 1.2307737 -0.76373786 0.95775014 1.7427908 -0.4231764 -0.6374468 0.7848001
0.61612797 0.3428483 -0.52859586 1.11551 1.1912311 -0.86684674 -0.3000103 -0.38727406
-0.51374054 0.31989467 -0.6413605 -0.58928496 0.13410485 0.61066055 -0.57272494 -0.52210957
-0.7241906 -0.19904996 0.03248992 0.09673047 0.1184126 0.8436745 0.61952066 0.5285451
0.44558585 -0.8435015 -0.51145756 0.12702565 -0.51684356 -0.79522413 0.02594276 -0.07546702
1.3166561 -0.16905232 -0.7167434 0.723956 -0.7212573 -0.65018046 1.0031022 -0.16066647
0.62048656 -0.31159636 -0.6668015 0.41558054 0.8260884 -0.13881928 0.4957731 0.115077905
0.7130221 -0.028535489 1.1673455 0.6342061 -0.6997265 0.6766322 -0.30072203 0.43864143

actor.4.bias f4 [4]
00000000: da9a 9d3e a980 99bd cfdb 2b3e 7e6c 37bc
0.30782205 -0.07495243 0.16783069 -0.0111953

critic.0.weight f4 [64, 24]
00000000: 91e6 cbbd 24b1 e0be 448d 5b3e 9d9f c1bf
00000010: 3f51 4dbd b8a2 01be bbb2 b13e 485d 17bf
00000020: 56e3 c83d 302c b43e 4c1f 993e 8364 edbe
00000030: ecf0 673e a6b0 293e a886 673d 5664 66bd
00000040: fb72 65be c0f0 17be f1ec bd3c 68c3 bb3d
00000050: 40c6 e9bc fdc4 c23d 53d4 31be 6dd2 08be
00000060: 28f7 373f bec1 1a40 0b1e 46bf c733 1a3f
00000070: dc97 13bf e3fa 523e 7d1b ef3d 1f82 d23d
00000080: 6ea5 c4bc ee0d 393f 32f7 d7bd 0d93 7d3e
00000090: 6a8c 89bd 52c4 273e 4d74 2fbe 8664 efbe
000000a0: 304d cfbd 7a2c 94bd 3055 58bc 148e 613e
000000b0: c3fd b33b 8a8d 363e 0ff3 543e 4a93 c5bd
000000c0: e011 4bbd 58c2 b13f 7b89 753f e5ce 98bf
000000d0: 3533 613e ffe9 73be 8798 b9bd 7310 31be
000000e0: 827b f73c 7c70 ec3e b2a2 a23d 7143 4e3f
000000f0: 09e5 28bd 3bac 26be 38b8 99bd ee46 8bbe
00000100: f5da 80be b4ae a33d 32cd 1a3e bd0a 9e3e
00000110: 3c09 c33e 263d b13e 066b 203e c8fa 0f3c
00000120: a2bc 993e d6a1 6cbf 79bc d93d 8aef 1440
00000130: f144 be3e e029 7e3e 9b99 33be cca3 ca3d
00000140: dda7 3ebe b596 dbbe acad 21be 7e83 42bc
00000150: de87 e03c 3f48 89be e1b7 283e 669f 883e
00000160: a376 303e 6d03 b33d 16ff aa3e ba55 f43e
00000170: 9e07 213f 1984 1b3f 46f1 373f 417d c0bd
00000180: f51f 36bf 64fd 17c0 213e 293f c2c6 1f3d
00000190: 8162 1dbf 71ec 86bc 2e4c 5b3e b92b 8e3e
000001a0: c6cb cc3c 600f cebd 1861 6e3e 51c6 8c3d
000001b0: 6eb2 1bbe 1f68 1abe 906b 0a3e f7a7 0e3e
000001c0: b6ab 993d 09c0 b3bd af69 113e fe49 7abe
000001d0: 20b3 18be e2d5 86be 21ed 703e 5d98 203e
000001e0: 6933 3ebf 1999 a2bf 6d32 263e 267e c6bf
000001f0: f9d7 47be 8d09 77be 68a9 24bf 59f8 e4be
00000200: 9642 c83b 1078 2a3d ec8b 21be 5a2f 833b
00000210: b5fa b6bd 2288 54be 874c 2b3e d172 6c3e
00000220: 820b 47be 33bd babb 9c09 dfbd efc7 ebbe
00000230: e92c cabe 69a8 13bf b4b2 0ebf c6d7 7abc
00000240: e1a7 28bf 500e ba3e 53a9 a93f 372f 05c0
00000250: d902 5b3e 2546 cbbd 8797 18be 51fa 753d
00000260: 5612 c93e 4e44 babe 9c1b 023c cc4f 9d3d
00000270: c04f 21bd 7e93 afbd 10ae 973d 2553 5c3e
00000280: 9ec8 923d 4f3b 2dbe 17fc 25bd 6a70 f73d
00000290: f8b4 35be 08f6 c53c ba48 943e 891d b53e
000002a0: c7f8 7fbe 54fb 0740 f98b 513f 4479 0fbf
000002b0: e053 38bf 2d2d c83d 6c7a 3dbf a58f b23e
000002c0: 1a14 d8bd d429 ed3e 217f 9abd 84a4 d0bd
000002d0: 71d3 363d dcb2 3ebe 670e 40be d033 fabe
000002e0: ddf8 9bbe c2a9 0fbe cdb9 10be ebcd 883b
000002f0: 89e1 99be 6f31 50be ba07 c13d 4548 553e
00000300: 2487 cfbe 6ccd 583f fc12 2cbf 40b2 c7bd
00000310: d5fe 88be b601 063e 4d52 b1be 4a52 32be
00000320: 72c2 31bd 1a7e 92be b280 67be 38ae a53d
00000330: 360d a6bd c50d 573e 97e3 093e a116 9d3e
00000340: 3f20 83bc 4b0c e03d 2501 ae3d a99c 2b3e
00000350: 746e d73d 9d75 b7bd 5c24 c5be 16be 763e
00000360: 4185 73bf 4ae6 27c0 63a3 683e 2d84 fcbf
00000370: 0fe1 6f3f b2d3 333e fd13 0cbe 6596 a83e
00000380: eba8 d9b9 7288 6ebe 14a0 a7bd 5383 3fbf
00000390: f431 ae3c 8440 923e 6d68 b93d bed5 e2bd
000003a0: 59f7 61bc 2b85 9fbe 4b6e e6be a21e 92be
000003b0: f70a 13bf 3c46 cebe 0f42 13be 6d77 3fbe
000003c0: 0c36 4a3f 7332 b93f c9d3 c43e 916d 19be
000003d0: 62be 193f 490e 9ebd 232d 27bf c976 8e3c
000003e0: c59a eabb 9039 a8bd 2bd7 6dbb eb59 d9bb
000003f0: ea62 2b3d edbe 95be e6a7 6ebe 43ee 3cbd
-0.099560864 -0.43885148 0.21440607 -1.5126835 -0.05012631 -0.12659729 0.34706673 -0.5912671
0.09808986 0.35189962 0.2990669 -0.46365747 0.22650498 0.16571292 0.056524903 -0.05624803
-0.22407143 -0.14837933 0.023184272 0.0916813 -0.028536916 0.09510229 -0.17366152 -0.13361521
0.71861506 2.418075 -0.7738959 0.60235256 -0.57653594 0.20603518 0.11675165 0.10278725
-0.024004664 0.7228688 -0.10545196 0.24763127 -0.06716235 0.16383484 -0.17134209 -0.4675638
-0.10122144 -0.07235046 -0.013203904 0.22026855 0.0054928972 0.1782743 0.20795844 -0.09647234
-0.049577594 1.3887434 0.95912904 -1.1938139 0.2199219 -0.23819731 -0.090622954 -0.17291431
0.03021026 0.4617957 0.07941188 0.8057166 -0.04123405 -0.16276638 -0.0750584 -0.27202553
-0.2516705 0.07992306 0.15117338 0.30867568 0.38092983 0.34616965 0.15665826 0.008787818
0.30026728 -0.9243444 0.106316514 2.3271203 0.37161973 0.24820662 -0.17539065 0.09894523
-0.18618722 -0.42888418 -0.15788907 -0.0118721705 0.027408537 -0.26812932 0.16476394 0.2668411
0.17232756 0.08740888 0.3339774 0.47721654 0.6290225 0.6074844 0.7185253 -0.0939889
-0.7114251 -2.3748407 0.66110426 0.03900791 -0.6147843 -0.016470166 0.21415779 0.27767733
0.02499951 -0.10061526 0.23279226 0.06873763 -0.15204784 -0.15078782 0.13517594 0.13931261
0.075034544 -0.08776862 0.14200471 -0.24442288 -0.14912081 -0.26335055 0.23527957 0.15683122
-0.74297196 -1.2702972 0.16230173 -1.5507247 -0.19515981 -0.24124737 -0.64320993 -0.44720724
0.0061114533 0.041618407 -0.15776032 0.0040034475 -0.08934537 -0.20755056 0.16728412 0.23090674
-0.19437984 -0.005698824 -0.10890505 -0.46050975 -0.3948739 -0.5767885 -0.5574143 -0.015310233
-0.6588116 0.36339045 1.3254799 -2.0810068 0.21387805 -0.099254884 -0.14901553 0.060053173
0.39271802 -0.36380237 0.007941153 0.07681236 -0.039382696 -0.08573054 0.07406247 0.21516092
0.07167171 -0.16917156 -0.040523615 0.12081988 -0.17744815 0.024165168 0.28961736 0.35374096
-0.24997245 2.1247149 0.81854206 -0.5604441 -0.72002983 0.097742416 -0.74014926 0.34875217
-0.10550709 0.46320975 -0.07543779 -0.10187629 0.04463524 -0.18622917 -0.18755494 -0.48867655
-0.30463305 -0.14029601 -0.14133377 0.004174938 -0.30054882 -0.20331357 0.09425302 0.2082835
-0.40532792 0.8468845 -0.6721647 -0.09750795 -0.2675692 0.1308659 -0.34633103 -0.17414203
-0.043398328 -0.28611833 -0.22607687 0.0808987 -0.081079885 0.21001346 0.13465725 0.30681327
-0.016006587 0.10939845 0.08496312 0.1675898 0.10519114 -0.0895798 -0.38504303 0.2409595
-0.95125204 -2.6234307 0.22718577 -1.9727837 0.9370279 0.17561224 -0.136795 0.32927242
-0.0004151532 -0.23294237 -0.08184829 -0.7480976 0.021264054 0.28564847 0.09053121 -0.11075924
-0.013791882 -0.31156287 -0.45006022 -0.28538996 -0.57438606 -0.4028796 -0.14380668 -0.18697901
0.7898872 1.4468521 0.3844283 -0.14983203 0.60056126 -0.077175684 -0.6530325 0.017390626
-0.0071595632 -0.08214104 -0.003629158 -0.0066330335 0.04184238 -0.29247227 -0.23306236 -0.04612566

critic.0.bias f4 [64]
00000000: 601c e43c c009 5c3d fc2b 8cbd 310f eebe
00000010: ed06 6e3e 53d7 ac3e 7575 df3d 9c1d 893e
00000020: f84b 123f 9345 41be fe54 d8be c1fc 873d
00000030: 72f2 afbe 3172 4e3f a14f f03e cdc0 1cbe
00000040: 8a36 fc3e dc83 74be 758a 55be a428 70be
00000050: f633 273e 96b4 a4be 877e 97be 6d22 ee3e
00000060: f6c0 dcbf b979 24be 764a fe3c 62c5 d63e
00000070: 3ab2 55be 5c47 0bbe bf7b f33e 5373 ad3e
00000080: 34ca 9dbe 0e45 e23e 2ae5 a4be 229d 243e
00000090: 6d45 de3e afbd 1e3e 71a3 91be 24b2 85be
000000a0: 500f 1dbe ad59 013f 5ed7 21bf 29bd 373f
000000b0: 43e0 20be 970f 8f3d 3518 163d 20f6 c83d
000000c0: fc76 d73d 58a7 ce3e 1fdb c73c 00d5 1abf
000000d0: 13ad 43be e02e 86be 1b8c 05bf d171 a53e
000000e0: 1b74 0dbe 17a0 febe 9c6c 89bd b19b 42bd
000000f0: 2003 f2bd 4df8 21bc cf15 1f3d 4cff aebe
0.027845562 0.053720236 -0.06844327 -0.46495965 0.2324483 0.3375803 0.10911075 0.26780403
0.5714717 -0.18874197 -0.42252344 0.06640006 -0.3436466 0.8064299 0.46935752 -0.15307923
0.4926036 -0.23878425 -0.20853598 -0.23453003 0.16328415 -0.32169026 -0.2958872 0.4651064
-1.7246387 -0.16062059 0.031041365 0.41947466 -0.2086877 -0.1360144 0.47555348 0.33877048
-0.3081833 0.4419331 -0.32206088 0.16075566 0.43412343 0.15502046 -0.28445008 -0.26112473
-0.15337873 0.5052746 -0.6321925 0.7177301 -0.15710549 0.069853954 0.03664418 0.098125696
0.10520741 0.40362048 0.024396477 -0.6048126 -0.19108991 -0.26207638 -0.5216691 0.32313398
-0.13813822 -0.49731514 -0.06710169 -0.04751176 -0.11817002 -0.00988586 0.038839158 -0.3417915

critic.2.weight f4 [32, 64]
00000000: a40e 1dbd d0de 5cbf 707d 303d 8e18 13be
00000010: 809c 533f cb50 cc3e 2343 ad3f 1911 723f
00000020: b5d9 5d3f 9f8e 903b 5fac 36bf fed7 cd3d
00000030: 1ba2 bbbe 9551 1e3e 3610 903d ee45 c8bc
00000040: fe57 b0bd 4b55 d53e 9fcf 89bf 8861 4cbf
00000050: d842 0abc d4c4 e6be b793 b9bf 4155 163f
00000060: af6b 9ebd b0c0 4b3d ae96 343e 473b 123f
00000070: 697a 13bf f29d 8cbe 3729 9d3e 77a1 303f
00000080: 44fd 07be af76 273e ec56 c5be b896 d8bb
00000090: ce25 183f 6c4a 4ebe cf5f acbd 9d28 c9be
000000a0: 695a 24bf 9364 223f b6e2 89be 9c4a 0f3c
000000b0: d2e9 d7bd 14fe 9fbd 564a 0a3f 3c2f 573c
000000c0: 97ed f7be 0c84 163f ec7e 7c3e a08b e1bf
000000d0: 5adc 17bf ce58 c63e 7313 3cbd fbae 453f
000000e0: 60bf cbbd cf26 9ebf fb57 0b3f 340c 793e
000000f0: 89b1 903e 094d 9c3e 20f4 d6be 7a2a a4be
00000100: 2dac 95be fcfe afbf 2abf 93be 71c6 8f3e
00000110: 8244 e93e e949 043e 686c 0b3e 66cf f9be
00000120: e7f2 1f3e e852 773f 3719 bfbe 4b3f aa3e
00000130: 4794 d73e 9dde 08bd f0b7 d1be 0c0a 82be
00000140: 54d3 0e3c 61ca c53f 0102 c8be fcd7 41bf
00000150: e777 663e c510 773f 11cf f0bf ec36 1dbf
00000160: f713 843d da97 dfbd 7f80 2b3f 91e4 08be
00000170: 6ba1 8f3e 8aec 9cbf f31f e6bd edba 903f
00000180: 7c8d 9a3e 5ac4 0e3e ba9d 943d 5d6a 4fbf
00000190: a885 073e d286 76bf 9c10 0dbf 7f96 e13e
000001a0: 8732 dc3e cb2b 9fbe c3ec cc3e ba27 50bd
000001b0: 443b 2e3e 7f85 263f 0c31 6f3f d9f9 283e
000001c0: 34ca b63e 21fc 3a3e c9bb 723f a03e 1a3e
000001d0: 2d61 fabe b35f 623e a51e 82be 1f19 2f3f
000001e0: 303c 2abf a1eb bd3e 1700 fd3e 4bfd 583d
000001f0: d851 913f 9783 14be 8e8b 4cbe fcbd dbbe
00000200: afce c43e 869d 7fbe 0e99 683e 338f 57bd
00000210: bdcd 1f3e be25 e4bc c8c3 303f d5e1 633f
00000220: 6afe 87be 62a6 ad3d 92ed d03e cb13 b3be
00000230: ff35 873e 664c 62bd 3e0e b93d 22f2 d6bd
00000240: 3d4b 1abe cecf e5bd e1b0 17bf 84ef 01bd
00000250: 16b8 8dbd 8f7d 683e 1494 4cbf 85e3 07be
00000260: bd7f 013e e9b3 cf3d a75c 373e 14bc 923e
00000270: 628f d03e 11a0 f33e b1d6 24bf b651 303e
00000280: 3d54 f2bd d804 30be dc4b 593e 5a4a 06bd
00000290: 78ff 9e3d 45ab 863c e875 9e3d c3a1 66be
000002a0: 0f4d 2abe edaf 143e aaaa 68be 543a 39be
000002b0: 72df 093d 0652 6f3e 183a 063e 6ff1 e1be
000002c0: c50e 083e 4617 41be 1128 883d a1c9 4dbf
000002d0: 427c 67be 768e f4bc 410e 1f3e 5017 5e3e
000002e0: 7290 f93c f503 4ebf ead3 a2be a905 573e
000002f0: 8a0d 8f3d 2327 50be 9140 a93e 388d 93bd
00000300: 1d89 813e 6286 b9be b1cd 52be 6aef 173e
00000310: f780 553e 857e da3d 69a7 e13e 6060 afbe
00000320: f82e 30bd bdc8 913e 4e75 80bd bde9 ad3d
00000330: df77 f4be e9ce 7abe 2cf0 e1bd 2a4c da3e
00000340: 89ab 9f3e 705a b93e 1165 22bf c9c6 863e
00000350: 0f46 7bbc fe22 fabe d3c4 11be cb45 b6be
00000360: 8300 5a3e 4bcd 01bf 3ac5 473e e0b4 05bf
00000370: 55bd 40bf 8ffd 84be 87bd ba3d 882a 46be
00000380: 2b48 c5bd 7a98 69be 2efd 8cbe 9776 43be
00000390: d2f0 543f f62d aabe 37ac 9abc 31ff 893e
000003a0: fa11 b03e 1c8b bebe 1b0e 423e 5a9f 42be
000003b0: 231a 3fbe 47d3 3d3e 2603 893e bf63 7a3e
000003c0: 65ee 3cbe 077b e33e ed1d ba3d 1d5b 1bbe
000003d0: ba02 823e 765d 92be 3f04 3ebf d9fa c0bd
000003e0: 7954 64bd dc9f c6bd a3be 3ebe 2e45 e93e
000003f0: 3862 fc3d dc2d 8bbd 44f2 36bf 6258 b2be
-0.03834404 -0.86277485 0.043088377 -0.14364836 0.82660675 0.3990539 1.3536114 0.9455734
0.8666032 0.004411533 -0.7135677 0.10050963 -0.36647114 0.15460809 0.07034342 -0.024447408
-0.08610533 0.41666636 -1.0766486 -0.7983632 -0.008438788 -0.45072043 -1.4498204 0.5872384
-0.07735383 0.049744308 0.17635605 0.571217 -0.5760866 -0.27464253 0.30695507 0.68996376
-0.13280207 0.16353868 -0.3854288 -0.006609764 0.59432685 -0.20145577 -0.084167115 -0.39288798
-0.64200455 0.63434714 -0.2693078 0.008745816 -0.105426446 -0.078121334 0.5401968 0.01313382
-0.48423454 0.5879524 0.24657792 -1.7620735 -0.59320605 0.38739628 -0.045916986 0.77220124
-0.09948611 -1.2355593 0.5443112 0.24321061 0.2826045 0.30527523 -0.41983128 -0.32063657
-0.29232922 -1.374969 -0.28856784 0.28081086 0.4556008 0.1291882 0.13615572 -0.48791045
0.15620004 0.9661088 -0.37323925 0.33251414 0.42105314 -0.033415426 -0.40960646 -0.2539829
0.008717377 1.5452386 -0.3906403 -0.7572019 0.22506677 0.96509963 -1.8813192 -0.6141193
0.064491205 -0.10917635 0.66992944 -0.13368441 0.2805284 -1.2259686 -0.112365626 1.1307045
0.3018607 0.1394209 0.072566465 -0.8102167 0.1323458 -0.9629947 -0.5510347 0.44060132
0.430073 -0.310881 0.40024385 -0.050819136 0.17014796 0.6504745 0.93434215 0.1650156
0.35701144 0.18260242 0.9481779 0.15062952 -0.48902264 0.22106819 -0.25414005 0.68397707
-0.6649809 0.37093833 0.4941413 0.052975934 1.1353102 -0.14503323 -0.19975111 -0.42918384
0.38438937 -0.24962434 0.22714636 -0.0526268 0.15605827 -0.027850028 0.6904874 0.8901647
-0.2656129 0.08479001 0.40806252 -0.34976038 0.26408383 -0.05524864 0.090359196 -0.10495402
-0.15067764 -0.11221276 -0.5925427 -0.03172256 -0.06919877 0.22704147 -0.7991345 -0.13270386
0.12646385 0.10141737 0.17906438 0.28659117 0.40734392 0.47583058 -0.64390093 0.1721867
-0.118324734 -0.17189348 0.21220344 -0.03278575 0.077635705 0.01643909 0.077373326 -0.22522645
-0.16630958 0.14520235 -0.22721353 -0.18088657 0.03366036 0.23371133 0.13108099 -0.44129512
0.13286884 -0.18856534 0.06648267 -0.80385786 -0.22605994 -0.029853087 0.15532781 0.2168858
0.030464385 -0.8047479 -0.31802303 0.20998253 0.06985004 -0.2032743 0.33057073 -0.0720467
0.25299922 -0.36235338 -0.20586278 0.14837423 0.20849977 0.10668663 0.44073036 -0.34253216
-0.043013543 0.28473464 -0.06272374 0.08491848 -0.47747704 -0.24492992 -0.11032137 0.42636234
0.31185558 0.3620181 -0.63435465 0.26323536 -0.0153365275 -0.48854822 -0.14235239 -0.35600123
0.21289258 -0.5070388 0.1950883 -0.5222912 -0.752889 -0.259747 0.09118181 -0.19352162
-0.096329056 -0.22812071 -0.2753691 -0.19088207 0.8317996 -0.3323819 -0.018880947 0.26952508
0.34388715 -0.37215507 0.18950693 -0.190061 -0.18662314 0.18537627 0.26760215 0.24452113
-0.18450315 0.444298 0.09087739 -0.15171476 0.25392705 -0.2858693 -0.7422523 -0.094228454
-0.055744622 -0.096984595 -0.1862741 0.45560592 0.12323421 -0.06795856 -0.7146342 -0.34833056

critic.2.bias f4 [32]
00000000: 9e01 ddbd 211e 913c 267f 5fbe 1e7a 62be
00000010: e661 0dbf 3a8a 583e 9434 60be 77eb e93e
00000020: 878f 46be d741 923c 2e60 83be 76f4 123d
00000030: 2114 66be d866 e6be ecf1 013f cf67 6f3e
00000040: 1c93 00bf eefe a43e 8839 ebbc f225 343e
00000050: 3890 18be e0f4 883e 5058 d83e ff75 90be
00000060: 0c64 833c 2210 b93e 05fa fb3d 813b 703e
00000070: 597c 68be a72a e5be 9915 80bd b7b7 a03c
-0.10791324 0.017714562 -0.21825847 -0.22116897 -0.55227506 0.21146479 -0.21895057 0.45687458
-0.19390689 0.01785366 -0.25659317 0.035877667 -0.22468616 -0.4500034 0.5075977 0.23379444
-0.5022447 0.32225746 -0.028713956 0.175926 -0.14898765 0.26749325 0.42254877 -0.28215024
0.016038917 0.3614512 0.12303547 0.23460199 -0.22703685 -0.44759104 -0.062541194 0.019618852

critic.4.weight f4 [1, 32]
00000000: 36ad 293f 34c8 c2be c6b9 5c3e 351e 013f
00000010: db2e 5f3f e7c3 07be e0b9 ef3d ed28 5fbf
00000020: 0e83 383e 6dfe ca3e ca15 e9be 5a24 68bd
00000030: dab2 da3e c6be 633f d649 96be 7824 91be
00000040: 0f1e 333f 761d 1bbf 5b58 063f 3b27 6bbe
00000050: d53b db3e e9a1 44bf 1beb b2be 1a19 00bf
00000060: f677 ee3e 6aa9 2c3f 78d2 15be 69d3 69bd
00000070: b66c 3b3f 81d0 f23e 7c46 d0bd 617b d23e
0.66279924 -0.38043368 0.21555242 0.5043672 0.8718087 -0.13258325 0.11705375 -0.8717182
0.18018743 0.39647236 -0.45524436 -0.056675293 0.42714578 0.8896297 -0.29353207 -0.28348136
0.6996774 -0.6059183 0.5247857 -0.22964184 0.42819086 -0.76809555 -0.34944996 -0.500383
0.46575898 0.67446005 -0.14631069 -0.057086382 0.73212755 0.474247 -0.10169694 0.41109756
