preTrained/PPO_LunarLander-v2.pth (torch_old, 43756 bytes, 13 tensors)

affine.weight f4 [64, 8]
00000000: 4496 21be 4e2c 2c3e ca96 31be 7e9f 14be
00000010: 1469 d6bd 803a 063b 343d aebd bc08 bcbd
00000020: f83b 64be 5c42 96be 3325 9a3e 6079 98bc
00000030: ea15 a6be 4083 fdbb 27d5 2abe c0b7 d43b
00000040: 8ae6 8fbe de81 5abe de26 40be aea2 84be
00000050: 3e81 583e 48e5 b83d 5083 133d e24d 7abe
00000060: 84ca 62be 76d5 263e 10dd 4dbd 04aa 3dbe
00000070: e0a7 1fbe dc71 8d3d 79a8 21be 383c 433d
00000080: 8eaf 21be a90e 09be c055 58be acec 82be
00000090: 5071 2ebd 5ae7 9dbe 1cf8 eb3d e16e adbe
000000a0: ceb0 503e 3b59 1dbe b00c f13c e0a9 153c
000000b0: 8fa9 8b3e d3d7 b0be 82d1 34be 2029 e7bc
000000c0: 6d74 873e c92d a0be 1173 b23e aaf0 6d3e
000000d0: 30a6 c2bd 982a f1bd 1877 2d3d b9b2 02be
000000e0: b463 93bd a2e9 2a3e 1668 563e 505c b33d
000000f0: 27a7 b33e c2f3 203e e919 aebe 845f 39be
00000100: a1bb 8f3e c913 a83e 3d0a 84be ebfe ab3e
00000110: 4050 5cbe e0db f73c c932 9b3e 262c 35be
00000120: f685 733e d2cf e0bd 00db cfba d17f 8b3e
00000130: e6ff e4bd 4dea a33e b605 1b3e e740 9abe
00000140: 60d0 a53d 6ec9 4c3e 8af8 50be 05fa 04be
00000150: 7635 59be 86a6 d6bd 2dbf 96be f2ce 223e
00000160: bce6 c3bd fc1a 30be 8076 6c3b 10df 783d
00000170: d648 023e 5471 02be 02e6 26be 3cd9 bf3d
00000180: e694 3f3e 5e6d 2d3e 1d59 55be 91f5 61be
00000190: 2440 0e3e fa84 95be 068b febd 6880 88be
000001a0: ed54 93be 98e2 78be f4b4 d83d 3ee4 15be
000001b0: 519d 29be 5e59 353e 0066 b73b 6efa 3fbe
000001c0: fcec 73be 1e0d 293e 5041 173d 2909 983e
000001d0: 9030 2cbe 76a2 203e 9892 89be 4c80 2cbe
000001e0: 484c ba3d 6526 22be 7d48 b0be a30c 97be
000001f0: 103a f13d 86c2 6a3e 2bed 5dbe 48bd 643d
00000200: edda 963e 56e8 213e 84f7 a5be c00c 22be
00000210: f889 a9bd e8d3 01bd 4189 8e3e 7a65 743e
00000220: 82fb 5e3e 2ee7 1cbe 403e 973b bc49 e93d
00000230: 2c05 97be 7fc1 32be eebf 663e d0eb 9f3c
00000240: 2895 80be 261d 733e 8fa8 813e 4e0f 86be
00000250: 9e58 51be b80d 68bd c9f5 ae3e bb93 96be
00000260: a272 783e 48c2 02be 16fd 423e a6c9 0fbe
00000270: 0d88 933e 72b6 3e3e a04d 6d3d 0c9e c7bd
00000280: 14f4 a0bd 5ef7 673e b8dd afbe 00b8 f83d
00000290: ca1b 24be c0a7 95bc b8ef 923d ade2 8cbe
000002a0: 5803 90be c134 a6be 183e 06bd e7f6 833e
000002b0: d5f4 3cbe 80d4 aa3d a003 873d 3634 e0bd
000002c0: 8236 673e 06e7 8abe 9e1f 4e3e ae78 583e
000002d0: ca2c 7e3e b82b c43d 281a 1bbd 990b 8e3e
000002e0: f0d3 efbc a0d3 eb3d 7ba1 66be 8178 89be
000002f0: c2be 06be 7a3d 253e bafc 6c3e ba44 7d3e
00000300: bd1d 853e 18cf 353d 1c5f a4bd e03a 233c
00000310: 9abf 9ebe a4b8 cfbd 9905 9b3e d64d e1bd
00000320: 5080 edbd 3d8c ac3e 0d08 9c3e 3a95 7b3e
00000330: 30a0 f43c e4be 043e 0bc4 9c3e 0242 593e
00000340: 6826 16bd 1ff7 903e d25e 89be 7cb6 b73d
00000350: fa8d 263e 0c13 a93d 9a14 3f3e 001c a73b
00000360: 1cf6 e93d b488 9bbd 022f 3cbe 2232 7d3e
00000370: f243 93be 801a 6abe aa9e 533e e043 663d
00000380: 4cf9 aebd 54c9 a8be f4a3 30be 483f 003d
00000390: a04f c33d 7a3b 7c3e 1396 13be 4fef acbe
000003a0: 9c1c 883d 3390 ac3e 12f0 303e 20c8 813d
000003b0: 243a 83be c4dd 4ebe e540 01be b67d 033e
000003c0: 5882 073d 8069 973b 1034 3dbe 004a 07bd
000003d0: 120f 273e 40ee b13c 021d 3cbe 0897 83bd
000003e0: 81e0 14be 7a28 3cbe 02b5 8bbe c5f5 a5be
000003f0: f886 30bd a16b 12be 186d 9fbe 7ab7 183e
-0.15779978 0.16813776 -0.17342678 -0.14513966 -0.10469261 0.0020481646 -0.08507767 -0.091813534
-0.22288501 -0.29347503 0.30106506 -0.018612564 -0.32438594 -0.0077365935 -0.16682874 0.0064916313
-0.28105575 -0.21338603 -0.18764827 -0.25905365 0.21143052 0.09028107 0.0360139 -0.24443772
-0.22147566 0.16292366 -0.05025965 -0.18521887 -0.15591383 0.069064826 -0.15786923 0.04766485
-0.15789625 -0.13384499 -0.21126461 -0.2557119 -0.042588532 -0.3084057 0.115219325 -0.33873656
0.20379946 -0.1536607 0.029424995 0.00913474 0.272778 -0.3453966 -0.17658046 -0.028217852
0.26456013 -0.3128493 0.34853414 0.23236337 -0.09504354 -0.11775702 0.042349905 -0.1276349
-0.07196751 0.16690686 0.20938143 0.087578416 0.35088465 0.15717986 -0.34004143 -0.18102843
0.28072837 0.32827595 -0.2578906 0.33592924 -0.21514988 0.030256212 0.30312183 -0.17692623
0.23781571 -0.109771386 -0.0015858114 0.27245954 -0.11181621 0.32014695 0.15138897 -0.30127642
0.08096385 0.19998714 -0.2040731 -0.12986 -0.212118 -0.104809806 -0.2944273 0.15899256
-0.095654935 -0.17197794 0.0036081374 0.060759604 0.12723097 -0.12738544 -0.16298679 0.09367606
0.18709144 0.16936252 -0.20834775 -0.22066332 0.13891655 -0.29203016 -0.1242886 -0.26660466
-0.2877573 -0.24305189 0.10581389 -0.14637849 -0.16563918 0.17709872 0.005596876 -0.18747875
-0.23820871 0.1650891 0.03692752 0.2969449 -0.168154 0.15686974 -0.26869655 -0.16845816
0.09096581 -0.15834959 -0.34430304 -0.2950183 0.11778653 0.22925767 -0.21672504 0.055844575
0.29463902 0.15811285 -0.32415402 -0.15825176 -0.082782686 -0.03169623 0.2783909 0.23866835
0.2177563 -0.15322563 0.004615575 0.11391017 -0.29496133 -0.17456625 0.22534153 0.019521624
-0.25113797 0.23741588 0.25323913 -0.26183552 -0.20443961 -0.05665371 0.34171894 -0.29409584
0.24262479 -0.12769425 0.19041857 -0.14041767 0.28814736 0.18624285 0.057935357 -0.09746942
-0.07859054 0.22652957 -0.34348845 0.1214447 -0.16026226 -0.018268466 0.07174629 -0.2751669
-0.2812755 -0.32462123 -0.03277406 0.2577431 -0.18452771 0.083413124 0.06592488 -0.109474584
0.22579387 -0.27129382 0.20129248 0.21139786 0.24821773 0.09578651 -0.03786674 0.27743223
-0.029275864 0.11514974 -0.22522537 -0.2684975 -0.13158706 0.16136733 0.23143283 0.24733248
0.2599925 0.044386953 -0.08025953 0.009962767 -0.31005555 -0.10142639 0.30277708 -0.11001174
-0.11596739 0.33700743 0.30474892 0.24568644 0.02986154 0.12963444 0.3061832 0.21216586
-0.03665772 0.28313538 -0.26830155 0.08970353 0.16265097 0.08255586 0.18660203 0.0050997734
0.11423895 -0.075944334 -0.18377307 0.24726155 -0.28762776 -0.22861671 0.20665994 0.056217074
-0.08543643 -0.329661 -0.17250043 0.03131035 0.09536672 0.24632064 -0.14412718 -0.33776328
0.06646082 0.33703765 0.1727908 0.06336999 -0.25630295 -0.20201784 -0.12622412 0.12840924
0.03308329 0.004620731 -0.18476892 -0.033029556 0.16314343 0.021720052 -0.1837044 -0.06425291
-0.14538766 -0.18374816 -0.27286536 -0.3241407 -0.043097466 -0.1429887 -0.3113792 0.14913741

affine.bias f4 [64]
00000000: cc1c f83d 00ee 0dbb f4b0 5fbe b4c3 893d
00000010: 7ca3 8d3d a805 843d 48a1 3ebd 1072 eb3c
00000020: 7875 a0bd 98ee 74be 3c88 25be d1fc 0ebe
00000030: 42fe 243e 742f fbbd 86e6 2f3e f73f 2ebe
00000040: 68b9 a73d 60c5 373c 6de9 47be 1560 08be
00000050: cffb abbe 6644 433e 2aef 7bbe 92fb 173e
00000060: 8242 acbe 466b 203e 2858 7dbd 20df 683d
00000070: 2eae 86be 36a6 243e 6ea4 553e de9e 493e
00000080: e8a3 953d 27fe 17be e03b 283c 405b 13bc
00000090: 3a1c 3d3e 653c abbe ef61 33be e7fb b13e
000000a0: 717a 8a3e 6074 70be abc4 913e aa15 31be
000000b0: ec17 9e3d 272e ab3e b049 b3bc 9022 813c
000000c0: a069 cfbd be8a 01be 978d a63e aae8 96be
000000d0: 1adf 5fbe 202b 1abd abf6 a83e 9830 21bd
000000e0: a02f 1ebc 0854 b2bd 5007 8cbe bdf0 17be
000000f0: 38b1 a7bd 0855 81bd 0032 28bd b9ba 943e
0.121148676 -0.0021656752 -0.21844846 0.067267805 0.06915948 0.06446391 -0.04654053 0.028740913
-0.078349054 -0.23919141 -0.1616525 -0.1396363 0.16112617 -0.1226491 0.17177781 -0.17016588
0.0818966 0.011216491 -0.19522639 -0.13317902 -0.33590552 0.1906906 -0.24602953 0.1484206
-0.3364449 0.15665922 -0.06185165 0.056853414 -0.26304764 0.1607903 0.20863506 0.1968951
0.07306653 -0.14843045 0.010268182 -0.008993924 0.18467799 -0.33444515 -0.17517827 0.347625
0.2704654 -0.23481894 0.28470358 -0.1729342 0.077194065 0.3343365 -0.021885723 0.015763551
-0.10127568 -0.12650582 0.325299 -0.29474384 -0.2186245 -0.037638783 0.33000693 -0.039352983
-0.009654909 -0.08707434 -0.2734933 -0.14837928 -0.08188099 -0.063150465 -0.04106331 0.29048708

action_layer.0.weight f4 [64, 8]
00000000: 0dcc 07be 6b36 a2be 4604 2fbd 5a62 bdbe
00000010: 2eec 3b3e e923 a6be 97fd b3be e0af 0bbd
00000020: 1ded 483e b99d 0b3e 6474 47be 42b4 d13e
00000030: 1f01 133f fa94 c53e 1aab 863e b301 03be
00000040: 600e d63e cb42 8fbe 477a 17be 09ec 8ebe
00000050: d544 19bf c9fb b5be 8fb7 93be 2519 b63d
00000060: c9cd 13be b497 77bd 00ce 643e ac1c 733d
00000070: 3cab 0f3f 4dc2 133f 0bb0 2c3d d077 923e
00000080: 62b3 893e f6c9 babe 4642 963e e609 77be
00000090: d6bd 85be e6a0 03bf 6d3c a2be aa3b 55bd
000000a0: f2b1 90bd 8d8d 75be 78d2 dcbd 90b1 c0bd
000000b0: c602 1bbf 847c 0ebf d93e adbe 2433 c9bd
000000c0: bd53 10bd b465 9d3d 0fb7 53be 82b3 e53e
000000d0: 9c34 b9be ccf2 8fbd 0773 7bbd dcc9 c2be
000000e0: f52a 7abd 6cb2 acbe 771e 8f3e bf62 17bf
000000f0: 9bd0 ba3e db08 803e 4b50 4ebc a6da 8ebd
00000100: 3a23 c43d 2751 cd3e b13b 223e b480 923e
00000110: b79e a13d 5c39 993e 0a99 4a3e 24a4 ddbd
00000120: f894 56bc db4a 4cbc 41a3 893e f34d f0bd
00000130: 1fdb 1ebf d775 0dbf 28ca 9abe 2c79 e3bd
00000140: aecb c83d c4a8 743e 89ff 5dbd fdfb 273e
00000150: 2f9c b33e c9cc 603e a5e5 0c3e 891d c13d
00000160: 1978 853e fe37 9ebe cdd8 803d bf87 60be
00000170: 4208 9e3e fadb 29be a52a afbd b487 d0bd
00000180: 0a1c 263e 192e 983e 64cb c9be a17a e53e
00000190: 7abc 0f3f dbe0 103f 60b0 b93d 29b7 2f3d
000001a0: 4da1 cc3e ba11 74bd 5ce9 fcbd bc74 f5be
000001b0: e045 58be 1290 84be b2fe 17bd 263f 503e
000001c0: a773 a5be 0e81 2dbe 0589 d7bd f7cd a53e
000001d0: b263 cc3d e83b 893e 4fc9 aabe c293 b23d
000001e0: 4add d4be 8243 5c3e b1e7 a5be 3760 253e
000001f0: 663a 913e 95be 923e cee7 b2be c19b 823e
00000200: 7e17 0d3e bfed a1bd c355 b63e c0f5 633e
00000210: 931e 0fbf fcf4 27bb b78e edbc 66d2 8ebd
00000220: 7e3f 5c3d 33a2 b8bc 7701 373d 18d7 9e3e
00000230: 944b 4ebe 801a a53d 8598 7b3c b994 93be
00000240: a0fe 8e3e 892f 51be 300a 153d 50a6 f5be
00000250: 6e8b ea3b aee2 91be 6c1d ad3b ed30 fd3c
00000260: 983c 83bd 4e71 583e 31ee 943e ac63 0f3e
00000270: eb75 06bf 554c 66be 775a 9dbe d6f1 ddbe
00000280: fd37 acbe e198 803b f9b7 1d3e b7e9 62be
00000290: 2a0c a03e ee2b 80be 620f 8cbe daa2 0c3e
000002a0: becb 83be ca89 94bd 3090 b8be d836 9abe
000002b0: b215 14be 3894 5ebe a4fe b7ba 8f8c c63d
000002c0: 17e6 84bd 04f4 ce3d 8930 45bb c36c 7f3e
000002d0: 263b 18bf 3492 b8be cfbd 54be 07ef 27bd
000002e0: d748 d33e 0cfc ac3e 35b5 6abe 6d37 ad3e
000002f0: b472 19be 6a64 7cbe 8bc8 913e 73a6 06bd
00000300: f74e 743e 33c8 293d 313e 793c a7f8 65be
00000310: f9a3 673e b255 99bc 313e aebe c227 a03b
00000320: 29a8 58be cb42 8b3c 6867 34be 27ee 303d
00000330: 87fc 003e f2a3 da3e 8315 80be ebad 06be
00000340: 1e29 543e d0ad 8cbe 815b b43e d755 b9bc
00000350: ca82 40be 2c27 193d 9977 b1be 0e93 8abe
00000360: 779b b4bd f35f 463e 75bd e53d e10e 6ebd
00000370: 5486 59be ed3c 01bf d61e adbe 32f1 b0bd
00000380: 93ec cf3d 7554 b9bd 12d4 373e 99ca 9dbe
00000390: 37e9 71be d223 6abc a77d bfbe e59e 96bd
000003a0: b4ce 363e ba9f 9cbd 8905 853d 7f66 983e
000003b0: 340b d5bd dc66 063f de19 4e3e dda1 b53e
000003c0: 8bf8 c3be 9c4b 09be 0698 4cbe 563f 1dbd
000003d0: 5f6a 0f3f ca04 ab3e a027 ff3d 8dfd 83be
000003e0: 0dad 0c3e 0ed3 97be 3e2a e5bd e2eb 10be
000003f0: 1d38 b93e 65ee d43e 06d5 4ebe eb90 7cbe
-0.13261433 -0.31682143 -0.042728685 -0.369891 0.18351814 -0.32449272 -0.3515441 -0.034103274
0.19621702 0.13634385 -0.19477993 0.40957838 0.57423586 0.38590223 0.26302415 -0.12793617
0.41807842 -0.27980646 -0.14792739 -0.27914456 -0.59870654 -0.3554366 -0.28850982 0.08891515
-0.1443397 -0.06044741 0.22344208 0.059353516 0.5612066 0.57718354 0.042160075 0.28607035
0.2689467 -0.3648221 0.29347438 -0.2412487 -0.26121396 -0.51417387 -0.31686726 -0.052058853
-0.070651904 -0.23979779 -0.10782331 -0.09408867 -0.60551107 -0.55658746 -0.3383701 -0.098242074
-0.03523611 0.07685414 -0.206753 0.44863516 -0.3617295 -0.07028732 -0.061388995 -0.3804463
-0.061076123 -0.33729875 0.2795293 -0.5913505 0.36487278 0.25006756 -0.0125923855 -0.06975298
0.095770314 0.40100977 0.15843083 0.28613818 0.078916006 0.29926574 0.19784942 -0.10822323
-0.01309704 -0.012469019 0.26882365 -0.11733618 -0.620531 -0.55257934 -0.30232358 -0.11107096
0.09804474 0.23892504 -0.054198775 0.1640472 0.35080096 0.2195312 0.13759477 0.094294615
0.2606819 -0.30902094 0.062913515 -0.21926783 0.30865675 -0.1658782 -0.08553056 -0.10182133
0.16221634 0.2972267 -0.39412987 0.4482012 0.5614697 0.565931 0.09066844 0.042899285
0.39966813 -0.059587218 -0.12349197 -0.47940624 -0.21120405 -0.25891167 -0.03710813 0.20336589
-0.32314798 -0.16943762 -0.10524181 0.323837 0.09979953 0.26803517 -0.3335671 0.08719589
-0.4157508 0.21510127 -0.3240333 0.16149984 0.28364867 0.28661028 -0.34942478 0.25509456
0.13778493 -0.079066746 0.35612306 0.22261715 -0.5590603 -0.00256282 -0.028998716 -0.06973724
0.05377149 -0.02253828 0.04467913 0.31023479 -0.20146018 0.08061695 0.015356188 -0.28824404
0.27928638 -0.2042829 0.03638667 -0.4797845 0.0071577346 -0.28493255 0.0052830484 0.030907119
-0.06408042 0.21136972 0.29087976 0.14002866 -0.5252368 -0.22490056 -0.30733082 -0.4334857
-0.33636466 0.0039244746 0.15402211 -0.22159468 0.3125928 -0.25033516 -0.27355486 0.13733998
-0.2574138 -0.07252844 -0.36047506 -0.30119967 -0.14461401 -0.21736228 -0.0014037681 0.09694778
-0.06489199 0.10105136 -0.0030088744 0.24943833 -0.59465253 -0.36049044 -0.20775531 -0.04099944
0.4126651 0.33786047 -0.22920687 0.3383135 -0.14985162 -0.2464768 0.28473315 -0.032873582
0.23858248 0.04145069 0.0152125815 -0.22458135 0.22621144 -0.01871762 -0.34031823 0.004887552
-0.21157898 0.016999623 -0.17617571 0.04319587 0.12596332 0.42703205 -0.25016412 -0.13152282
0.2071881 -0.27476358 0.35226062 -0.02262394 -0.18799892 0.037390873 -0.34661558 -0.2706532
-0.08818715 0.19372539 0.11217777 -0.05811966 -0.21242648 -0.5048359 -0.33812588 -0.08639754
0.10152545 -0.09049312 0.17951992 -0.30818632 -0.2362412 -0.014290767 -0.37400553 -0.073545255
0.17852288 -0.07647653 0.06495196 0.29765698 -0.104025275 0.525007 0.20127055 0.35475054
-0.3827556 -0.13407749 -0.19979867 -0.03839048 0.56021684 0.3340209 0.1245873 -0.2577938
0.13737889 -0.2965321 -0.11189698 -0.14152482 0.36175624 0.4158813 -0.2019845 -0.24664657

action_layer.0.bias f4 [64]
00000000: 053c 3e3e fb1d 473e efaa 523e 6dcf 86be
00000010: 7222 093e 74bf 943d 042c 933d 0813 81be
00000020: c01a 243e 0ed3 31be f6de 853d 3c4b bcbd
00000030: 9857 a53d f53b 89bd 4d29 a33e ee5d 3f3e
00000040: 0aec 68be d933 26bd cb77 d23d acca bbbd
00000050: 63f4 7fbd 8cc5 f53c e3a4 dbbd 20c1 47be
00000060: 754a 1f3e dcb6 35bd f0b6 a73e eb0c b63d
00000070: 16a8 883e afe0 7cbe b39b 843e fd1c 213e
00000080: 74d5 9f3e 7a6a abbd a461 63bd bde3 13be
00000090: a6ae 59be 19f3 a63e 2ac8 4b3d f74f 623c
000000a0: e62a 4ebe a518 9abd ec03 05be 8055 203d
000000b0: 2e1b 5e3d 8c6a 8bbe 190f 483e 8c81 7bbe
000000c0: 54fb 983e e2e6 153e 4ef2 0fbe 6837 6a3e
000000d0: f6b8 e03c 09fd 38be f9b3 c1bd f789 853e
000000e0: 24d8 88bd 3aa6 a03e fa69 c0bc 5a5f b83d
000000f0: 4418 d9bc a13f 883e 2f6d e73d f305 95be
0.18577583 0.1944503 0.20573018 -0.26330128 0.13392046 0.07263079 0.0718613 -0.25209832
0.1602583 -0.17365667 0.06536667 -0.09194037 0.08073348 -0.06700889 0.31867447 0.18688175
-0.22746292 -0.04057679 0.10276755 -0.09169516 -0.062488925 0.030001424 -0.10724809 -0.19507265
0.15555747 -0.04436384 0.32756758 0.08889183 0.2669074 -0.24695085 0.2590004 0.15733714
0.3121754 -0.08369918 -0.05551304 -0.14442344 -0.2125803 0.32607344 0.04975144 0.01381301
-0.20133552 -0.07524232 -0.12989777 0.03914404 0.05422514 -0.27229726 0.1953701 -0.24561137
0.29879248 0.14638856 -0.14057276 0.22872698 0.027431946 -0.18065275 -0.09458155 0.2608182
-0.066818506 0.3137682 -0.023488034 0.09002562 -0.026500829 0.26611045 0.11300122 -0.291061

action_layer.2.weight f4 [64, 64]
00000000: 8703 903e abdc 43be 0f7a eabb 5dbe 763d
00000010: 116e 403d b3d4 e23d 9ef0 29be 2ac0 33bb
00000020: 2731 e13c 1252 1c3d e866 22be 2b5d 503d
00000030: 99d4 a8bd af11 453d c822 983c 324a 1e3d
00000040: 9c44 f0ba 92a0 77bd 8828 533e 6417 1b3d
00000050: a324 0c3e 8bb3 3fbd 3a91 7cbd a99b 69be
00000060: 53bb 123d 42aa ecbc 9661 113c 8987 fd3b
00000070: fcb5 92bc 3612 e8bd e64c 1c3e 1083 243e
00000080: 9996 02be 258c 40bc 6e19 13bd df13 4d3e
00000090: 5246 b13d a514 20be 5f19 5ebd 3a96 923d
000000a0: ba1e 6cbe f112 84bd 0f5c 88bd 2086 0bbd
000000b0: 848e 303e 39ea 90bc ec5c 29bc 3fb6 0c3e
000000c0: 6c2b e1bd 7eb7 883c aa57 4a3e 6203 9d3d
000000d0: 56be e7bc dca1 3d3e 6f28 9abd 064d 91bd
000000e0: 009d 363e 8e3b ab3c 4ee2 4ebd d86f cebd
000000f0: 5c85 203e be2d 553c 0412 3c3e 324c 003c
00000100: e6dc 3bbd 9bbd 693d 01fa 823d 346d abbd
00000110: 9706 7fbb cd7f 513e d5f3 2c3e bcd2 2bbe
00000120: 4e5f efbc 9525 793d 53a2 22bc c320 583d
00000130: 7263 03be fced 2dbd c769 12bd 4e2c 87bd
00000140: 1726 1f3e 06ea 20bc 6d8b 2f3d 4437 143e
00000150: 76e7 22bd 5495 3ebd e964 383e 4650 113e
00000160: 620c bfbd 8d11 b6bc e8f4 dc3d 768b d03d
00000170: 5ab9 963c 2eec 96bc 2e81 42be 215c 49be
00000180: 6cd2 4d3d c286 043c 360d 24be 02f7 38be
00000190: 2299 193d 1a81 1f3e 1286 e13d 2fb8 dabc
000001a0: 4d19 493e 4274 89bd e835 c5bc 6c48 9939
000001b0: 65b7 973d f201 05be 5d49 113e 168c 2a3d
000001c0: e08a 0b3d 91ca eebd 0940 a9bd ffe4 adbd
000001d0: d1b2 11bd b45a eabd 6dfe 1f3e 98a1 22bc
000001e0: 588d 55bd 6dec 8a3d c0e9 8d3c 21d8 9d3d
000001f0: 41a7 ccbd 31b9 3bbe 58a9 15be c7fb efbd
00000200: 67f1 e8bd 666f 553e a33b 80be b9da 163d
00000210: 8565 e2bd a3b1 dbbd 8366 5f3d cefb b9bd
00000220: e8c8 67bd 3f96 56bd accb 323d 640d 91bd
00000230: b408 173e 5ece bcbd db45 173e 5b99 313c
00000240: f163 16be 5a81 283d cf28 683b da68 a03c
00000250: d607 1b3e 0a60 29bd 309e 03be 84f1 8abd
00000260: 486e d33c b879 c13d b5ad 05bc f9f9 e3bd
00000270: 4dbd 88bd 008b e53c c3d5 c53d 5394 403a
00000280: 6631 533d 1c63 59be 3032 bf3d 2daf de3d
00000290: 5dc3 023e a560 68be e313 c8bd d4d8 0fbb
000002a0: 5861 7ebd ffab a93d 4098 5ebc fe3e cfbd
000002b0: 495b 88be 11ce cc3d efbc 293d 4b88 acbd
000002c0: bc3d 26be 505a 15be 8151 95bd 64b7 93bd
000002d0: 236d 053d aa07 c33d a759 73be e8f3 0ebe
000002e0: 5a4c 5d3e 219b f4bc 0f2b 0fbe 6746 033e
000002f0: 1029 273d be26 113e 1e2c 933d 41c6 6cba
00000300: a493 6e3e 98a8 e7bd 7b66 a7bc a292 f33d
00000310: c861 09bd 66af e83c bab5 90be 882e 1c3d
00000320: 634a bebc 02b1 8ebd d044 ed3c 9b21 fc3c
00000330: 4047 30bd c842 ae3d 8231 01be 129b 6a3d
00000340: afa2 1fbe 48a0 d13b 7256 173e e73a 74bd
00000350: dcf8 0cbc 3330 75bd 8cc2 24be 2f99 1fbe
00000360: 00a0 003e a26c e23a 99e5 613c d6c8 f9bc
00000370: 75f9 323d 1f09 55bd 4517 a73d c061 a23d
00000380: be30 1abe 892b 423e 6ed3 d63d 79d4 173d
00000390: 2c31 f1bd 28b1 7a3d 06c1 2c3c 27ba 1ebc
000003a0: 0f9d cfbd b871 1d3e a128 f5bd d3a8 4abc
000003b0: 4ba6 703d 0a79 243d fa47 09be c856 cebd
000003c0: 1e67 54be 1247 783d e900 b63d 4ecb 2f3d
000003d0: 82aa 5fbd 95e7 533e 59b1 8bbd 1fbe 30be
000003e0: e192 c7bd fd8f cebd 667c 0bbe 1135 7abd
000003f0: 5db5 19bd c6ae 27bb ed43 e53d ae4e 02be
0.2812769 -0.19127147 -0.007155664 0.06024014 0.046979968 0.110757254 -0.16595694 -0.002742777
0.027489258 0.038164206 -0.15859568 0.050870102 -0.08243675 0.048112568 0.018571272 0.038644977
-0.0018330994 -0.060455866 0.2062093 0.037864104 0.13685851 -0.046802085 -0.061661936 -0.22813286
0.035823178 -0.028889779 0.008873364 0.0077371043 -0.017909043 -0.113315985 0.1526371 0.16065621
-0.12752761 -0.011752163 -0.035912924 0.20027111 0.08655991 -0.15632875 -0.054223415 0.0715756
-0.23058596 -0.06448925 -0.06658184 -0.03406346 0.17241865 -0.017689811 -0.010337096 0.13741396
-0.1099461 0.016689058 0.19760004 0.07666661 -0.028289001 0.18518776 -0.07527243 -0.07094769
0.17833328 0.020902421 -0.05050879 -0.10079926 0.15675873 0.013011394 0.18366247 0.007830666
-0.045864962 0.057065587 0.06395341 -0.08370438 -0.003891384 0.20458908 0.1688989 -0.16779608
-0.02922025 0.060826857 -0.009926396 0.05276562 -0.12830904 -0.042463288 -0.03574541 -0.06600247
0.15541874 -0.009821421 0.042857576 0.14474207 -0.03977152 -0.04652913 0.18007244 0.14190778
-0.09328534 -0.022225166 0.107889 0.1018285 0.01839893 -0.018423166 -0.1899459 -0.1966405
0.050249502 0.008088769 -0.16020665 -0.18062976 0.037499554 0.15576592 0.110119 -0.026699154
0.19638558 -0.067116275 -0.024073556 0.00029236393 0.074080266 -0.12989023 0.14188142 0.041637503
0.03406799 -0.1165973 -0.08264167 -0.08490943 -0.035570923 -0.114430815 0.156244 -0.009926222
-0.05213675 0.06783376 0.017323375 0.07707239 -0.09992839 -0.18332364 -0.14615381 -0.117179446
-0.11374169 0.20843276 -0.250455 0.036829684 -0.110545196 -0.10727241 0.054541122 -0.09081231
-0.056588084 -0.05238938 0.043651268 -0.07082632 0.14749414 -0.09219049 0.14772741 0.010839785
-0.14686562 0.041138984 0.0035424714 0.019581247 0.15139708 -0.041351356 -0.12853312 -0.06784347
0.025809422 0.09447044 -0.008159091 -0.11131663 -0.06676731 0.028020382 0.096599124 0.0007346321
0.051560782 -0.21229213 0.093357444 0.10873256 0.12769838 -0.22693117 -0.09769418 -0.0021949308
-0.062104553 0.08284759 -0.013586104 -0.10119437 -0.26632145 0.100002415 0.041439947 -0.08424433
-0.16234487 -0.14585233 -0.07290936 -0.07212713 0.032574784 0.09522946 -0.23764668 -0.1396023
0.21611157 -0.029859127 -0.1398127 0.12819825 0.040810645 0.14174935 0.07186149 -0.00090322277
0.23298508 -0.113114536 -0.020434609 0.11893202 -0.033540517 0.028403949 -0.28263646 0.038130313
-0.02322883 -0.06967355 0.028963476 0.030777743 -0.0430367 0.08508831 -0.12616542 0.057276793
-0.15589403 0.006397281 0.1477907 -0.059626486 -0.008604255 -0.05986042 -0.16089839 -0.15585779
0.12561035 0.0017274807 0.0137876505 -0.030491274 0.043694932 -0.05201065 0.08158735 0.079288006
-0.15057656 0.1896192 0.10489546 0.037067864 -0.11776957 0.061204106 0.010544067 -0.009687937
-0.101373784 0.15375412 -0.1197064 -0.012369352 0.05875234 0.040154494 -0.13406363 -0.10075146
-0.20742461 0.060614653 0.08886892 0.042918496 -0.05460597 0.2069381 -0.06820936 -0.17260025
-0.09744812 -0.10086057 -0.13621673 -0.061085764 -0.037526477 -0.002558635 0.111945964 -0.12725326

action_layer.2.bias f4 [64]
00000000: 9f33 e5bd c6ba 1a3d 8218 9f3c 96e6 ea3d
00000010: 5ffd 023d 2c94 743c e29a fcbd 6022 4b3d
00000020: 54d3 3a3d ad95 8fbc 5eb6 893d c04d 8cbd
00000030: 3f84 de3c e100 cfbd d5b2 1dbd e283 e03d
00000040: 702c 8c3d db7f f73c 495f 523d 7885 4ebd
00000050: ae4f 60bd fd88 933d c46d 60bd 420a 10bd
00000060: 7333 9abd ec3b b43d c215 dcbc 6a2a 8bbd
00000070: 8e69 93bd 82b7 07bd 147b 523d c50c 86bd
00000080: b5ab 003e 58da 8d3c 22a0 37bd 3945 cfbc
00000090: a227 633c 673f a6bd 8342 c2bd cdc8 883d
000000a0: 28cd 433d 052d 11be 66aa 1f3e ea47 1d3a
000000b0: 748b 4bbd c74d 91bc 0fc1 a73d f316 c3bd
000000c0: 46ce c83d 8c77 af3d e6f2 493c a7d7 9e3d
000000d0: 5222 98bc a7b5 38bd f1d5 96bd f844 e4bc
000000e0: 64e8 8ebc 51c5 b53d 5223 053a e1c8 8bbb
000000f0: b7cf 8b3d b25c ee3d 155d ac3d 3a62 35bd
-0.111914866 0.037775777 0.019420866 0.11469762 0.031979915 0.014927905 -0.12334229 0.04959333
0.045611694 -0.017527426 0.06724237 -0.06850767 0.02716267 -0.101075895 -0.038500626 0.10962655
0.06844413 0.030212333 0.051360402 -0.050420254 -0.05476349 0.07203863 -0.05479218 -0.035166033
-0.075293444 0.08800492 -0.026865844 -0.06795199 -0.07197867 -0.03313399 0.051386908 -0.06545404
0.12565501 0.017316028 -0.04483045 -0.025301563 0.01386443 -0.08117562 -0.09485342 0.06678925
0.047803074 -0.1417733 0.15592346 0.0005999791 -0.04969354 -0.017737282 0.0819112 -0.095258616
0.098049685 0.08567724 0.012325978 0.07755976 -0.018571053 -0.045095112 -0.07365025 -0.027864918
-0.017444797 0.08875526 0.00050788105 -0.00426589 0.06826728 0.11638774 0.084161915 -0.04428313

action_layer.4.weight f4 [4, 64]
00000000: 1cb6 0dbe 2db7 99bd f4c1 1d3e 712b 253c
00000010: 49ab 253e 174d 4a3e 8370 653e a443 3dbe
00000020: d029 0e3e d254 aebd 9243 293d c5e8 593e
00000030: 958a 2c3e 1e32 7fbc 8fb1 40bd 37a0 8d3e
00000040: c184 84be 3a32 8abe ed36 82be ca51 2f3b
00000050: 6884 743e 972b 623b cf46 69be d84c 2bbe
00000060: c30f 6c3d 33ca 63bd 3681 6f3c 4a52 7bbd
00000070: e85d 123d b9b4 1abe 4213 8f3e ff24 433e
00000080: c718 a7bd e11c 4e3d a69a efbc 2442 49be
00000090: e755 533e a52d f9bc cb4b 8e3d d71e 123e
000000a0: df96 2ebe 9e05 d73d 1a73 e03d a97f 7fbd
000000b0: 4802 103e d273 183e f640 7bbb 9956 6abe
000000c0: 1823 b73d 510a a93c e7c9 ea3d 5feb 0abe
000000d0: 0c74 6fbe 6c06 2dbd 2363 a03d 0fee 083e
000000e0: 3b51 24be a251 81bd e7f4 aabd c351 8abd
000000f0: 4c6e 663e 2236 8e3e 52ef dfbd 78df a7bd
00000100: b786 15be a606 803e 7f98 1bbe e1c5 0dbe
00000110: df2b 6fbb 2c20 1c3e dfd4 8dbd f44c d03d
00000120: 877b 92bd fb1c 903e 0d20 10be 7263 97bd
00000130: 439c 3cbc beed 64be 06fb c3bd 4660 74be
00000140: 8e46 d03d c1db 683d b056 063e 18fa 133d
00000150: 58f5 bcbd 965e 19be 4a06 70be da50 7f3c
00000160: 8ec6 5dbe fa9d 29bd 944d 9b3d be2d a13e
00000170: 84c0 5dbe 28a4 3dbd 4fdc b2bd 4f0c 8ebe
00000180: bc6c cdbd 7f97 b5bc b97e 54be d7fe 153e
00000190: 214a 0b3e 5320 9f3e 3033 263e d695 b5bc
000001a0: 1633 fabd 2497 53be 223e 053e d354 223d
000001b0: 57b4 02be 0478 3439 8e0e 81be 8012 4b3e
000001c0: 3e8f ed3d 2476 ad3d da69 46be 6bc7 e5bd
000001d0: 7ee2 a43b 6f28 b43d 960e 443e c43d cb3d
000001e0: 7964 563e 48a6 63bb 9a52 353b 1367 293e
000001f0: 8d5a b0bd 3822 7e3c 7c66 88be 200e 6bbe
00000200: 7b65 173e 6b1e a8bd b626 f3bd e041 1c3e
00000210: b24c 59be da92 1fbe 8804 0ebd d7ce 6fbd
00000220: fee7 6b3d 4516 373c 6601 74be 7ed3 f7bd
00000230: 0829 6fbd 3788 05bd 51ac a0bd e06d 00be
00000240: 3ee0 2a3e 799d 353e 7fdd 573e 563a 27be
00000250: 4200 5ebe 931a ff3d dbbd e13d 5a9e 753e
00000260: 9285 093e 8b84 723e 5a2c 84bc 253d 0c3b
00000270: 33cd 14be 4995 9fbd f69d 5bbd 236b 87bd
00000280: fd54 b63d 7c58 3abe b0b4 c33c ffe7 9d3d
00000290: c8b0 5fbe 49c2 903d b6f4 8bbd 078b 63be
000002a0: bb8f 5a3e ff66 53be 6e29 a73d 936c 20be
000002b0: f27d b1bc f891 71bd 9e3f 243e d8d3 033e
000002c0: bd5d 44be 2f5e b8bc 955c 8bbd f02d 0c3e
000002d0: 8fee 5f3e 3f00 07bd 99f4 85bd 4e0f a3be
000002e0: 08a8 103d 2f7c 603e 88ca 493e fdc7 85bd
000002f0: 9dea 66be 8a9e a7bd b063 443e a883 193d
00000300: 86ec 0b3e af4e 22be fd42 453e 8f8d 92bc
00000310: 16c1 023d 9df4 1dbd dffc 6e3e c1f3 b0bd
00000320: 202b aabd 9291 d4bd 3d54 923e 03aa 1f3e
00000330: 4a72 bbbd c8ba 0e3e 6764 f03d 5f4c 4e3e
00000340: b25e 2bbd 1fab 08bd e146 36be e335 aabd
00000350: d3e1 97bc 5d85 293e 31f1 cb3d eb09 25be
00000360: 9aad 6c3d dc01 dfbd fb0c a1bd 4c02 babd
00000370: e8c2 9e3d 7197 553e 2a96 793d de1b 843e
00000380: 9e83 c8bd f786 b33d 207a 913e fc56 2b3e
00000390: 08ec 873c 7a8e 773d 6b5d b53c d652 153e
000003a0: 1322 403e a41f 973e 64ba 65be 1453 efbd
000003b0: 862d a3bd 4e5c 1f3d d166 dfba 11d5 62bd
000003c0: 81b6 c23d 13b1 ebbd 814b 8d3e 7eb5 8b3d
000003d0: f5ac 41bd 44be 33be 6f91 46be fccf 433e
000003e0: 26c3 2bbd 9bcc 1fbe 801b 85be ad97 47be
000003f0: dd0a d03c dfe0 69bc 70a9 be3d 0b55 0c3e
-0.13839 -0.07505641 0.15406018 0.010081158 0.16178621 0.1975597 0.22406201 -0.18482834
0.13883138 -0.08512272 0.041324206 0.21280201 0.1684974 -0.015575914 -0.047044333 0.27661297
-0.25882533 -0.26991445 -0.2543253 0.002675163 0.23878634 0.0034510845 -0.22780918 -0.16728532
0.05763222 -0.055612754 0.014618209 -0.061357774 0.035734087 -0.15108003 0.2794438 0.19057082
-0.08159023 0.05032051 -0.029248547 -0.19654137 0.20638238 -0.030417273 0.0694805 0.14269577
-0.1704974 0.10499118 0.10959454 -0.062377606 0.1406337 0.14887932 -0.003833828 -0.22884597
0.089422405 0.020634802 0.11464291 -0.1356635 -0.23384112 -0.042242453 0.07831409 0.13372062
-0.16046612 -0.06314398 -0.08347493 -0.06753876 0.22503012 0.27775675 -0.109343186 -0.0819692
-0.14602171 0.25005072 -0.15194891 -0.13845016 -0.0036494655 0.15246648 -0.069253676 0.10170928
-0.07152467 0.2814711 -0.14074726 -0.073920146 -0.011511865 -0.22356316 -0.09569363 -0.2386485
0.10169707 0.0568502 0.13119006 0.03612718 -0.09226483 -0.14977488 -0.23439899 0.015583241
-0.21657774 -0.041410424 0.07583156 0.3148021 -0.2165547 -0.04629913 -0.08733427 -0.27743766
-0.10030505 -0.022166966 -0.20751466 0.14647995 0.13602497 0.3107935 0.16230464 -0.022166174
-0.12216775 -0.20663124 0.13011983 0.039631676 -0.12764107 0.00017210847 -0.25206417 0.19831276
0.11599587 0.08469799 -0.19376317 -0.112196766 0.005031883 0.087967746 0.19146189 0.0992389
0.20936765 -0.0034736563 0.0027667643 0.16543226 -0.08611021 0.015511088 -0.2664069 -0.22954607
0.14784805 -0.08208927 -0.11872618 0.15259504 -0.21220663 -0.15583363 -0.03467229 -0.058546867
0.057594292 0.011174743 -0.23828658 -0.12100886 -0.05838874 -0.032600608 -0.07845367 -0.12541914
0.16687104 0.17735852 0.21080588 -0.16330847 -0.21679786 0.124562405 0.1102254 0.23986188
0.1342986 0.23683374 -0.01613443 0.002139875 -0.14531402 -0.07792146 -0.05361744 -0.066122316
0.08902929 -0.18197817 0.02388987 0.07710265 -0.2184478 0.07068307 -0.06833784 -0.22221003
0.21343891 -0.20644759 0.08162199 -0.15666418 -0.0216665 -0.058977097 0.16039893 0.1287378
-0.19176383 -0.022505848 -0.06804768 0.13689399 0.21868347 -0.03295922 -0.06540794 -0.31847614
0.035316497 0.21922372 0.19706166 -0.06532285 -0.22550435 -0.08184536 0.19178653 0.037479073
0.13664445 -0.15850328 0.19263835 -0.017889766 0.031922422 -0.03856336 0.2333865 -0.08640242
-0.08309007 -0.10379328 0.28579894 0.15592198 -0.09152658 0.13938439 0.117379 0.20146321
-0.041838355 -0.03336632 -0.17800476 -0.08311059 -0.018540299 0.1655478 0.09958113 -0.16117065
0.057782747 -0.108890265 -0.07863804 -0.09082469 0.07752019 0.20858552 0.060934223 0.2580251
-0.09790729 0.08765977 0.28413486 0.167324 0.01659204 0.06043861 0.022139272 0.1458238
0.18762998 0.29516327 -0.22434384 -0.11685768 -0.07967667 0.038906388 -0.0017044191 -0.055378977
0.09507466 -0.115083836 0.27596667 0.06821726 -0.047284085 -0.1755305 -0.19391416 0.19122308
-0.041934155 -0.15605395 -0.25997543 -0.19491453 0.025395805 -0.014274805 0.093096614 0.13704316

action_layer.4.bias f4 [4]
00000000: a0da 773c 7404 8cbb 02e2 fe3d 15c0 dcbb
0.015127808 -0.004272992 0.12445451 -0.006736765

value_layer.0.weight f4 [64, 8]
00000000: eb6e 28be c97d 133e e5fd 7bbe bcc2 c5be
00000010: 7bbe 88bd 36bc 2e3d e8f4 b2be 99b0 8d3e
00000020: 797b ca3d 5660 5f3e f3ca 52be e148 b6bd
00000030: 593c 86bd 45d4 a23d 2ad1 213e 9e08 83be
00000040: 9c6d 68be 1032 2fbd 1a70 a2bb a1d3 853e
00000050: 62e9 09be d8d4 943e 8a4b 85be 5930 323d
00000060: 18b7 213e 1d1e c5be ec87 6f3c 32d1 11be
00000070: 25e7 d7bd 779e ac3e 106b 3abc 5aaf 07bd
00000080: 8194 8b3d 6725 533e 8cd6 38be c9c8 ff3d
00000090: b16a c7bd 4dc1 8e3d c53e 393e 6e44 bd3c
000000a0: 5010 08be bef3 17be 6ed5 993e 20bb 203e
000000b0: a3e6 7b3e 3c23 f1bd d90a 883e f002 98bc
000000c0: 0eeb 433c 20ef 7c3e 9da5 343e 0085 7bbe
000000d0: b7b3 0b3d 9cb7 06be f3d4 a6bc 6fca 00be
000000e0: 21d9 1f3e 3ba9 4a3e ea47 7c3b eadd 4dbe
000000f0: 571c 053e 1901 27be 2559 393e 96ac d33c
00000100: c142 a03e e388 7bbe a606 91be 7e11 ae3e
00000110: fb44 c4bd bac8 dfbd 7ccd a6be 0380 a03b
00000120: b440 503e d8b4 5bbe 6047 b73d a88d 2d3c
00000130: 768b 9dbe 9313 ee3d 2ed2 86be 1abe 96be
00000140: 8bf1 f93d 2bc1 0bbe d05e 043e 0dca 823d
00000150: 8c7f 683e f1d7 42be c842 b13d 930c 643e
00000160: ef8f 77be 2114 99be 8f7e 0b3d dcc6 fabd
00000170: 9c15 b23e 6b75 0b3e dc5c 77bd 37c9 183e
00000180: 3ae8 be3d a372 753e 8c01 153e 9c33 923e
00000190: c5f2 383c 390f 9ebc 96be 013e f6df a5bb
000001a0: 928c 34be cbfd 843b f5a8 08be 7ba3 f4bd
000001b0: 06df 633e 765e 3bbe 59df e63e 6005 3dbd
000001c0: 2dc1 d2bd 9dd8 7bbd f0d6 033e 41e4 c7be
000001d0: 671a 7abd b1f6 e93d 44d2 80bc f5a9 5bbe
000001e0: 1e58 aabe 897c c5bd 6bbd fa3d 937d 83be
000001f0: 99ac acbe b1ee 213d f18d 64be 1e2f ffbd
00000200: 86f7 963d afe5 263d 7ef1 233e db2d 4c3d
00000210: 27f5 73be d53a a33e 1593 3fbe 324e ce3d
00000220: 7a1d 41bd 8930 18be d9ad 4ebe 4d40 a23e
00000230: c93a ba3b 483c 30bd 5d90 9fbe 143f f8bd
00000240: 9c7f ad3e a77d 4bbd df3e d13d ae80 d73e
00000250: d8ff 6d3e 5777 c43d 2c6b 11be 7e90 a83b
00000260: 27e9 bb3e 8a43 cc3d 8f05 37be 1284 903e
00000270: f130 223e 2fec 153d 3ad2 3f3e 0f99 bebe
00000280: 8bd0 203e 712b 55be f7f0 303e 842a e73d
00000290: 8640 6cbe 3486 843d 25f3 66be b28e 8abe
000002a0: e1a5 49be 8c61 35be ffbc 24be b23c e63d
000002b0: 31ca e13d 3ea5 d83d 766c 7e3e 5612 8cbd
000002c0: 40fd 7dbe 45de 7b3c d11b 913e fcfe 01bf
000002d0: a0b7 41bd 4f4c 68bd b129 a23e 36e2 6cbe
000002e0: ff85 70be 4aa1 a5be 7bf6 aa3e 178d dfbd
000002f0: 1243 993e 9b44 8fbe a4e7 6f3e 8b15 173e
00000300: 5a79 4cbe 6b25 0f3d 14c9 683e 2dc3 d83e
00000310: 426e d93b e63d b6be 048e c1be 9814 88bc
00000320: 0c83 3dbe a082 6c3d 4750 183e 546c c1bc
00000330: 7c77 f7bd d3a0 4e3e cb0b 883e f35b 6ebe
00000340: 5307 f53d cfe1 52bd 8123 8fbd 5d89 9e3c
00000350: 02e9 41be 89c2 813e 0d7d 7c3e 7439 cbbe
00000360: e10a 283b 88a5 04be f16b cbbd 5334 6a3e
00000370: 923c 0f3e 66e6 313e 5831 b3bd 67ef ca3d
00000380: 1ca0 37bd eca9 d73d 462f 563e 0bf8 86be
00000390: 1cec 083e 3847 e7bc 0005 a9be 12dc 4cbe
000003a0: 901d 813e 6fb0 cfbd c947 91be c97f 71be
000003b0: 3196 53be c0c5 9dbe 30b3 983e 3e94 ba3e
000003c0: 94a5 a1bd d1da b63c be73 ec3d a952 973d
000003d0: 64aa 893e 3068 e3bd 7165 9abd 061b a33e
000003e0: e23e 993e 7530 af3d b94b afbd 60e2 a73d
000003f0: 7cae 92bc 1f55 70be 6bd3 5c3e 1b9c 263d
-0.16448562 0.14403452 -0.24608572 -0.38625133 -0.06676956 0.04265996 -0.34952474 0.27673796
0.09886832 0.21814093 -0.20585231 -0.08900619 -0.06554479 0.079506435 0.15802446 -0.25592512
-0.22698063 -0.042772353 -0.004957211 0.26138023 -0.13467935 0.29068637 -0.26034194 0.04350314
0.15792501 -0.38499537 0.014619809 -0.14239958 -0.10542134 0.3371465 -0.011378065 -0.033126213
0.06815434 0.20619737 -0.18050593 0.124894686 -0.09737147 0.06970463 0.18090351 0.023103919
-0.13287473 -0.14839074 0.30045646 0.15696383 0.245997 -0.117742985 0.26570776 -0.018556088
0.011957897 0.24700594 0.17641301 -0.24562454 0.034106936 -0.13155979 -0.020365214 -0.12577222
0.15610172 0.19791119 0.0038495013 -0.20104185 0.12999092 -0.16309012 0.18100412 0.025839131
0.3130093 -0.24563937 -0.28325385 0.3399772 -0.095834695 -0.109269574 -0.32578647 0.0048980727
0.20337182 -0.21455705 0.089491606 0.0105928555 -0.30770463 0.11624827 -0.2633223 -0.2944191
0.12204274 -0.13647906 0.12926793 0.063861944 0.22704905 -0.19027688 0.08655316 0.22270422
-0.24176 -0.2989817 0.034056243 -0.12244961 0.34782112 0.1361901 -0.060391292 0.14920507
0.093216375 0.23969512 0.14551371 0.28555 0.0112883495 -0.019294368 0.12670359 -0.0050620986
-0.17631748 0.004058575 -0.13345702 -0.11945244 0.22253045 -0.18297753 0.45092276 -0.046147704
-0.102907516 -0.061485875 0.12874961 -0.3904133 -0.061060335 0.11424006 -0.015725262 -0.21451552
-0.33270353 -0.09642894 0.1224316 -0.25681743 -0.33725432 0.039534274 -0.22319771 -0.12460159
0.0737143 0.040746387 0.1601009 0.04984842 -0.23823987 0.31880823 -0.18708451 0.10073508
-0.04714725 -0.14862265 -0.20183505 0.31689683 0.0056832773 -0.04302624 -0.31164828 -0.12121406
0.3388642 -0.04968038 0.1021707 0.42090362 0.23242128 0.09593075 -0.14201039 0.005144178
0.3670132 0.099738196 -0.17873214 0.28225762 0.15838982 0.036602195 0.18732539 -0.3722615
0.15704553 -0.20817353 0.17279421 0.11287406 -0.23071489 0.0647091 -0.2255369 -0.27061993
-0.19692184 -0.17712992 -0.16087721 0.112420455 0.11024893 0.105783924 0.24846062 -0.06839435
-0.24803638 0.015372817 0.28341535 -0.507797 -0.04729426 -0.0567134 0.31672433 -0.23133168
-0.23488615 -0.32349616 0.33391175 -0.109155826 0.29933983 -0.2798203 0.23428208 0.14754312
-0.19968167 0.034947794 0.22732955 0.42336407 0.006635458 -0.355941 -0.37803662 -0.016611382
-0.18507022 0.05774176 0.14874373 -0.023611225 -0.12083337 0.20178537 0.26571497 -0.23277263
0.119642876 -0.05148488 -0.06989194 0.01935261 -0.18936542 0.2534373 0.24657078 -0.3969227
0.002564125 -0.1295377 -0.099326976 0.22871523 0.1398795 0.17373046 -0.08749646 0.099089436
-0.044830427 0.10530457 0.20916471 -0.26361117 0.13371319 -0.028232202 -0.33011627 -0.20005825
0.25217867 -0.10141074 -0.2837508 -0.23583902 -0.20662762 -0.30814934 0.2982421 0.36441225
-0.0789291 0.022321137 0.115455136 0.07388813 0.2688781 -0.111038566 -0.0753888 0.31856555
0.29930788 0.08554164 -0.08559365 0.081974745 -0.017905466 -0.23469971 0.21565025 0.040676218

value_layer.0.bias f4 [64]
00000000: 797b a8be 4013 ca3c 8414 0f3d 4e67 b73d
00000010: c587 5dbd 68e0 42bd c0ba dabd 6986 12be
00000020: 21ee 9b3e 7ff8 41be e126 923e 80e7 273e
00000030: 70a9 0c3e 53e3 02bd 590d 1abd 7cfb 4cbe
00000040: 0917 cd3d 5675 d23d 3ff3 3e3e c194 ff3d
00000050: 11fa 823e 082f 48bc ffae 20be 1562 a43e
00000060: 45fd a03c 9ceb f83d 6caf 23bd 5443 8f3e
00000070: df1d acbe e051 293e a52c 053e 23db bd3c
00000080: 6a02 29bd 55e1 47be f35e a63d d42f 51be
00000090: 8e63 c83e 0773 95be ae69 ba3c f521 f83d
000000a0: c233 a7be e418 be3e 4299 a83e 4058 84be
000000b0: be53 29be bd58 96be 98c2 01bd 942c 9abd
000000c0: 6b8c ce3d f84c 4dbe b2b6 833d ea9a bbbd
000000d0: 6ea9 febd 1821 bd3c 63eb 923e 73ce 21bd
000000e0: 99fa abbc 0ad5 893d 573b 5f3e 110b 0abe
000000f0: 2e6e 093e ec54 19be 0d1c 88be 5046 1f3e
-0.32906702 0.024667382 0.034931675 0.08955251 -0.054084558 -0.04757729 -0.10680151 -0.14309086
0.30455115 -0.1894245 0.28545287 0.16396904 0.1373651 -0.031955075 -0.037610386 -0.20017809
0.10014159 0.10276286 0.18647479 0.124795444 0.2558141 -0.012218244 -0.15691756 0.3210608
0.019652018 0.12154314 -0.039962217 0.27981055 -0.3361654 0.16535139 0.13005312 0.023175782
-0.041262068 -0.19519551 0.08123579 -0.20428401 0.39138454 -0.2918932 0.02275547 0.12115852
-0.32656676 0.37128365 0.32929426 -0.2584858 -0.16535851 -0.29364577 -0.03167972 -0.07528034
0.10085376 -0.20048892 0.06431331 -0.09160407 -0.1243466 0.02308707 0.2869521 -0.039503526
-0.020993518 0.06730087 0.2179998 -0.13480784 0.13420936 -0.14973801 -0.265839 0.15554166

value_layer.2.weight f4 [64, 64]
00000000: 6f20 9a3d fb9c 353d 30d5 ec3d cb40 5d3d
00000010: 9a21 b13b e7fc 3a3d d169 543c 9d82 0e3d
00000020: 346f 0f3e ab91 443b d105 52bb 7877 973d
00000030: 9e12 cd3c 00f9 33bd 992b 1cbd 176e 9dbd
00000040: e6c9 42bd a69b 0abd a2a7 9a3d 9412 f13d
00000050: 371b 933d 5ef4 ccbc f5b6 d6bd 8498 cb3a
00000060: 2e80 c73d 83a2 703d 0c5d 84bd 6916 c63d
00000070: 25d6 8dbd e669 29be 2bd9 86bd 1774 a4bd
00000080: 9010 883c 7917 00be 397b dc3c a210 c0bd
00000090: 9a61 ae3d bf80 243d fef8 69bd 8ea3 a5bd
000000a0: f2df 15bd 5550 6f3e 668e 5e3e ef3d 80bd
000000b0: 2578 b2bc b7da e1bd b703 ff3d 614e bebd
000000c0: c878 873d c470 01be cf48 553d d7e5 843d
000000d0: ac74 adbb e3f4 62bd 71ff aebc 9081 8d3d
000000e0: a572 273c dd3d 9abd 4d92 6b3b fa2b bcbb
000000f0: 4991 ccbc aa41 203d a46a a13c cf63 043d
00000100: b505 bf3c aa42 78bd e8be 1838 ae3f 3abd
00000110: bfca 8c3d 5c82 1fbe 5946 9e3d 0f93 9a3d
00000120: d2c7 9f3d 979b 603d 10f4 7ebd 7339 75bc
00000130: 2888 2f3c c604 70bc 371c a4bb e38b 5abd
00000140: a8e2 11bd 1202 b83d bcdc b03d 5a93 c53c
00000150: 6c69 d63d 0306 c5bd 41cb 36be 4b72 75bd
00000160: 3125 b63c 604f c3bb b4b2 e63c 1ca2 913d
00000170: bd77 743c 4e34 3b3d 5469 b1bc b027 f2bb
00000180: 2629 1cbd c239 463b 60b1 e7bc 3140 34bc
00000190: a518 02bd e0b1 ba3d 63fb 8dbd 2e85 ddbd
000001a0: 6c13 29bd 6cb7 ed3c 99e3 c63b f8b8 d1bc
000001b0: 5e8b bfbb 331b 00bd b0d5 edbc bc8c c63d
000001c0: b665 1cbe 7972 f13c 6520 afbc f06e a1bc
000001d0: 7d52 043e d58a eebc cddd a13c 4c2a ba3c
000001e0: eedc f8bc f573 b13d 3661 a4bc 8bc1 43bd
000001f0: 2890 debc 91a4 e9bb 5545 63bd 4f54 5f3d
00000200: e2ad 9dbd 2900 853c 5db3 963d 7f13 74bb
00000210: 1b81 ea3d 140e 11bd cfe7 9f3d 48fd 103b
00000220: 9d00 ee3c c9e5 dfbd 3134 5b3d 687c 3c3d
00000230: 5201 df3b 4ab4 4c3c c149 103e 1d35 89bb
00000240: 8877 8cbd 1304 353c f09a b43d 86b7 913d
00000250: 38e4 82bd 3abd bf3d ce4d 263e 0033 133d
00000260: 2395 533b 31ed 153e 1575 413d 6a80 203d
00000270: e685 dcbd 943f 19be 3bed a7bd 3954 b53c
00000280: 7f2c 12bd 10a2 b9bd ac0f 30bc 6074 a0bd
00000290: 67a0 8e3c 8e12 59bd 1128 b2bd 76df c5bc
000002a0: fbe9 5c3d 90a6 f43c b374 bcbc b785 97bd
000002b0: 8d24 363c a545 03bd 25e0 b23d 8b31 183d
000002c0: 2401 ad3d ffec 983c 1005 83be abc5 263e
000002d0: 10c9 4e3d 9a77 a0bd eafe f93c 2b5c 3abd
000002e0: 37dc d13c 9a3e b03c 13c5 74bd 1153 1ebe
000002f0: dc3e 983d 1cab 6b3d 1cfd 193d 5312 16bc
00000300: 95f2 40be 97cf bcbd 1a2f 89bd 1498 09be
00000310: 863c 1e3e cb6a 63bc 8b6a f0bd ab21 8e3d
00000320: 6064 ab3c 68a2 ffbd 8a9e 42bd 783b bf3d
00000330: d76a 293d 0ca3 32bd a5e1 57bd d1b0 4f3d
00000340: 7cb7 d13d 50e4 92bd 698f 413e 9f6f 18bd
00000350: 4372 ab3c 4a71 69bd 8e9f 0cbe 1a2b d1bd
00000360: 43d0 d73c 821d 203d dc18 e0bc a556 cf3d
00000370: c436 f4bd 8494 9f3c f52a aabd 3fd0 0f3e
00000380: 4462 f6bc 0af8 81bb 1a9c c83d 9fa8 933d
00000390: 357c 253e 2ab5 aebd 278a aabb 07fc 5d3c
000003a0: 1183 00be ba06 4b3e 5135 583e 8776 e2bc
000003b0: df85 f0bd 91b1 003d 4217 e03c f6e7 b03d
000003c0: 8bef 71bd 6a14 993b 8876 073c c440 90bd
000003d0: e151 babc ae04 bebd 6a11 f23d eda5 c63b
000003e0: 29a3 d53c 322c c5bc d523 393e 0f72 07bc
000003f0: 8fbc 3fbd fa1f 3fbd 7f24 6bbe 5787 113e
0.075257175 0.04433916 0.115641 0.05401687 0.005405617 0.045651343 0.012964682 0.03479253
0.14007264 0.0029994051 -0.0032046924 0.07395834 0.025033291 -0.043938637 -0.038127515 -0.076870136
-0.047555827 -0.033839844 0.07551505 0.117711216 0.07182925 -0.025018867 -0.10484115 0.0015533124
0.09741245 0.058748733 -0.0646306 0.09672243 -0.069256105 -0.16544303 -0.0658439 -0.08029955
0.01660946 -0.12508954 0.026914226 -0.093781725 0.0851471 0.040161844 -0.057122223 -0.08087836
-0.036590524 0.23370488 0.21734008 -0.06261813 -0.021785805 -0.11028045 0.124518804 -0.09292293
0.06614834 -0.12640673 0.05207139 0.06489151 -0.0052934494 -0.055409323 -0.021362038 0.06909478
0.0102202045 -0.07531331 0.0035945356 -0.005742547 -0.024971621 0.039125122 0.01970417 0.032321747
0.023318151 -0.06061045 3.641742e-05 -0.045470886 0.06874608 -0.15577072 0.077282615 0.075475805
0.078017846 0.054835882 -0.062244475 -0.01496731 0.0107136145 -0.014649576 -0.0050082463 -0.053356063
-0.035616547 0.0898477 0.08635852 0.024118114 0.104693264 -0.09620287 -0.17850973 -0.05992345
0.022234531 -0.00596039 0.028161384 0.07110998 0.014921126 0.04570418 -0.02165667 -0.007389985
-0.03812518 0.0030246829 -0.028282821 -0.011001633 -0.031761784 0.09115958 -0.06932714 -0.10816418
-0.041278288 0.029018126 0.006069612 -0.025600895 -0.0058454713 -0.03127594 -0.029032558 0.09694812
-0.15273175 0.02947353 -0.021377752 -0.01970622 0.12922092 -0.029118935 0.019759083 0.022725247
-0.030378785 0.08664695 -0.020065885 -0.047792 -0.027168348 -0.0071302135 -0.055486042 0.054523762
-0.07699181 0.016235428 0.073584296 -0.0037243066 0.11450406 -0.035413817 0.07807886 0.0022123624
0.029053027 -0.109325 0.05351657 0.04601708 0.0068055773 0.012494156 0.14090635 -0.00418724
-0.06858736 0.011048335 0.088186145 0.071150824 -0.063911855 0.09362264 0.16240618 0.03593731
0.0032284937 0.14641263 0.0472308 0.039184965 -0.107677266 -0.1496566 -0.08199545 0.022134887
-0.035686966 -0.09064114 -0.010745924 -0.07834697 0.01741047 -0.05299621 -0.08699048 -0.024154406
0.05393408 0.02986458 -0.023004865 -0.07398551 0.011117113 -0.03204884 0.087341584 0.037156623
0.08447483 0.018667696 -0.255898 0.16286342 0.050484717 -0.07835312 0.03051706 -0.045498054
0.025617702 0.021514226 -0.059758257 -0.15461375 0.074338645 0.05753623 0.0375949 -0.009159642
-0.18842538 -0.09219282 -0.06698437 -0.1343692 0.15452775 -0.013880442 -0.117390715 0.069400154
0.020921886 -0.124821484 -0.047514476 0.09337515 0.041361656 -0.043612525 -0.052705426 0.050705735
0.10240075 -0.071724534 0.18902363 -0.037215825 0.020928508 -0.056992806 -0.1373274 -0.10213299
0.026344424 0.03909064 -0.027355604 0.10123948 -0.11924508 0.019479997 -0.08308975 0.14044283
-0.030076154 -0.003966336 0.09795399 0.07209896 0.16160662 -0.08530648 -0.0052044573 0.0135488575
-0.12549998 0.19826785 0.21114089 -0.027644409 -0.11744284 0.03141934 0.02735484 0.08637993
-0.059066337 0.004671623 0.008268006 -0.07043603 -0.022744121 -0.09278236 0.11819728 0.0060622604
0.026078777 -0.024068926 0.18080075 -0.00826694 -0.046810683 -0.046661355 -0.22963141 0.14211784

value_layer.2.bias f4 [64]
00000000: 5986 15bd 5576 693d 3142 80bd 963b ed3d
00000010: d112 7cbd 47b8 3b3d 8512 963d 30e6 09bd
00000020: 42f5 4dbd 9a9a 9c3d 9f67 9c3d 25a4 c23c
00000030: 60e3 543d 4906 8cbd a220 f93c 7969 7d3d
00000040: b893 1fbd 7307 bfbd 0afa 463d 8a96 38bc
00000050: 5f10 b6bd 4470 883d c6e3 af3c ba39 bebc
00000060: f85f 46bc b8fb 8f3d 8436 adbd 9964 9d3d
00000070: d3a8 453e d849 533d ff7e e9bc 96ef ec3d
00000080: e9d7 91bd 9c46 9c3c 6c53 0cbc 41e5 70bd
00000090: f0d9 7e3d cda2 1d3e f0df 27be 553d e8bc
000000a0: e6ef 9d3d 2c89 ea3c 72e2 ee3d 86d0 a43d
000000b0: 8741 a0bd e79f 533d 6a32 12bd ae67 593d
000000c0: beb5 9d3d f312 b83d f25a 1ebd c0e1 d8ba
000000d0: 9d25 c6bc d21d 013e 44a1 483c 4a1b 35bc
000000e0: bc3e 77bb 7a8b 29bd 92ef 7ebd c741 903d
000000f0: ed37 233c ba29 fc3d e2c9 a53b bd16 c33d
-0.036505077 0.056997616 -0.06262625 0.11583631 -0.061541382 0.045830037 0.07327751 -0.03366679
-0.050282724 0.076466754 0.07636952 0.02375991 0.051974654 -0.06837136 0.030411068 0.061868165
-0.038959235 -0.09327593 0.0485783 -0.01126636 -0.08889841 0.06662038 0.021470916 -0.023220886
-0.012107842 0.070304334 -0.08457664 0.07685203 0.19302683 0.051584095 -0.02850294 0.11569135
-0.0712126 0.019076638 -0.008564811 -0.058812384 0.06221956 0.15394135 -0.16394019 -0.028349558
0.077117726 0.028629862 0.11664285 0.08047585 -0.07824998 0.051666167 -0.03569261 0.053077392
0.0770068 0.08987989 -0.03866095 -0.0016546771 -0.024187857 0.12609032 0.01224548 -0.0110538695
-0.0037726602 -0.04139278 -0.06224019 0.07043796 0.009962064 0.12312646 0.0050594667 0.09525821

value_layer.4.weight f4 [1, 64]
00000000: 55ff 1fbd 46be 32bc d1ee cd3c 4208 ebbc
00000010: 5ec4 04bd 68d4 563d 1cdc 20bc a448 d03c
00000020: 1643 a0bc c8ef cebc b89d 893c 0332 843d
00000030: 5101 033d 33d5 52bd 10c3 4cbc 3fae 833c
00000040: b2a9 cc3c ee48 b43c 432a f33b c4dd 31bc
00000050: 1c36 30bb 4b7a 083b 306e 333d a9d6 bdba
00000060: 6cf7 d83c d7a5 86bd 3a2b f8bc a2e3 9dbb
00000070: 2ed8 5abd d0e3 393c eecc abbc e402 1c3b
00000080: a86a 673c 0283 833c e4db 7fba 64d5 72bc
00000090: 126f 7bbc 4acd 00bd cccd 723d af90 16bc
000000a0: ba24 bb3c 4ad2 263c f9cf babc 4e84 13bd
000000b0: cf86 353d e55d 2a3a 4e78 a6bc c505 bbbd
000000c0: 024e 983b e302 b5bc 0b78 923c 2738 503c
000000d0: 7ce0 04bc d7cf 2bbc a09e 84bc c4b9 91bc
000000e0: 50bd a6bc c23f 92bc 4bef 263d 846c b13c
000000f0: 0da2 eabb e7c3 bebc d2ac b73c 4a77 b53c
-0.039061863 -0.010909623 0.02513829 -0.028690461 -0.032413833 0.05244866 -0.009818103 0.025425263
-0.019563239 -0.025260821 0.016798839 0.064548515 0.031983677 -0.051472854 -0.012497678 0.016074298
0.02498326 0.022007432 0.0074208095 -0.010856096 -0.002688772 0.0020824845 0.043806255 -0.0014483529
0.026485167 -0.065746 -0.03029405 -0.0048183957 -0.05342882 0.011345819 -0.020971742 0.0023805434
0.01412455 0.01605368 -0.0009760244 -0.014821384 -0.015346305 -0.03144578 0.059278294 -0.009189769
0.022844661 0.010181973 -0.022804247 -0.036014847 0.044318017 0.0006498977 -0.020321038 -0.0913196
0.004647971 -0.022096103 0.017879507 0.0127087 -0.008110162 -0.010486565 -0.01618892 -0.017788775
-0.020353943 -0.017852668 0.04075555 0.02165819 -0.0071604312 -0.023286773 0.022421274 0.022151608
