PPO_preTrained/CartPole-v1/PPO_CartPole-v1_0_0.pth (torch, 40923 bytes, 11 tensors)

actor.0.weight f4 [64, 4]
0	0x3eb786e6	0.35845107
1	0x3c64623c	0.0139394365
2	0xbefe7b6d	-0.4970354
3	0x3cbdcb50	0.023168236
4	0xbe8e9e44	-0.27855122
5	0x3d13ae5b	0.03605495
6	0xbf478e61	-0.7795163
7	0x3d474b41	0.048655752
8	0xbe61ac45	-0.22038372
9	0xbe370135	-0.17871554
10	0x3f2329a8	0.6373544
11	0xbea451b6	-0.3209359
12	0xbda99553	-0.082804345
13	0xbeba8892	-0.3643232
14	0x3f15b0d3	0.5847294
15	0xbde1359c	-0.10996553
16	0xbec0af14	-0.37633574
17	0x3ecd48e2	0.40094668
18	0xbed1b323	-0.40956983
19	0x3d035824	0.03206648
20	0xbec56a51	-0.38557675
21	0xbe18fdfe	-0.1494064
22	0x3f557fbd	0.8339804
23	0xbd9d6687	-0.07685571
24	0x3e7d3fd5	0.24731381
25	0x3e9fa878	0.3118322
26	0x3f2005bf	0.6250877
27	0x3d29b3d8	0.041431278
28	0xbefee671	-0.49785188
29	0xbe32818d	-0.17432232
30	0xbe20c248	-0.15699112
31	0xbe8aa896	-0.27081746
32	0x3d1c89ed	0.038217474
33	0x3e18c88c	0.14920253
34	0x3f45c997	0.77260727
35	0xbdcb3235	-0.099216856
36	0xbef924c5	-0.48660865
37	0xbd1d5ecd	-0.038420487
38	0xbf25b3a7	-0.6472725
39	0xbee8ba47	-0.45454618
40	0x3e7cd5cf	0.24690937
41	0x3db0a167	0.08624535
42	0xbf1c9e46	-0.61179006
43	0xbe8ec426	-0.27884024
44	0x3e2fd3d6	0.17170653
45	0x3d969795	0.07353131
46	0x3f1d9474	0.61554646
47	0x3edf9002	0.43664557
48	0xbed8c32b	-0.423364
49	0xbe0631ae	-0.13104889
50	0xbe9e9673	-0.3097416
51	0xbef4594d	-0.4772438
52	0xbc87625e	-0.016526397
53	0x3e5a721a	0.21332589
54	0x3f3e9f38	0.744617
55	0xbefea2d6	-0.4973361
56	0xbe72a96c	-0.23697442
57	0xbea64883	-0.32477197
58	0xbe9375cd	-0.28800812
59	0xbef836d2	-0.48479325
60	0xbe8e330a	-0.27773315
61	0xbead49a5	-0.3384525
62	0x3f456ddf	0.77120775
63	0x3e3793bc	0.1792745
64	0xbe72fe5d	-0.23729844
65	0x3d1b41fe	0.037904732
66	0xbf29bb73	-0.6630165
67	0x3e05b328	0.13056624
68	0x3e9b1b93	0.30294475
69	0xbea0af2e	-0.31383651
70	0x3edca9e2	0.4309836
71	0x3b64cfef	0.0034913977
72	0xbe81fcea	-0.2538827
73	0xbe63d6cd	-0.22249909
74	0x3e7ea0ec	0.24866074
75	0x3db278c2	0.08714439
76	0x3e451e94	0.19249946
77	0x3eb11963	0.3458968
78	0x3f43b723	0.7645132
79	0x3e91652d	0.28397503
80	0xbe9f3d6f	-0.31101558
81	0x3ed103fe	0.40823358
82	0xbe2ab8dd	-0.16672082
83	0x3ec3ad1f	0.38218018
84	0x3e7c485c	0.24636978
85	0xbda050ad	-0.07827888
86	0x3ef818ce	0.48456424
87	0xbea09428	-0.31363034
88	0x3db04d17	0.08608454
89	0xbeab13af	-0.33413455
90	0x3ea931ed	0.33045903
91	0xbdb0751a	-0.08616085
92	0xbeb61db8	-0.3556955
93	0x3eaa14e5	0.33219066
94	0xbe60ba7e	-0.21946141
95	0xbebbb05f	-0.36657998
96	0x3ee7789e	0.4520921
97	0xbed973a7	-0.42471048
98	0x3f2c7bf7	0.67376655
99	0x3e850c14	0.25985777
100	0xbe8b32e5	-0.27187267
101	0xbebcec04	-0.36898816
102	0x3f3ab6fa	0.7293545
103	0x3e1d39cd	0.1535408
104	0x3e458639	0.19289483
105	0x3eaa72d1	0.33290723
106	0xbda88c25	-0.082298554
107	0xbee9148a	-0.45523483
108	0x3c432310	0.011910215
109	0x3eadde6c	0.33958757
110	0xbe2a446d	-0.16627665
111	0xbd3b5359	-0.045733783
112	0x3db43098	0.08798331
113	0x3d8f4906	0.0699635
114	0x3e3d9b03	0.18516164
115	0x3e9e22dc	0.3088597
116	0xbe0b9a83	-0.1363316
117	0xbef5d2bc	-0.4801234
118	0xbf52cd2e	-0.8234433
119	0xbeabf733	-0.33587036
120	0x3e80388a	0.25043136
121	0xbeb36b8b	-0.35042986
122	0xbdc41759	-0.09574766
123	0xbeab17d1	-0.33416608
124	0xbec14e78	-0.3775518
125	0xbc0195c7	-0.007909245
126	0xbf2e7503	-0.68147296
127	0xbe88dbe6	-0.2673027
128	0xbd03cad9	-0.032175872
129	0xbf00cd6e	-0.5031346
130	0xbce12761	-0.027484598
131	0xbe6ec3ae	-0.23316833
132	0xbe2f33d5	-0.17109616
133	0x3e0697f6	0.13143906
134	0xbe350f6a	-0.17681661
135	0xbe5559f5	-0.20835097
136	0xbe766bea	-0.24064603
137	0x3e93b29c	0.28847206
138	0xbea273de	-0.31729025
139	0x3d31077e	0.043220036
140	0xbe338bdf	-0.17533825
141	0x3ebca04a	0.3684104
142	0x3f11451b	0.5674607
143	0xbed1a136	-0.40943307
144	0x3e849f4c	0.25902784
145	0xbb434d02	-0.002980054
146	0xbc9bb198	-0.019005582
147	0xbead680c	-0.33868444
148	0x3d992434	0.07477608
149	0x3e282986	0.1642209
150	0xbf4e6014	-0.80615354
151	0x3b6f7816	0.0036540083
152	0xbe41b1ec	-0.18915528
153	0x3ed377a3	0.41302213
154	0x3effbc81	0.49948505
155	0xbf049cb2	-0.518016
156	0x3e6ba3da	0.23011723
157	0xbed71475	-0.42007795
158	0xbf407292	-0.7517482
159	0xbeb6e5e9	-0.35722283
160	0x3f1c929a	0.61161196
161	0x3efebed7	0.49754974
162	0x3efcab48	0.49349427
163	0x3d77da39	0.060510848
164	0x3c128b02	0.008944275
165	0xbe9905c1	-0.29887202
166	0x3f341c5a	0.7035576
167	0xbdc81911	-0.09770406
168	0x3ebc5f90	0.36791658
169	0xbed00b0d	-0.4063343
170	0xbf3983d9	-0.7246681
171	0x3ea27eba	0.3173731
172	0xbe46bda7	-0.19408284
173	0xbbda417c	-0.0066606384
174	0x3e5ffc16	0.21873507
175	0x3ef784c2	0.48343474
176	0x3e22610d	0.15857334
177	0x3f000875	0.50012904
178	0x3d69d539	0.05708811
179	0x3ed1c2a5	0.40968814
180	0x3ce77294	0.028252877
181	0xbe87c00a	-0.26513702
182	0x3f35c8d9	0.71009594
183	0x3eae3b33	0.3402954
184	0xbe94a912	-0.2903524
185	0x3e38238f	0.17982315
186	0xbedb0f77	-0.42785236
187	0x3e5645fa	0.20925131
188	0x3e92204f	0.28540275
189	0xbdf55675	-0.11979381
190	0x3e5dea7d	0.21671481
191	0x3e9d3397	0.30703422
192	0xbe39aece	-0.18133089
193	0xbf096c57	-0.5368094
194	0x3d6ded76	0.05808779
195	0xbed8cac3	-0.42342195
196	0xbec4a6e8	-0.3840859
197	0xbe3a3d55	-0.18187459
198	0x3f1c2fed	0.6101063
199	0x3e730a9c	0.23734516
200	0x3e834759	0.2564037
201	0xbe263d61	-0.16234352
202	0xbe8f3475	-0.2796971
203	0xbe8d4af1	-0.27596238
204	0x3e46701e	0.19378707
205	0xbe337cef	-0.17528127
206	0xbf1ade75	-0.6049569
207	0x3e65b28c	0.22431391
208	0xbeab9a67	-0.33516237
209	0xbe639caa	-0.22227731
210	0x3f4a65dc	0.79061675
211	0x3e70f1de	0.23529765
212	0xbed66530	-0.41874075
213	0xbe9b3a81	-0.30318072
214	0xbe1e7e20	-0.154778
215	0xbdcedb1a	-0.10100384
216	0x3ed1aa5f	0.40950295
217	0x3d56c6d3	0.052435707
218	0x3ee0e35a	0.43923455
219	0x3de44748	0.11146408
220	0x3dd62829	0.10456879
221	0x3ed043f6	0.4067685
222	0xbdd66a74	-0.10469523
223	0xbe9c5a0a	-0.30537444
224	0xbe02fbe9	-0.12791409
225	0x3e8e96ef	0.27849528
226	0xbf2be136	-0.6714052
227	0xbe25dba6	-0.1619707
228	0x3df24472	0.11829461
229	0x3eb85235	0.3600022
230	0xbd799727	-0.060935166
231	0xbee3d840	-0.44500923
232	0xbdf5e065	-0.120056905
233	0x3eeb7282	0.459858
234	0x3cd38383	0.025819546
235	0x3eeb8b89	0.46004894
236	0x3d5b6382	0.053561695
237	0xbe98041c	-0.29690635
238	0x3e9d18dd	0.30683032
239	0x3ed14032	0.4086929
240	0xbdc84977	-0.09779637
241	0xbe9f2e21	-0.3108988
242	0x3eafbc9b	0.34323582
243	0xbcdf3396	-0.027246278
244	0xbebc248f	-0.36746642
245	0x3eb091ed	0.34486333
246	0x3c212498	0.009835385
247	0xbdcedfd0	-0.101012826
248	0x3e66fcb8	0.22557342
249	0xbea7daff	-0.32784268
250	0xbed4162e	-0.41423172
251	0xbdb9e12c	-0.09076151
252	0x3dd95a39	0.10612912
253	0x3de0d501	0.10978127
254	0xbf254cd8	-0.6457038
255	0x3e0a7887	0.1352254

actor.0.bias f4 [64]
0	0xbc92f88e	-0.017940786
1	0xbecf9dfc	-0.4055022
2	0x3ee6625f	0.44996926
3	0x3eacf0a4	0.33777344
4	0x3ce12685	0.027484188
5	0x3edc8e49	0.43077305
6	0xbecf9895	-0.40546098
7	0x3eb75ac1	0.35811427
8	0x3e866565	0.26249233
9	0x3ecf8ce3	0.40537176
10	0x3d57cb72	0.052684255
11	0xbe69aa9d	-0.2281899
12	0xbe987296	-0.29774922
13	0x3e832679	0.2561529
14	0xbd48f0be	-0.049057715
15	0xbe799f2a	-0.24377123
16	0xbe32e9e5	-0.17472036
17	0xbe50271e	-0.20327422
18	0x3e4b0510	0.1982615
19	0xbee0818b	-0.43848833
20	0xbd7060fa	-0.058686234
21	0x3eadf1ac	0.33973444
22	0xbec3ce49	-0.3824332
23	0xbdb791a8	-0.089633286
24	0x3eceb8d3	0.40375385
25	0xbec11362	-0.377101
26	0x3ecc0edc	0.39855087
27	0x3e0aa4d3	0.13539438
28	0xbdf1da46	-0.118092105
29	0x3ec16889	0.37775066
30	0xbe7c00ce	-0.24609682
31	0x3d8c93ec	0.06864151
32	0x3e734f6b	0.23760764
33	0x3e8eabea	0.27865535
34	0x3e6685dd	0.22512002
35	0xbe21d417	-0.15803562
36	0xbd7f0be7	-0.06226721
37	0xbec73796	-0.38909596
38	0xbc2dc928	-0.010607041
39	0xbe9a5352	-0.30141693
40	0xbe0939f8	-0.1340102
41	0xbd452aa8	-0.048136383
42	0xbe46bdb1	-0.19408299
43	0xbd99a399	-0.07501907
44	0xbe9147e6	-0.28375167
45	0xbeaa925e	-0.33314794
46	0xbd7a45c9	-0.06110171
47	0xbeb11fa6	-0.34594458
48	0x3ebf58ca	0.37372428
49	0xbe7c7715	-0.24654801
50	0xbe2ee7f1	-0.17080666
51	0x3e82f281	0.2557564
52	0xbd3f7349	-0.046740804
53	0x3ee7614d	0.45191422
54	0x3ec86425	0.39138904
55	0x3ed5a5b5	0.41727987
56	0x3cbbd352	0.022927914
57	0x3e1f1630	0.15535808
58	0x3dfe97fb	0.12431332
59	0xbeb0f3ac	-0.34560907
60	0x3e20adf0	0.15691352
61	0xbdeb4b7c	-0.11489007
62	0x3eaa15b9	0.33219698
63	0xbddfb10f	-0.10922443

actor.2.weight f4 [64, 64]
0	0x3d8c0a60	0.068379164
1	0xbc941d59	-0.0180804
2	0x3da8f98e	0.08250724
3	0xbd5287c7	-0.05139902
4	0x3dd776e8	0.105207264
5	0xbe0950d2	-0.13409737
6	0x3dc7f701	0.09763909
7	0x3df898e2	0.12138535
8	0xbdb398b7	-0.087693624
9	0x3d56a2d5	0.052401382
10	0x3df65174	0.12027255
11	0xbd14ada7	-0.03629842
12	0x3e12a095	0.1431907
13	0xbe144077	-0.14477716
14	0x3d5c7b68	0.053828627
15	0xbe257812	-0.16159084
16	0x3de94464	0.113899976
17	0xbe159b8c	-0.14610118
18	0x3dd9d4aa	0.106362656
19	0x3d475f5c	0.048674926
20	0x3d61074e	0.054938607
21	0x3da4884a	0.080338076
22	0xbda31d84	-0.07964614
23	0xbde61420	-0.11234307
24	0xbdbcb979	-0.092150636
25	0x3da168c5	0.07881311
26	0x3dd3a24c	0.1033369
27	0x3de238c2	0.11045982
28	0x3d7d22f4	0.061800912
29	0xba8836a3	-0.001039226
30	0xbc7a49fd	-0.015276429
31	0x3d6a7df9	0.057249043
32	0xbbc3688f	-0.005963392
33	0x3dc24bee	0.09487139
34	0xbda75310	-0.0817014
35	0x3ca95e83	0.02067495
36	0x3def32f1	0.11679638
37	0x3daf1a2c	0.08549914
38	0x3cc68e07	0.024237646
39	0x3db2f4ad	0.087380745
40	0xbe106786	-0.14101991
41	0xbddd5d55	-0.10808817
42	0xbccaecc5	-0.024771104
43	0x3d941628	0.072307885
44	0xbc81eb6a	-0.015859324
45	0xbdcd970b	-0.10038575
46	0x3d3507b8	0.044196814
47	0x3d92b40d	0.07163248
48	0x3d7dc4e4	0.061955348
49	0xbdd2c9d4	-0.10292402
50	0xbc39782a	-0.011320153
51	0x3b8df091	0.0043316563
52	0x3d877c00	0.06615448
53	0xbd21d86f	-0.039513048
54	0x3dcea0ee	0.10089289
55	0x3db179a5	0.0866578
56	0x3e1f830a	0.15577331
57	0xbd1fb008	-0.038986236
58	0xbc224c3c	-0.009905871
59	0xbca58f01	-0.020209791
60	0x3d3eee84	0.046614185
61	0xbda11445	-0.07865194
62	0x3c847827	0.016170574
63	0x3d511b3f	0.051051375
64	0xbd3f8740	-0.046759844
65	0xbda55dc4	-0.08074525
66	0xbda3506a	-0.07974322
67	0xbdafa733	-0.085768126
68	0x3d7c6a17	0.061624613
69	0xbd000bb2	-0.031261154
70	0xbdd58273	-0.10425272
71	0xbbe24d5a	-0.0069061937
72	0xbe0d64ea	-0.13808027
73	0xbd2b5ac6	-0.041834615
74	0x3e2292d0	0.15876317
75	0x3bdc22da	0.006718022
76	0x3c21b3e1	0.009869547
77	0x3da405d3	0.080089234
78	0x3cd02c4a	0.025411744
79	0xbe053d95	-0.13011773
80	0xbad6c69f	-0.0016386098
81	0x3c85aa19	0.01631646
82	0xbdddf9ee	-0.10838686
83	0xbdcb8e17	-0.09939211
84	0x3d91faa2	0.071278825
85	0xbdc88ad4	-0.09792104
86	0xbe013f55	-0.12621816
87	0xbbec4ad3	-0.007211068
88	0x3da4053f	0.08008813
89	0xbdf61208	-0.12015158
90	0x3dadf408	0.08493811
91	0xbcc44383	-0.023957973
92	0xbb44abde	-0.0030009667
93	0x3d9206be	0.07130192
94	0xbdb87b52	-0.090078965
95	0x3d048d99	0.0323616
96	0xbcacdaf9	-0.021100508
97	0x3dd92fed	0.10604844
98	0x3dd9e340	0.106390476
99	0xbda9f94f	-0.08299505
100	0x3da5b8cf	0.0809189
101	0x3d3b6962	0.045754798
102	0xbd885f1e	-0.06658767
103	0x3d7da51c	0.06192504
104	0xbe2ec9de	-0.17069194
105	0xbd9f0732	-0.07765044
106	0x3dfe44d8	0.12415475
107	0x3d5ba8d2	0.053627796
108	0x3d93b812	0.07212843
109	0xbe24b48d	-0.160845
110	0xba2114e5	-0.0006144776
111	0xbd936713	-0.07197394
112	0x3dd1b019	0.10238666
113	0x3d2e521d	0.042558778
114	0x3daa7098	0.08322257
115	0x3ce52b46	0.027974736
116	0xbdbec6e3	-0.093152784
117	0x3ccac002	0.02474976
118	0xbce64676	-0.02810977
119	0xbde2e359	-0.110785194
120	0x3e44b4b4	0.19209558
121	0xbdb21110	-0.08694661
122	0xbb81234f	-0.0039409767
123	0xbca153a2	-0.0196932
124	0xbdb4d51b	-0.08829709
125	0x3c9f2ff2	0.019432042
126	0xbdcbcf71	-0.09951676
127	0x3d1d065d	0.038336147
128	0x3d690284	0.056887165
129	0xba985e32	-0.0011624752
130	0x3c0cfeea	0.008605698
131	0x3e211c31	0.1573341
132	0xbe15fc6c	-0.14647073
133	0x3de007e9	0.10939009
134	0x3e13609d	0.14392324
135	0xbd8f6e57	-0.070034675
136	0x3d375ef2	0.04476828
137	0xbc053a84	-0.008131627
138	0xbe1e430c	-0.15455264
139	0x3e047027	0.12933408
140	0xbd9a93cc	-0.07547721
141	0x3df2329a	0.11826058
142	0xbd9cc0e9	-0.07653982
143	0xbd635aea	-0.055506624
144	0xbdf2faf9	-0.118642755
145	0x3d973daa	0.07384808
146	0xbd8c9678	-0.06864637
147	0xbbaa725c	-0.005201621
148	0x3c670620	0.014100581
149	0x3def4232	0.11682548
150	0x3d52c448	0.05145672
151	0x3d2c7be3	0.042110335
152	0xbd8439d7	-0.064563446
153	0xbd96bdb7	-0.07360404
154	0xbd9bce26	-0.07607679
155	0xbcea4a80	-0.028599977
156	0x3e193be4	0.14964253
157	0xbe035709	-0.1282617
158	0xbde21b0b	-0.11040314
159	0xbe3e728c	-0.18598384
160	0xbd83eb78	-0.064413965
161	0x3aef8d90	0.0018276442
162	0xbde804cc	-0.1132904
163	0xbcc1df0d	-0.02366593
164	0x3ce4c42d	0.027925575
165	0xbdcb8ae9	-0.099386044
166	0x3dcab09d	0.098969676
167	0xbe4c9bd0	-0.19981313
168	0x3e0fa27b	0.14026825
169	0x3d296553	0.041356396
170	0x3c9b3b09	0.018949049
171	0x3dc88873	0.097916506
172	0x3d87453d	0.06605003
173	0x3e2ead0b	0.17058198
174	0xbc1d7db8	-0.009612493
175	0xbdcb6404	-0.09931186
176	0x3d63ede2	0.055646785
177	0x3d9c5b8f	0.07634651
178	0xbcf2a4e0	-0.029619634
179	0xbe1e8426	-0.15480098
180	0x3d8dd943	0.06926205
181	0xbd96ac1e	-0.073570475
182	0xbd28e24d	-0.041231442
183	0x3db53817	0.08848589
184	0xbdd2aa2d	-0.10286365
185	0xbb2ffda1	-0.0026854055
186	0x3d9bb4f0	0.076028705
187	0x3d69f3bf	0.05711722
188	0x3d961782	0.073287025
189	0x3d958f25	0.07302693
190	0xbdf08485	-0.11744026
191	0xbe13afea	-0.14422575
192	0xbdaf9220	-0.08572793
193	0xbdcac392	-0.09900583
194	0x3dce4ab1	0.1007284
195	0xbce39c7e	-0.027784582
196	0xbd992773	-0.074782275
197	0xbc77a002	-0.015113832
198	0x3d7a0714	0.061041906
199	0x3d2e3f06	0.042540573
200	0x3e23fa5c	0.16013473
201	0xbd216ab7	-0.03940841
202	0xbd4a327f	-0.049364563
203	0x3c700f04	0.0146520175
204	0xbc4b320d	-0.01240207
205	0xbca1ee34	-0.019766904
206	0xbc05b871	-0.00816165
207	0x3d8776ef	0.06614482
208	0xbbed41d9	-0.0072405157
209	0x3e1f5ee5	0.15563543
210	0x3d9208b2	0.07130565
211	0x3d701fba	0.058624007
212	0x3dc89ea9	0.09795887
213	0x3c85b1f9	0.016320216
214	0xbd91ee09	-0.0712548
215	0xbdd2bfe9	-0.1029051
216	0x3e16908a	0.14703575
217	0xbda517f4	-0.08061209
218	0xbcd13f6e	-0.025542941
219	0x3c6218ee	0.013799889
220	0x3c313c7a	0.010817641
221	0xbd24960b	-0.040182155
222	0xbe02a480	-0.12758064
223	0xbc9ec85c	-0.019382648
224	0x3d42ad96	0.047528826
225	0x3d285f42	0.04110647
226	0xbd9c2e0e	-0.07625972
227	0xbd406362	-0.04696978
228	0xbdc60caa	-0.09670384
229	0xbb913ca4	-0.0044322778
230	0xbc7c7c61	-0.015410514
231	0xbdb0ccbb	-0.08632799
232	0xbca053e9	-0.019571261
233	0x3e276602	0.16347507
234	0xbcd25c2a	-0.025678713
235	0x3e065bfa	0.13121024
236	0x3d0ee8cf	0.034889992
237	0x3dd7af2d	0.10531459
238	0x3b7fce6d	0.0039032951
239	0x3c94773d	0.018123263
240	0xbd4e0ff1	-0.05030817
241	0x3e00f366	0.12592849
242	0xbdeabf35	-0.11462251
243	0xbdf1605d	-0.11785958
244	0x3c1c1198	0.009525679
245	0x3cf12e53	0.029441034
246	0x3cf6ce55	0.030127684
247	0xbd03c4a6	-0.03216996
248	0xbe0ac7f4	-0.13552839
249	0x3d81e982	0.06343366
250	0x3e09aa07	0.13443767
251	0x3daa135e	0.08304475
252	0xbdd64d47	-0.10463958
253	0xbb327945	-0.0027232927
254	0x3b23f554	0.0025018053
255	0xbe2552b8	-0.16144836

actor.2.bias f4 [64]
0	0x3db81233	0.08987846
1	0xbd8453c5	-0.0646129
2	0x3d92f527	0.07175665
3	0x3d83c039	0.06433148
4	0x3cd9649c	0.026537232
5	0xbdad448d	-0.08460341
6	0xbd5c3eef	-0.053770956
7	0x3d2b5561	0.04182947
8	0x3dc052b1	0.09390772
9	0x3cfb76d8	0.030696318
10	0x3d983341	0.07431651
11	0x3d469f92	0.04849202
12	0x3ba850f6	0.0051366044
13	0x3d9ae773	0.07563677
14	0xbdd9e14f	-0.10638677
15	0xbd02b8f0	-0.03191465
16	0x3cc5d043	0.024147158
17	0xbd3cab2c	-0.04606168
18	0xbc3dfaeb	-0.011595468
19	0xbbc362ca	-0.0059627043
20	0xbda547bf	-0.08070325
21	0xbd5bcf47	-0.053664472
22	0xbb2814b5	-0.0025647108
23	0x3d821467	0.06351548
24	0x3d071249	0.032976422
25	0x3d596766	0.053077124
26	0xbe02f725	-0.1278959
27	0xbde2b5bf	-0.110698216
28	0x3bf47786	0.0074605374
29	0xbbf58385	-0.007492485
30	0xbc276c70	-0.010218725
31	0x3dc1b2ca	0.094579294
32	0xbae0f3a3	-0.0017162453
33	0xbc426bf7	-0.011866561
34	0x3de0a063	0.10968091
35	0xbdcb0e81	-0.09914876
36	0x3c84bff7	0.016204817
37	0xbe0c04b1	-0.13673665
38	0xbd67a9c8	-0.0565584
39	0xbd4f505e	-0.050613753
40	0x3ddcd451	0.10782684
41	0xbd05dcdd	-0.032681335
42	0xbd9a785e	-0.075424895
43	0x3b4bc935	0.003109527
44	0xbdf4c23f	-0.11951112
45	0xbdca4e8f	-0.09878265
46	0x3da6f003	0.08151247
47	0xbc937b30	-0.018003076
48	0x3d751af7	0.05984017
49	0x3d502cc7	0.050823953
50	0xbd3295c3	-0.043599855
51	0x3dc20013	0.094726704
52	0xbd9ff6d0	-0.078107476
53	0x3e0bc42d	0.13649054
54	0xbada21e3	-0.0016642179
55	0xbd940628	-0.07227737
56	0xbd90438f	-0.07044136
57	0xbdc17092	-0.09445299
58	0xbd81e382	-0.06342222
59	0x3dbba5db	0.09162494
60	0x3d4852d5	0.04890712
61	0xbba1ebbe	-0.0049414327
62	0xbda74287	-0.08166986
63	0xbc0c45dc	-0.008561578

actor.4.weight f4 [2, 64]
0	0x3e02f217	0.12787662
1	0x3e4db2b7	0.20087706
2	0xbd87248f	-0.0659877
3	0xbd9ba223	-0.075992845
4	0xbe158b03	-0.1460381
5	0x3e0b3ce7	0.13597451
6	0x3def5f16	0.11688058
7	0x3e335b54	0.17515308
8	0xbcac59f3	-0.021038985
9	0xbe02df79	-0.1278056
10	0x3da11aac	0.078664154
11	0xbc2292e3	-0.009922716
12	0xbdbdc161	-0.092654
13	0xbd917eda	-0.07104273
14	0xbe335f17	-0.17516743
15	0x3cb0976d	0.02155658
16	0x3da4d497	0.08048361
17	0xbd71c527	-0.05902591
18	0x3ae5686f	0.0017502437
19	0x3e2100ce	0.15722963
20	0xbabdbc23	-0.0014475625
21	0x3e6ee2d0	0.2332871
22	0x3d8138f7	0.06309693
23	0xbc049c37	-0.008093885
24	0xbe0c10f3	-0.1367834
25	0xbda36289	-0.079777785
26	0x3dc973ed	0.09836564
27	0x3ddadec5	0.10687021
28	0xbe075560	-0.13216162
29	0xbb809e03	-0.0039250865
30	0xbd39b03f	-0.045334097
31	0x3d00b9cb	0.031427186
32	0xbe3ea337	-0.18616949
33	0x3d28a105	0.041169185
34	0xbe194795	-0.14968713
35	0xbe0f8663	-0.14016108
36	0x3cd668b7	0.026172979
37	0x3c6347bb	0.013872082
38	0x3dab8a16	0.08375947
39	0x3d8618e5	0.06547717
40	0x3dfb3da8	0.12267619
41	0xbe430c0b	-0.19047563
42	0xbe2f1f74	-0.17101842
43	0xbd464480	-0.04840517
44	0x3dc46ad3	0.095906876
45	0x3dac83b7	0.0842356
46	0x3accfae6	0.0015638738
47	0xbe3a643e	-0.18202302
48	0x3dc2748c	0.09494886
49	0xbda3b9b6	-0.07994406
50	0x3e0d7d9f	0.13817452
51	0x3dcd4fb4	0.10024968
52	0xbdea7c91	-0.114495404
53	0xbd83bd57	-0.06432598
54	0x3c874d96	0.016516488
55	0xbd45b090	-0.048264086
56	0x3e1e598c	0.15463847
57	0xbdd88e42	-0.105740085
58	0xbcebf8b6	-0.028805118
59	0x3da074e4	0.07834795
60	0x3e20e5f4	0.1571272
61	0xbe2c3856	-0.16818365
62	0x3e26c6de	0.162868
63	0xbd69c94d	-0.05707674
64	0xbe0f0bce	-0.13969347
65	0xbdb53d94	-0.08849636
66	0x3e5144f3	0.20436458
67	0x3dcf8f7a	0.10134788
68	0x3e1199b0	0.14218783
69	0xbc47992d	-0.012182516
70	0xbda8b56d	-0.08237729
71	0xbe0eba4f	-0.13938259
72	0xbde2db9b	-0.11077043
73	0x3dcf1c44	0.10112813
74	0xbe2357eb	-0.15951507
75	0x3e26516b	0.16241996
76	0x3d5f80fb	0.054566365
77	0x3d9974e8	0.07493001
78	0x3e29f34d	0.16596718
79	0xbe4d35e7	-0.20040093
80	0xbdf4c009	-0.1195069
81	0x3e783b5b	0.24241392
82	0x3e29a337	0.16566168
83	0xbe24e30c	-0.16102237
84	0x3dc8f1e1	0.0981176
85	0xbdbf22a1	-0.09332777
86	0xbd8a8d05	-0.067651786
87	0xbe086409	-0.1331941
88	0x3d9b95b1	0.07596911
89	0x3db74b15	0.08949868
90	0xbe05def7	-0.13073336
91	0xbdf1b326	-0.11801748
92	0x3c87a77d	0.016559357
93	0x3d2060db	0.03915487
94	0x3e22b405	0.15888985
95	0x3e194299	0.14966811
96	0x3de4bb58	0.111685455
97	0xbdb7a4bf	-0.0896697
98	0x3e13003e	0.14355561
99	0x3d1079d2	0.035272427
100	0xbe136cd5	-0.14396985
101	0xbdef174a	-0.11674364
102	0xbd7931cc	-0.060838506
103	0xbd8c691a	-0.06855984
104	0xbe180274	-0.14844686
105	0x3e0fcbcd	0.14042588
106	0x3d7839b9	0.060601924
107	0x3d96424f	0.07336866
108	0xbdffc715	-0.12489144
109	0x3d71861d	0.05896579
110	0xbe02d662	-0.12777093
111	0x3de0ca39	0.10976071
112	0x3b00165c	0.0019544577
113	0x3d87206c	0.06597981
114	0x3d1251fb	0.035722714
115	0xbce098b8	-0.027416572
116	0x3e26ad3b	0.1627702
117	0x3d2cdca5	0.04220261
118	0x3e44d8d7	0.19223343
119	0xbdf0bea1	-0.117551096
120	0xbe0981d1	-0.13428427
121	0xbcd3ef47	-0.025870932
122	0x3d7c9c86	0.06167271
123	0xbe3ecdc4	-0.18633181
124	0x3d2824f1	0.041050855
125	0x3dcd3464	0.10019758
126	0xbc38ea7f	-0.011286377
127	0x3dec5579	0.1153974

actor.4.bias f4 [2]
0	0x3dcc4fae	0.09976135
1	0xbdc9df3e	-0.09857033

critic.0.weight f4 [64, 4]
0	0xbe9a5e0f	-0.30149886
1	0x3e3b4ab5	0.18290217
2	0x3e9ffc0e	0.3124699
3	0x3ea42ef3	0.3206707
4	0xbdda5b7c	-0.106619805
5	0xbdefab48	-0.11702591
6	0xbd83e046	-0.06439261
7	0x3f08ac14	0.5338757
8	0xbdc42146	-0.09576659
9	0xbec8b827	-0.39202997
10	0xbf91020c	-1.132875
11	0xbe5d6fd1	-0.21624686
12	0xbea10b3a	-0.31453878
13	0xbf00b29b	-0.5027253
14	0xbe087156	-0.13324484
15	0xbdc90916	-0.09816186
16	0x3ea82c53	0.32846317
17	0x3ec5a35f	0.38601205
18	0x3f0bd6e1	0.54624754
19	0x3ed9edaa	0.42564136
20	0x3ea4dc16	0.32199162
21	0x3dec6bda	0.115440086
22	0x3e8c9a56	0.274615
23	0x3f11f755	0.57018024
24	0x3efe5ff7	0.4968259
25	0xbe1c3a2d	-0.15256567
26	0x3f408a7e	0.7521132
27	0x3ed92faa	0.42419177
28	0xbeafbabe	-0.3432216
29	0xbd41f0c1	-0.04734874
30	0xbf90a36d	-1.1299874
31	0xbcfe47c1	-0.031040074
32	0xbe5dfbe8	-0.21678126
33	0xbefc0101	-0.49219516
34	0xbf38b64c	-0.7215316
35	0x3e277024	0.16351372
36	0x3eb1949e	0.34683698
37	0xbe3467ef	-0.17617773
38	0x3f7ca467	0.9868836
39	0xbe26dcd5	-0.16295178
40	0x3e73a688	0.23793995
41	0xbe564843	-0.20926003
42	0xbe0bd40f	-0.13655113
43	0x3dcef26a	0.101048306
44	0x3c1cbdd6	0.009566745
45	0x3ed6d02c	0.41955698
46	0x3f1ffd4f	0.62495893
47	0x3e3eb456	0.1862348
48	0x3dd62049	0.10455377
49	0xbd9b4eaa	-0.07583363
50	0xbe3dfecf	-0.18554233
51	0xbed42c0c	-0.41439855
52	0xbef8dba6	-0.48605078
53	0x3e245ef4	0.16051847
54	0xbecd5613	-0.40104732
55	0x3ea02215	0.31276003
56	0x3e163f0d	0.1467249
57	0x3e45f787	0.19332705
58	0x3ec4349e	0.38321394
59	0x3de021fc	0.10943982
60	0x3e82b880	0.25531387
61	0x3f2deaf0	0.6793661
62	0x3f171a4e	0.5902451
63	0x3f0ddc39	0.5541416
64	0x3e06d7ef	0.1316831
65	0xbef39ff7	-0.4758298
66	0xbecb23ae	-0.3967566
67	0x3ce2a13f	0.027664779
68	0x3dc4a6a9	0.096021004
69	0x3f0bb4fd	0.5457304
70	0x3f3bc135	0.73341686
71	0x3ed3d2e5	0.41371837
72	0x3dea954d	0.11454258
73	0xbe9331eb	-0.28749022
74	0x3f0c4c11	0.5480357
75	0x3ca0d8f1	0.019634696
76	0xbe8ce8e6	-0.27521437
77	0xbe318cc6	-0.17338857
78	0xbe265611	-0.16243769
79	0xbeb9a11e	-0.36255735
80	0xbd28022c	-0.041017696
81	0x3e9aa07a	0.3020056
82	0x3dedfab2	0.11620082
83	0x3efa6d5f	0.4891157
84	0xbf194a91	-0.59879404
85	0xbd98bc60	-0.07457805
86	0x3e1fd150	0.1560719
87	0xbe3d799f	-0.18503426
88	0xbee5e6d7	-0.4490268
89	0xbe835e67	-0.2565796
90	0x3e686476	0.22694573
91	0xbe32cce1	-0.17460968
92	0x3e76ba16	0.24094424
93	0x3c93a3f0	0.018022507
94	0x3f1672bc	0.5876882
95	0x3e911111	0.28333333
96	0x3c1ee13c	0.009697255
97	0x3ad89baf	0.001652589
98	0x3cc39d55	0.023878733
99	0xbdd929e8	-0.10603696
100	0xbf1e9887	-0.6195149
101	0xbe71fe82	-0.23632243
102	0xbce5cb00	-0.0280509
103	0x3ec29f96	0.3801238
104	0xbf0e0cc7	-0.55488247
105	0x3e059ba3	0.13047652
106	0x3e47cbf7	0.195114
107	0x3e90e34f	0.28298423
108	0x3e5fdbcc	0.2186119
109	0xbefad932	-0.48993832
110	0x3f0de420	0.55426216
111	0xbd1b9a7b	-0.03798912
112	0xbea8d145	-0.3297216
113	0xbd206299	-0.03915653
114	0xbf1391cb	-0.5764434
115	0x3e0ef2ed	0.13959856
116	0xbe360a5a	-0.17777386
117	0xbd932500	-0.071847916
118	0xbf351086	-0.7072834
119	0xbee26efd	-0.44225302
120	0x3eadf575	0.3397633
121	0x3f0da92d	0.55336267
122	0x3f323c97	0.696237
123	0x3ef6911e	0.4815759
124	0x3e68a6e9	0.22719921
125	0x3e02e660	0.12783194
126	0x3ab41bff	0.0013741254
127	0x3e098c49	0.13432421
128	0xbee5d03e	-0.4488544
129	0x3dd1da2b	0.1024669
130	0xbf6e8fb9	-0.93188053
131	0x3e33f4ea	0.17573896
132	0x3ec8df27	0.39232752
133	0x3ed061f1	0.40699723
134	0x3ef95f99	0.48705748
135	0x3e0d144c	0.13777274
136	0x3e838729	0.25689057
137	0x3ea88c42	0.32919508
138	0xbe704b38	-0.23466194
139	0xbec6be85	-0.3881723
140	0xbdda9cf7	-0.1067447
141	0xbda8c51a	-0.08240719
142	0x3cba720e	0.022759464
143	0xbe002b28	-0.12516463
144	0xbdbded9d	-0.09273837
145	0xbe30e0a4	-0.17273194
146	0xbecd40d0	-0.4008851
147	0xbd1ae0b9	-0.03781197
148	0x3eb02241	0.34401134
149	0x3e3dc8ef	0.18533681
150	0x3f72b0b4	0.9480088
151	0x3e9a143c	0.30093563
152	0x3eb354f6	0.35025758
153	0x3e9b9b5b	0.30391964
154	0x3e841349	0.25795963
155	0xbdf1f543	-0.11814358
156	0x3ebe5038	0.37170577
157	0xbe9af7b8	-0.3026712
158	0x3f581894	0.84412503
159	0x3e86b49a	0.26309663
160	0xbe03241e	-0.12806746
161	0xbe6bafaf	-0.23016237
162	0xbf472f64	-0.7780669
163	0xbdd24f1c	-0.10268995
164	0xbf27bb6c	-0.6552036
165	0xbea98c65	-0.33114925
166	0x3ea8ae93	0.3294569
167	0x3ecff009	0.4061282
168	0xbc29a011	-0.010353104
169	0xbdbd29ca	-0.09236486
170	0xbf15bf4f	-0.5849504
171	0x3ad3d8dd	0.0016162653
172	0x3ecc9ca0	0.39963245
173	0xbcc90011	-0.024536164
174	0x3ec11c9f	0.3771715
175	0x3ee3db8c	0.44503438
176	0xbe1a1386	-0.1504651
177	0xbd84bcdc	-0.064813346
178	0x3b733d00	0.0037115216
179	0x3e1e9ee7	0.15490304
180	0x3e706c5f	0.2347884
181	0x3d8798ca	0.06620939
182	0x3d0ac281	0.0338769
183	0xbe9d415c	-0.30713928
184	0x3e169426	0.14704952
185	0x3d8d7b54	0.069082886
186	0x3f17a947	0.5924267
187	0xbd9f457c	-0.07776925
188	0x3ebe109b	0.37122044
189	0x3f2afd5a	0.66792834
190	0x3e473370	0.19453216
191	0x3e36e680	0.17861366
192	0x3de05e1c	0.1095545
193	0x3eaf0974	0.341869
194	0x3f427005	0.7595218
195	0x3e480405	0.19532783
196	0x3f0ac06c	0.5419986
197	0x3ed6487a	0.4185217
198	0xbea48afb	-0.32137284
199	0x3d1f2122	0.038849957
200	0x3ee15057	0.44006607
201	0x3ec86325	0.3913814
202	0x3eb6301c	0.3558358
203	0xbe3638ef	-0.17795156
204	0x3e81c08a	0.25342208
205	0x3cb64caa	0.022253353
206	0x3f5b48c3	0.856579
207	0x3ec3c68a	0.3823741
208	0x3f02a913	0.51039237
209	0x3e50b703	0.20382313
210	0x3f6d65c6	0.9273342
211	0x3edd9562	0.43278033
212	0xbd357283	-0.04429866
213	0xbee85f44	-0.45385182
214	0x3e58c6ca	0.21169582
215	0x3ed7552a	0.42057163
216	0x3c3db457	0.011578641
217	0x3e2d36b2	0.16915396
218	0x3f80f67f	1.0075225
219	0x3edf3d99	0.43601683
220	0xbe08ac9d	-0.13347097
221	0xbded5989	-0.11589343
222	0xbc9da3b3	-0.019243097
223	0xbe979677	-0.29606983
224	0x3e740c01	0.23832704
225	0xbeb783a9	-0.35842636
226	0xbec8dd90	-0.3923154
227	0xbee4fa63	-0.4472228
228	0x3e6ea91f	0.23306702
229	0x3ef46209	0.47731045
230	0x3f65d4b4	0.89777684
231	0x3eb02951	0.34406522
232	0xbd0066f3	-0.03134818
233	0xbe3ecb40	-0.18632221
234	0xbed5264c	-0.4163078
235	0x3e3f18ec	0.1866185
236	0x3e8a7df1	0.2704921
237	0x3d91ccfd	0.071191765
238	0x3f2a8afa	0.6661831
239	0xbce3bcbc	-0.027799957
240	0x3f022f50	0.50853443
241	0xbe31f00c	-0.17376727
242	0xbe0becd6	-0.13664564
243	0xbf015dd4	-0.50533795
244	0x3e2838e1	0.16427948
245	0xbebe8381	-0.37209705
246	0xbe35c10c	-0.17749423
247	0xbe8ca9fd	-0.2747344
248	0xbecc5a31	-0.3991256
249	0x3e61cae5	0.22050054
250	0xbe481597	-0.19539486
251	0xbeb7f2b2	-0.3592735
252	0xbe8d7d09	-0.27634457
253	0x3e8f9293	0.28041515
254	0xbeb29278	-0.34877372
255	0x3e62e268	0.2215668

critic.0.bias f4 [64]
0	0x3ead434e	0.33840412
1	0xbf15023e	-0.58206546
2	0x3e88b771	0.26702455
3	0xbed15353	-0.40883884
4	0xbf0ed9bf	-0.55801004
5	0x3e6af464	0.2294479
6	0xbf3010b8	-0.6877551
7	0x3ef0e750	0.47051477
8	0x3f206de9	0.6266771
9	0xbf2b5e65	-0.6694091
10	0xbf76d8ff	-0.9642486
11	0xbeb13b81	-0.3461571
12	0xbe19a170	-0.1500299
13	0xbeb7ef40	-0.3592472
14	0xbf152ba2	-0.58269703
15	0xbf565297	-0.8371977
16	0x3eb44bb3	0.35214004
17	0x3e6fdcbd	0.23424049
18	0xbe997b55	-0.29976907
19	0x3d9ea113	0.07745566
20	0xbf41c076	-0.756843
21	0xbed314fa	-0.4122694
22	0x3eae23ad	0.34011593
23	0xbe29078c	-0.16506785
24	0x3f1a899e	0.6036624
25	0xbf1dd16b	-0.6164767
26	0xbda487ff	-0.08033752
27	0x3f24a0eb	0.6430804
28	0xbf31c595	-0.6944211
29	0x3f1c8841	0.61145407
30	0x3f00a7bf	0.5025596
31	0xbe86100c	-0.26184118
32	0x3f64cded	0.8937672
33	0x3eac4ea7	0.33653757
34	0xbe8e3811	-0.2777715
35	0x3f58d06f	0.84693044
36	0x3866deaa	5.5043645e-05
37	0x3e5536c0	0.20821667
38	0xbf01f01d	-0.5075701
39	0xbf2fca2b	-0.6866786
40	0x3e07455c	0.13210052
41	0xbf2e6987	-0.6812977
42	0xbe5b43fb	-0.21412651
43	0x3f03b1a2	0.5144292
44	0x3e7b7a6c	0.24558419
45	0xbe5b2143	-0.21399407
46	0xbf5ce0f1	-0.86280733
47	0x3f4e60fc	0.80616736
48	0x3dcfe0e7	0.101503186
49	0x3f115b85	0.5678027
50	0x3f074d85	0.5285266
51	0xbeee90c2	-0.46594816
52	0x3eeb5df4	0.45970118
53	0x3ed434b3	0.41446456
54	0xbec92e43	-0.39293107
55	0x3f2c99eb	0.6742236
56	0x3e8c08d1	0.27350476
57	0xbf3d1c40	-0.7387123
58	0xbc97e9b8	-0.018544063
59	0xbe68c3cb	-0.22730939
60	0xbee57cd5	-0.44821802
61	0xbe3b72ef	-0.18305562
62	0x3d88c5a4	0.06678322
63	0xbf26e5e1	-0.6519452

critic.2.weight f4 [64, 64]
0	0x3cd7840b	0.02630808
1	0x3dc643ba	0.096808866
2	0x3d4f6697	0.050634947
3	0x3cac0ecb	0.021003148
4	0xbd9d986a	-0.07695086
5	0xbd834177	-0.06408971
6	0xbd2bbf43	-0.04193045
7	0xbd58244f	-0.052769
8	0xbd99123e	-0.074741825
9	0x3e2eaf94	0.17059165
10	0x3de7a270	0.11310279
11	0x3deb943d	0.115028836
12	0x3e382502	0.17982867
13	0x3dd1db8d	0.10246954
14	0x3e814d0a	0.2525409
15	0x3e009232	0.12555769
16	0xbd18f11a	-0.037339307
17	0xbda11c7c	-0.07866761
18	0xbd1b115f	-0.037858363
19	0x3dc79fd7	0.09747284
20	0x3eb03619	0.34416273
21	0x3e16c289	0.14722647
22	0x3e067310	0.1312983
23	0xbdbb18ce	-0.091355905
24	0xbea057d8	-0.3131702
25	0x3d764e7c	0.060133442
26	0x3e0c974a	0.13729587
27	0xbe12f460	-0.14351034
28	0x3e9d123f	0.30677983
29	0xbdbd3c44	-0.092400104
30	0x3d489b2c	0.04897611
31	0xbd7ed512	-0.06221492
32	0xbe5971e7	-0.21234857
33	0x3c3f56a4	0.011678372
34	0xbb412432	-0.0029471037
35	0xbe8dbb90	-0.2768216
36	0xbd9b41e9	-0.07580931
37	0x3d963b17	0.07335489
38	0x3de10e81	0.109890945
39	0x3d268905	0.040658016
40	0x3d22e2e7	0.039767172
41	0x3da2d06a	0.07949908
42	0x3cab948a	0.020944852
43	0xbd82fc69	-0.063958
44	0x3ca550bd	0.0201801
45	0x3dc741b4	0.09729329
46	0x3eb97041	0.36218455
47	0xbe08d0a6	-0.13360843
48	0xbde86363	-0.113470815
49	0x3aa7d1a1	0.0012803563
50	0x3d164d2b	0.036694687
51	0x3c164fcf	0.009174301
52	0x3d55325f	0.05204999
53	0x3d459ec7	0.048247125
54	0x3db82be9	0.0899275
55	0xbe7dbd85	-0.24779327
56	0xbc5d33a6	-0.0135010835
57	0x3e453483	0.19258313
58	0xbb94047a	-0.004517135
59	0x3df89a70	0.121388316
60	0x3d69479b	0.056953054
61	0x3d6b149a	0.057392694
62	0xbd561f10	-0.052275717
63	0x3e84c1f5	0.25929227
64	0x3db20d3b	0.0869393
65	0xbe730d3f	-0.23735522
66	0x3c945a0b	0.018109342
67	0x3cd04fe8	0.025428727
68	0x3dc0bf64	0.09411505
69	0x3dcaec2f	0.0990833
70	0xbd4a833b	-0.049441557
71	0xbcc21824	-0.023693152
72	0xbdce9715	-0.1008741
73	0xbe2caacf	-0.16862033
74	0xbe910759	-0.28325918
75	0xbe23474a	-0.15945163
76	0xbde82753	-0.113356255
77	0xbdf90ec2	-0.12161018
78	0xbe8ec266	-0.2788269
79	0xbda25f86	-0.07928376
80	0x3dcd0846	0.10011344
81	0xbd894d66	-0.06704216
82	0xbdfb74c9	-0.122781344
83	0x3dc0c187	0.094119124
84	0xbe616a92	-0.2201331
85	0xbd587a0f	-0.05285078
86	0x39bf1a6e	0.0003645005
87	0x3d69c880	0.057075977
88	0x3e6e11ad	0.2324893
89	0xbd858674	-0.065197855
90	0xbd84d9f4	-0.06486884
91	0x3e611ac8	0.21982872
92	0xbe6f8328	-0.23389876
93	0x3d8e32e4	0.069433
94	0x3d228ef5	0.039687116
95	0xbcee90f1	-0.029121848
96	0x3e2658b0	0.16244769
97	0xbda1b5d6	-0.078960106
98	0xbd88ff5b	-0.0668933
99	0x3eb6717b	0.35633454
100	0xbde9ae55	-0.11410204
101	0x3cec9dea	0.028883893
102	0x3cce2761	0.025165262
103	0xbdee41d0	-0.116336465
104	0xbd9be536	-0.07612078
105	0xbcf56b0c	-0.02995827
106	0xbe600709	-0.21877684
107	0x3e207232	0.15668562
108	0x3dd127b6	0.102126524
109	0xbd0052c6	-0.03132894
110	0xbe0799a8	-0.13242209
111	0xbd1dcf08	-0.03852752
112	0x3d6c4269	0.05768052
113	0xbd3b0639	-0.04566023
114	0x3e12fae9	0.14353527
115	0xbd649af5	-0.05581184
116	0xbcd738f2	-0.02627227
117	0x3d70fd10	0.05883509
118	0xbd05a923	-0.032632004
119	0x3e99360b	0.29924044
120	0x3dae0842	0.08497669
121	0xbe02cddf	-0.12773846
122	0xbccf8c7c	-0.025335543
123	0x3d4cbd9c	0.049985513
124	0x3dec598c	0.11540517
125	0xbd11ceb1	-0.035597507
126	0xbd435dc0	-0.04769683
127	0xbe1abf30	-0.15111995
128	0x3e8e6962	0.27814776
129	0xbd92257a	-0.07136054
130	0x3d5c840a	0.05383686
131	0xbe74c210	-0.23902154
132	0xbea0c3e1	-0.31399444
133	0xbd4077d9	-0.046989296
134	0xbeba6003	-0.36401376
135	0x3eda8456	0.4267909
136	0x3f1216b7	0.5706591
137	0xbefb21a5	-0.49049106
138	0xbe950baa	-0.2911046
139	0xbeb57218	-0.3543861
140	0xbe3735d7	-0.17891632
141	0x3d41f93f	0.04735684
142	0xbf0d5d52	-0.5522052
143	0xbf624be7	-0.8839707
144	0x3dd910dd	0.105989195
145	0x3dc8bee6	0.09802036
146	0xbe4eef11	-0.20208384
147	0x3e8bbe5d	0.27293673
148	0xbe8fa66e	-0.28056663
149	0xbda0997c	-0.07841775
150	0x3e11f8fe	0.14255139
151	0xbe5281e3	-0.2055736
152	0x3dc58f89	0.09646518
153	0xbe15416c	-0.14575738
154	0x3e0927dc	0.13394111
155	0x3e59ba91	0.21262576
156	0xbcba48cd	-0.022739792
157	0x3ea485bb	0.32133278
158	0x3e8f5fed	0.28002873
159	0xbe9e35e2	-0.30900484
160	0x3f435305	0.7629855
161	0x3d87a2ea	0.0662287
162	0xbe6a89d4	-0.2290414
163	0x3eb8c25b	0.3608578
164	0x3e0958c1	0.13412763
165	0xbddb1542	-0.10697414
166	0xbe5935d0	-0.21211934
167	0xbedfa57e	-0.43680948
168	0x3e4185cb	0.18898694
169	0xbe9ec2e8	-0.31008077
170	0xbe52e813	-0.20596342
171	0x3d5024c3	0.05081631
172	0x3e49d190	0.19708848
173	0xbe737c6f	-0.23777936
174	0xbeaa6fd8	-0.33288455
175	0x3ec474f9	0.38370493
176	0xbc917cd5	-0.01775972
177	0x3e1192ca	0.14216152
178	0x3d832ee9	0.06405432
179	0xbef2f883	-0.47455224
180	0x3dc39880	0.095505714
181	0x3ec5095e	0.3848371
182	0xbe8c6617	-0.27421638
183	0x3e7fe2e9	0.24988903
184	0xbcafd267	-0.021462632
185	0xbf3348cf	-0.7003297
186	0xbd22425b	-0.039614063
187	0xbeb2ce6c	-0.34923112
188	0xbee1f573	-0.44132575
189	0x3b626146	0.0034542843
190	0x3e20949c	0.1568169
191	0xbd454665	-0.048162837
192	0x3e74be6c	0.23900765
193	0xbd997fe0	-0.07495093
194	0x3e9719d5	0.29511896
195	0xbe632544	-0.22182184
196	0xbe49e106	-0.19714746
197	0x3d8f8eee	0.070096835
198	0xbed5c5b6	-0.41752404
199	0x3f065b05	0.52482635
200	0x3f059466	0.52179563
201	0xbf0bdb2a	-0.5463129
202	0xbe57bc5b	-0.21067946
203	0xbe8d9e0f	-0.27659652
204	0x3caaf45a	0.020868469
205	0xbe048eb6	-0.12945065
206	0xbec448f8	-0.3833692
207	0xbf4db110	-0.803483
208	0x3dc912b1	0.09818018
209	0x3daa9303	0.083288215
210	0xbded8552	-0.115976945
211	0x3e96ff36	0.29491585
212	0xbe901f23	-0.28148755
213	0x3d4336dd	0.047659744
214	0x3e8c6929	0.2742398
215	0xbe63683f	-0.22207735
216	0x3e83231b	0.2561272
217	0xbd4fe9ad	-0.05075996
218	0xbd67765a	-0.056509353
219	0x3e815cad	0.25266019
220	0xbda41233	-0.08011284
221	0x3e9f8da9	0.31162766
222	0x3dcec499	0.10096092
223	0xbeb4a71f	-0.35283753
224	0x3f2eae49	0.6823469
225	0x3db9075d	0.090346076
226	0xbdc92f6e	-0.098234996
227	0x3ee0c109	0.43897274
228	0x3e30b4db	0.17256491
229	0xbca04b66	-0.019567203
230	0xbea2f634	-0.31828463
231	0xbe724790	-0.23660111
232	0x3db89969	0.09013636
233	0xbe251edd	-0.16125055
234	0xbdeb44f0	-0.11487758
235	0x3d9a7113	0.075410984
236	0x3e65f158	0.22455347
237	0xbe1b7697	-0.15181957
238	0xbec5b3af	-0.3861365
239	0x3e4ce64e	0.2000973
240	0xbba7206e	-0.0051003015
241	0x3d0b30c4	0.033982053
242	0x3e55e1a8	0.20886862
243	0xbee5bc0c	-0.4487003
244	0x3d81636d	0.06317792
245	0x3e90ed7c	0.28306186
246	0xbe86974d	-0.26287308
247	0x3eb7825c	0.35841644
248	0x3d2209a1	0.039559964
249	0xbf46bacc	-0.7762878
250	0x3d78dd6b	0.060758036
251	0xbe8d25cc	-0.275679
252	0xbe9a2d76	-0.3011281
253	0xbdaa3ba7	-0.08312159
254	0x3d9dd6ec	0.07707009
255	0xbd999bae	-0.07500397

critic.2.bias f4 [64]
0	0xbecddab7	-0.4020593
1	0x3eba1a9d	0.3634843
2	0x3d41fb5f	0.047358867
3	0x3d9cc9a2	0.07655646
4	0xbe284ced	-0.16435595
5	0x3d8db862	0.06919934
6	0x3e6647db	0.22488348
7	0x3d9fc6bc	0.078015774
8	0x3e19c777	0.15017496
9	0xbda7710c	-0.08175859
10	0xbd20b825	-0.039238114
11	0x3ea1c504	0.31595623
12	0x3e998d24	0.29990494
13	0x3dab0829	0.08351166
14	0x3e24664a	0.16054645
15	0x3eaff4c9	0.34366444
16	0xbec4c19f	-0.3842897
17	0x3e1df75f	0.15426396
18	0xbe51cab2	-0.20487478
19	0x3e734bbb	0.23759358
20	0x3ce6f241	0.028191688
21	0xbd2df8ed	-0.042473722
22	0x3e8c2ff7	0.27380344
23	0x3de11b08	0.10991484
24	0xbd1226c8	-0.035681516
25	0xbdbb8c96	-0.09157674
26	0x3da27847	0.07933097
27	0xbec8aa04	-0.39192212
28	0x3dc65f47	0.096861415
29	0xbcfe9038	-0.031074628
30	0xbe0b64c1	-0.13612653
31	0x3d8fbf30	0.07018888
32	0x3e49f31a	0.19721642
33	0xbe644efa	-0.22295752
34	0xbdd2f154	-0.10299936
35	0x3be8e8e3	0.0071078404
36	0x3e24e665	0.16103514
37	0xbea37e7a	-0.3193243
38	0x3cba0ee7	0.022712184
39	0x3e31745e	0.17329547
40	0xbd701a73	-0.058618974
41	0xbe884fc8	-0.26623368
42	0xbca2fa7f	-0.019894836
43	0xbde8ab12	-0.11360754
44	0x3dd119eb	0.102100216
45	0x3db3aa70	0.08772743
46	0x3ee52a4c	0.44758832
47	0x3e1c673d	0.15273757
48	0x3e30b89a	0.1725792
49	0xbdc7d644	-0.09757665
50	0xbea36563	-0.3191329
51	0x3dba4892	0.09095873
52	0x3e59f440	0.2128458
53	0x3e8a5f58	0.27025867
54	0xbea404df	-0.32034966
55	0xbd07dca7	-0.033169415
56	0xbe478beb	-0.19486968
57	0xbeed69b3	-0.46369705
58	0xbdffae4f	-0.124844186
59	0xbc477203	-0.012173179
60	0xbebdccd4	-0.37070334
61	0x3d8d0bc8	0.06887013
62	0x3edaf45e	0.42764562
63	0xbeca1235	-0.39467016

critic.4.weight f4 [1, 64]
0	0x3e66a587	0.22524081
1	0xbe4078a7	-0.18796025
2	0x3e8bd4d0	0.273108
3	0x3e8bcc42	0.27304274
4	0xbd317928	-0.043328434
5	0x3c9e46c9	0.019320862
6	0xbc3d2b14	-0.011545915
7	0x3e1464e5	0.14491613
8	0x3d9e72ec	0.07736763
9	0x3d9f8e90	0.077908635
10	0x3d80f14d	0.062960245
11	0xbe3936a8	-0.18087256
12	0xbe64405e	-0.22290179
13	0xb990804f	-0.00027561418
14	0x3e08cbf6	0.13359055
15	0xbd33a20a	-0.043855704
16	0x3e6ef52d	0.23335715
17	0x3c54440e	0.012955679
18	0xbe2c366a	-0.16817632
19	0xb94d9b6b	-0.00019608221
20	0xbd03134f	-0.032000836
21	0xbc25cc91	-0.010119573
22	0xbe420dd0	-0.18950582
23	0xbc4b100a	-0.012393961
24	0x3a51795a	0.00079908
25	0xbe3555ad	-0.17708464
26	0x3db35764	0.08756903
27	0x3e375a93	0.17905645
28	0x3ccc3820	0.024929106
29	0x3e198fcf	0.14996265
30	0x3b7a9310	0.0038234629
31	0x3e41f149	0.18939699
32	0x3c38844b	0.01126201
33	0xbe7b3671	-0.24532486
34	0xbbf17cea	-0.0073696272
35	0x3d099177	0.03358599
36	0x3e5ce45f	0.21571492
37	0x3e230621	0.15920307
38	0x3a6074e2	0.0008562339
39	0x3cd6d2d4	0.026223578
40	0x3bcf82de	0.0063327393
41	0x3e2b2b1a	0.1671566
42	0xbc957d09	-0.018248098
43	0xb99b953a	-0.00029675086
44	0xbd85da73	-0.065358065
45	0x3e250663	0.16115718
46	0xbe2ae1db	-0.1668772
47	0x3e2b5183	0.16730313
48	0x3c81af4a	0.015830655
49	0xbcfb24e3	-0.030657237
50	0x3e77044d	0.24122734
51	0x3c1bd200	0.009510517
52	0x3e0a1fb7	0.13488661
53	0xbc963376	-0.018335085
54	0x3e02dc18	0.12779272
55	0x3d7bb14d	0.061448384
56	0xbe52fd62	-0.2060447
57	0x3e066d16	0.1312755
58	0xbb3fc2da	-0.0029260428
59	0xbe00363c	-0.12520689
60	0x3e1bcaa7	0.15214024
61	0xbdad13f0	-0.084510684
62	0xbe583f2f	-0.21117853
63	0x3de7f3c8	0.113257945
