PPO_preTrained/LunarLander-v2/PPO_LunarLander-v2_0_0.pth (torch, 43483 bytes, 11 tensors)

actor.0.weight f4 [64, 8]
00000000: a72b 9d3d 0abc 80be 2fb9 d3be 0c6d 75be
00000010: b41d d53e 26be 843e 43fe 4bbe 131f 003e
00000020: aade 3a3e 04b5 b6bd 3bf3 133d 0990 b3be
00000030: 0e8a c63e c3a1 0cbf c977 3fbe 3f87 bebe
00000040: 48f8 a9bd 28b7 c2be 5d29 543e 47cc ddbe
00000050: 9897 f13d e33c 15be 0252 963e 2dd6 413d
00000060: 20ad 913d 5935 9fbe 231d 50be 01cb 46be
00000070: d58b 283f a1ab 49bd 5710 09be 0ef6 3bbd
00000080: d2fd 483e 6ef8 4bbd 9234 d33e b9c7 7b3d
00000090: b388 8cbf 0060 1abf 2438 c13d 77b3 733e
000000a0: aba6 abbd 17c9 443e 3ddf a6be fb70 243e
000000b0: 7fca 313f 5b44 303f 6d4c 723e 1ca8 7a3d
000000c0: 37b4 283e df44 adbe ed32 fe3d 5c6d 96be
000000d0: 5bd2 3dbf a221 85be 7731 22be 86b2 b3be
000000e0: 75e8 a13e 03ab 20bd 6482 ba3e f7a3 e53e
000000f0: 06a0 00bf 645f 6bbc 51b9 16be 6899 053c
00000100: 8ee7 c03d 4334 883e 7f40 c03a f9f3 f03e
00000110: f22b bf3e f7b9 d83e bbec 9ebe 3510 7a3e
00000120: 481f 01be 3d23 55be 77c4 8ebe 78b7 09be
00000130: 8afe 943e a70d 913d 4509 c83e 04a3 c6be
00000140: 94b7 063d b538 98bd f83a 133e 60d8 7ebd
00000150: cc0a 213f 71c0 a43c 7db0 b0bd 1f3e a93d
00000160: ad68 983b 054d c33e 3cb4 b53d a012 b53e
00000170: 8015 9f3e d8da e93e 40cc 87be 1795 21be
00000180: 578b aebe 918a 8abe 9372 1dbe ab68 ad3d
00000190: 8282 903e b25e f9be 4577 d0be c4ad 553e
000001a0: cece 67be 4000 fe3e 4d0e a3be 7451 2c3e
000001b0: 5f93 96be 6565 c03e 00c4 99bd 308b 52be
000001c0: 519c aa3e cdcd 9abe 4194 53be 16c8 10be
000001d0: 16b5 56be 161f b6be 8f81 36be 84b2 be3e
000001e0: 006e f13d 15f3 4c3e afe9 20be f0b1 c93e
000001f0: 42f9 fcbe f994 b03e 9617 793d a301 1f3d
00000200: 4b14 68be ded4 e43e eb75 e03d 1bc8 713e
00000210: dacb e1be 95ca 6d3e 759f 6dbe 2774 43be
00000220: 961d cebe 7fb7 f03d 293e a2be 5891 583e
00000230: d5f4 2f3f beb2 1d3e 0539 803e 5c55 5fbe
00000240: 7de7 cd3d 4106 3b3e b55a 153e 67b0 1e3e
00000250: 62ad b4bd 62d9 a83e fe03 6fbe 57f6 643b
00000260: b1c3 573e 9868 cdba 1cf1 0dbe 7b2a b03e
00000270: d5ab 43bf 1575 a43e 755f 89bc 4e6a 4a3d
00000280: 4985 473e 6347 943e 02d3 58bd c6f8 003f
00000290: 3730 153f c2e1 2b3e 5382 93be fa09 483e
000002a0: c2fb 46be 5dd5 613e 8722 8f3d e0ba 933d
000002b0: dc1b f5bd dcf8 3bbf 2201 7abe aed6 413c
000002c0: 90de 8ebe 0e0c 9fbe 61c7 c73e 15eb 1bbd
000002d0: 4c97 c2be e101 c53e b241 fe3d f4c5 d83d
000002e0: c825 8fbe a383 4a3d e88b 263e 21f0 803e
000002f0: 36a8 83be cdc3 49bd 2d9f f2be 43be a93e
00000300: 2a3e 8b3e 273e 3abe ec4c 7ebe 0256 c1be
00000310: 6ffa 113f 1bf3 afbe 2271 673e b028 b8be
00000320: 49ca bf3b 4f5a 9a3d 59ba d0bd bbc4 0c3e
00000330: 4151 4cbf 851e e1be 276f 29bc 0204 1fbe
00000340: 031b 0a3d 3c60 a7bd 0265 8ebe a46f c8be
00000350: 1c75 663f 5bfe 47be c876 5bbe dbb6 16be
00000360: 720d d0bc 2394 023e 9bcf f43d 5c03 c43e
00000370: f0eb 32bf 5587 b8bd 95af b7be 34bf 303d
00000380: 2f94 0dbd 9f2f 4cbe 0016 ea3e b62d 7e3e
00000390: cbc2 7fbf 9a2a fbbe 581d a8be aca0 5e3e
000003a0: a647 bfbd 527a 2cbe 155c bdbe 21ec ccbe
000003b0: d36e 113e 3ed9 f1be 8b85 f1bd c120 b63e
000003c0: 0884 86be bc2d 5f3e 3fb4 e63e 1cf2 693e
000003d0: b2d2 e2be a98a a03e 9059 bdbd 1bbb 51bd
000003e0: 20fb 22be 502a 633e 2c5e 9a3e c0fc c63e
000003f0: 78c5 8c3e e5be 6e3b 3a00 b63d dd0a 3b3e
0.07674342 -0.25143462 -0.4135222 -0.2396738 0.41624224 0.25926322 -0.19921212 0.12511854
0.18249002 -0.08921245 0.036120635 -0.35070828 0.38777202 -0.5493433 -0.18698038 -0.3721256
-0.08299309 -0.38030362 0.20718904 -0.43319914 0.11796492 -0.14574008 0.29359442 0.047323395
0.07113099 -0.3109539 -0.20323615 -0.19413377 0.65838367 -0.049235944 -0.1338514 -0.045888953
0.19628075 -0.049797468 0.41251045 0.061469767 -1.0979217 -0.60302734 0.09434536 0.23798929
-0.08381399 0.19217335 -0.32592192 0.16058724 0.6944961 0.688543 0.23661967 0.061195478
0.16474997 -0.33841607 0.12412057 -0.2938031 -0.741491 -0.26002222 -0.15839182 -0.3509714
0.31622663 -0.03922559 0.36427605 0.44851658 -0.50244176 -0.014366005 -0.1471913 0.008154251
0.094191656 0.26602373 0.0014667659 0.47061136 0.37338215 0.4232938 -0.31039986 0.24420245
-0.12609589 -0.20814224 -0.27884266 -0.13448894 0.29100448 0.07082682 0.39069572 -0.38796246
0.032889917 -0.07432691 0.14377964 -0.06221807 0.629071 0.020111294 -0.086274125 0.08263802
0.00465115 0.381447 0.088722676 0.35365772 0.3107109 0.45674777 -0.26523018 -0.1577953
-0.34090683 -0.27058843 -0.15375738 0.084672295 0.2822457 -0.4870506 -0.40715995 0.20867068
-0.22637483 0.49609566 -0.31846848 0.16827947 -0.2940931 0.37577358 -0.07508087 -0.20560908
0.33322385 -0.3023514 -0.20662023 -0.14138827 -0.20967516 -0.35570592 -0.1782286 0.37245572
0.11788559 0.20014603 -0.15714143 0.39393568 -0.4940892 0.34488657 0.06081351 0.03881992
-0.22663991 0.44693655 0.10959991 0.2361149 -0.4410084 0.2322181 -0.2320536 -0.19087277
-0.40256947 0.11753749 -0.3168805 0.21149194 0.6873296 0.15400216 0.25043502 -0.21809906
0.100539185 0.18264104 0.14585383 0.1549698 -0.08822133 0.3297835 -0.23341367 0.003493687
0.21070744 -0.001567143 -0.13861507 0.3440741 -0.7643407 0.32120577 -0.01676915 0.049417786
0.19484438 0.28960714 -0.052935608 0.503796 0.58276695 0.16785339 -0.28810367 0.19535056
-0.19431975 0.22054048 0.069890074 0.07213378 -0.119682044 -0.73426604 -0.24414495 0.011830969
-0.27904177 -0.31063884 0.39019302 -0.03806599 -0.38006055 0.38477996 0.12414874 0.105846316
-0.27958512 0.049441945 0.16264307 0.25183204 -0.25714272 -0.049258996 -0.47387066 0.3315297
0.27195865 -0.18187772 -0.24834031 -0.3776093 0.57022756 -0.34365162 0.2260175 -0.35968542
0.0058529717 0.07536756 -0.10191793 0.13746922 -0.79811484 -0.43968597 -0.010341442 -0.15528873
0.033717167 -0.08172652 -0.27811438 -0.39147675 0.90022445 -0.19530623 -0.2143203 -0.14718191
-0.025397036 0.12751822 0.1195366 0.38283813 -0.6989126 -0.090101875 -0.35876146 0.043151096
-0.034565147 -0.19940041 0.4571991 0.24822125 -0.99906605 -0.4905594 -0.32834888 0.21740979
-0.09339838 -0.16843536 -0.36984316 -0.40023902 0.14202432 -0.47236055 -0.117930494 0.35571864
-0.26272607 0.2179479 0.45059392 0.22846264 -0.44301373 0.3135579 -0.09245598 -0.05120383
-0.15916109 0.2218411 0.30149972 0.38864708 0.27494407 0.00364297 0.08886762 0.18265863

actor.0.bias f4 [64]
00000000: 99dd 603c d193 4d3d 1480 273d b6b4 163c
00000010: 28f3 d53d c839 023c 85f1 483e fb40 083e
00000020: daa3 cd3d ebdf a63d d4ec 653d 2637 e83d
00000030: d02a 413e 4222 0d3e f2c8 413d ff06 893c
00000040: f6ec 953c b7d3 fe3c bf8f 233e 6186 01bb
00000050: 57e7 593e 1ae9 94bc 38f6 04be 2b23 5f3e
00000060: 7f2b 0d3d 3075 67bd 17ac beba 67ba 3cbc
00000070: bbc6 a63e cd09 3fbe f0ce 523e 1a05 393e
00000080: fd4a bc3c bad7 fbbc 43bf 4a3e 32a2 80be
00000090: 1079 fd3d ca6c 353e d3ec d0bd 51c2 263e
000000a0: b1d5 7abe 239d 5b3e 09a8 bf3d 22f0 623e
000000b0: 6a3d 3d3d 8719 9abe 0292 01be cff2 aebc
000000c0: e9a5 18be 7b72 8abe dff9 8abc eba2 85be
000000d0: e3d6 523e ec02 e63d f02d 96bc e4b4 ed3d
000000e0: 8fce 753a d3f3 0ebe 12a0 07be afcd 063d
000000f0: c814 833e e13a 88bd 0d33 6bbe 35ac 86bd
0.013724708 0.050189797 0.04089363 0.009198358 0.10446769 0.007948346 0.19623382 0.13306038
0.10041018 0.08148178 0.05613406 0.11338644 0.18863988 0.137826 0.047310777 0.016726969
0.018301468 0.031106813 0.15972804 -0.0019763934 0.21279655 -0.018177558 -0.1298455 0.2179076
0.03446531 -0.056508243 -0.0014547136 -0.011519051 0.32573494 -0.18656082 0.20586753 0.18068352
0.022984976 -0.030742515 0.19799523 -0.25123745 0.123766065 0.17717281 -0.10201421 0.16285063
-0.2449558 0.21446662 0.09358222 0.22161916 0.046201147 -0.300976 -0.12653354 -0.021356015
-0.1490704 -0.27040467 -0.016964851 -0.2610086 0.20589785 0.11231026 -0.018332452 0.11606768
0.0009376788 -0.13960199 -0.13244656 0.032911 0.25601792 -0.06651855 -0.22968693 -0.06575815

actor.2.weight f4 [64, 64]
00000000: 86c2 803e f761 303e 7cdf 20bd 9429 943e
00000010: 1b77 0abf aab8 3b3e 9369 2abd 06a7 92bd
00000020: b8cd 873e 44c2 3d3e 7f2b 513d f881 603e
00000030: 73ee f33d b91b 8c3d 3721 56be e76d 15be
00000040: 1745 9abd 3096 673e ee04 ebbd 496c 733d
00000050: 551f 3f3e f519 9abd 0f17 d1bd 9715 d1bd
00000060: ac11 073e c92e 1c3d f6d3 d03e 3330 f7bd
00000070: 8e09 9cbe 167c bd3c 5cfc f6bd dfa0 37be
00000080: 34bd 4d3e 42b1 2abe 9017 8fbe ad24 d83c
00000090: abf2 7e3d e8d5 033c bd98 393e 831a 71bc
000000a0: f19d d13e d5ba f2bd 46fb d43d 0728 e5bd
000000b0: c45a 3bbe d179 dfba e44c 433d e34d 8cbd
000000c0: e7c7 b9bd 0b42 e23e a322 383e dfc1 84be
000000d0: 4012 66bd ab0e b6be cdb6 90bd 3f39 2bbe
000000e0: 77e9 0c3e 81b1 56be 76c9 a8be 8bfb 683d
000000f0: c1e9 3f3e 6eec 1c3e a243 e2bc 4867 9f3b
00000100: 51bc 3f3d a27c 85bd 320d 50be 0a19 163e
00000110: 138f a1be e7bf a83e 1fe6 99be 1070 3bbe
00000120: 220a f73e fe49 8f3d a5b5 9d3d 9822 163e
00000130: 9b9f 28bd 4d04 f13d 655c 99bd 7b4c c83d
00000140: 2528 b93d 1824 12bd 382a 433e aca8 17be
00000150: 5daf 913e 13ac 6c3d fdb7 e3bd f37e 0d3b
00000160: 3aea b8bd 0a3a 10be f408 be3d f69f 48be
00000170: 9c52 0abe 6c7b a0bd 55a9 043d 4ce9 433e
00000180: 774b c1bb 5424 4dbe 6167 9dbd 0a40 91be
00000190: 1fc0 c13d b692 4b3e 5b3f 213e 742c c5bd
000001a0: f7db 213e ba6b 9bbc ded3 5c3e de38 b1bd
000001b0: 7ecf 95be 889b ad3c 7125 f43d c520 f13d
000001c0: 9d4e 2b3e 0884 b43e 23d9 9e3e 99ce a5be
000001d0: b52e d0bc 5c5c 053e 7f54 773d 9c28 25be
000001e0: 9d82 2f3d 8147 ae3d ef58 7bbe e77d 8e3e
000001f0: 3b7e c8bd c6e1 c63e 586a 23be 3db2 083e
00000200: 939c a4bd 2d4a ec3d 9c29 8bbe 42b9 983c
00000210: a42f 08be 9f40 37bb e55b 1cbe df5d 143c
00000220: 4798 813e c122 0ebe df40 583b fb40 3e3e
00000230: e07f 493d 9163 c53d 66e6 a1bd 2e9c 14bd
00000240: 08a5 f03d 35f6 913d ddb3 09bd df6e 10be
00000250: 54f2 8a3e 2e82 ff3d 1633 c2bd 0ad1 ff3c
00000260: fb1d 713d 220a f33d 9b7f 423e 0400 29bd
00000270: ff53 72be 86cd 903e 0456 a5bd 0941 673c
00000280: a423 e1bc 792d 3abe 23ff 8abd 40ed a8bd
00000290: f191 f73c ca22 363e c6d4 933d bfe4 c83c
000002a0: 6c28 e9bd 2508 44be c8ef ba3d 1dd9 1fbe
000002b0: 1521 04be 7c55 503e a086 0d3d eda0 19be
000002c0: 29d0 643c 968d 6d3e 1dfd 113e e067 903a
000002d0: c54a 25bd eb79 75bd da36 f5bd ba4f 20be
000002e0: 09ac babd ca7e 5bbd 411d 3ebe 0436 68bd
000002f0: 39a2 ae3b 7374 af3c 1a86 95bd a37f a83c
00000300: bf9b 0c3e 1d6c 0dbe 5acf a33e 4127 13bd
00000310: 40f3 4c3e 7973 27bd 922d 03be 534d 9e3d
00000320: fde0 11be 7766 12bd 595c de3d 73e7 a4be
00000330: eff7 f3bd aef4 93bd 56fb d03d ad06 febb
00000340: 3acc 9ebe ec0f 0cbd dc05 9e3d 30b3 62bc
00000350: 1c69 b2bd af30 2dbe e71a e93d 4a4c ffbd
00000360: cfa2 54be f89d 37be 4783 37be 7d0a 6bbd
00000370: 5760 a53d aae9 82bd 995a 203d 3644 2c3d
00000380: 2e9e 0a3e a130 2c3e e45f b2bd 3ac7 06bd
00000390: 2d60 93bc 7ba9 b5be 5a9a cfbd b84b 64be
000003a0: 6733 72bb d6d9 293e 8e27 d73d b47a 683e
000003b0: e352 7a3e 90b6 a03d 40b6 2b3e 0b78 6a3e
000003c0: b936 c4bd 3cd3 b5be 7a69 bebd ca58 363d
000003d0: 6b55 d7bd 723f f03d d12a 453e a1fa 823c
000003e0: 8391 893e a3c4 43bd 4698 ec3d 7a58 273e
000003f0: 9d08 e0bd d23f cdbd 0fba 0bbe 151a 683d
0.2514841 0.1722487 -0.03927563 0.28937972 -0.5408799 0.18332162 -0.04160459 -0.071607634
0.26524138 0.18531138 0.05106687 0.21924579 0.11910715 0.06841225 -0.20911108 -0.14592706
-0.07532709 0.22615886 -0.1147555 0.05942944 0.18664296 -0.07524482 -0.10209476 -0.10209196
0.13190335 0.038130555 0.40786713 -0.1206974 -0.3047604 0.023130458 -0.120598525 -0.17932461
0.20091707 -0.16669181 -0.27947664 0.026384676 0.062243145 0.008046605 0.18124671 -0.014715794
0.40940812 -0.11852042 0.10399489 -0.11189275 -0.18296343 -0.0017049854 0.04768075 -0.06850793
-0.090713315 0.44191012 0.17981963 -0.25929162 -0.05616975 -0.35558066 -0.070661165 -0.16721056
0.13760935 -0.2096615 -0.32966202 0.056880515 0.18741514 0.15324566 -0.02762014 0.004864607
0.046810452 -0.065179124 -0.20317534 0.14657989 -0.3155447 0.3295891 -0.3005838 -0.18304467
0.48249918 0.06996535 0.077006616 0.14661634 -0.041167837 0.117683984 -0.07488326 0.097802125
0.0904086 -0.035678953 0.19059074 -0.14810437 0.28454104 0.05778129 -0.11119077 0.002159056
-0.0902905 -0.1408464 0.092790514 -0.1959227 -0.13508075 -0.07836041 0.03238805 0.19131964
-0.0058988887 -0.2003339 -0.076857336 -0.2836917 0.09460472 0.19880185 0.15746824 -0.096276194
0.15806566 -0.018972266 0.21565196 -0.08653425 -0.29259866 0.021192327 0.11921204 0.117738284
0.16729207 0.35256982 0.31025037 -0.32384184 -0.025412897 0.13023514 0.060383316 -0.16128772
0.042849172 0.08509732 -0.24545644 0.2783043 -0.097897016 0.38844126 -0.15958536 0.13349243
-0.08037677 0.115375854 -0.27180183 0.018643025 -0.13299423 -0.00279621 -0.1526943 0.009055584
0.2531149 -0.13880445 0.003299765 0.18579476 0.049194217 0.096381314 -0.07905273 -0.036281757
0.11750227 0.071270384 -0.033618797 -0.14104794 0.27138007 0.12476002 -0.094824 0.031227607
0.058866482 0.11867167 0.1899399 -0.04125978 -0.23664854 0.28281802 -0.08073047 0.014114627
-0.027482815 -0.18181409 -0.06786945 -0.08248377 0.030220957 0.17786708 0.07218318 0.024523137
-0.11384663 -0.19143732 0.09127766 -0.15610166 -0.12903245 0.2034511 0.034552217 -0.15002795
0.013965645 0.23198542 0.14256711 0.0011017285 -0.04035451 -0.059930723 -0.11973353 -0.15655413
-0.09114844 -0.053587712 -0.18565847 -0.05669214 0.005329397 0.021417832 -0.073009685 0.020568674
0.13731287 -0.13810773 0.31994134 -0.035926107 0.20014668 -0.040881608 -0.12810352 0.07729592
-0.14245982 -0.03574225 0.10857458 -0.32207832 -0.11912524 -0.07224403 0.102041885 -0.0077522607
-0.31015188 -0.03419487 0.07715961 -0.013836667 -0.08711454 -0.16913103 0.11382084 -0.12465723
-0.20765232 -0.17931354 -0.17921172 -0.05738305 0.08075016 -0.06392224 0.0391489 0.04205724
0.13536903 0.16815425 -0.08709696 -0.03290484 -0.017990196 -0.35480866 -0.10136862 -0.2229451
-0.0036956908 0.16587004 0.10505591 0.22703058 0.24445681 0.07847321 0.16768742 0.22897355
-0.0958075 -0.35512722 -0.09297462 0.04451827 -0.10514339 0.11730851 0.19254614 0.01598865
0.2686883 -0.04779495 0.11552481 0.16342345 -0.10939143 -0.100219384 -0.13645194 0.0566655

actor.2.bias f4 [64]
00000000: 0c14 123b 3d99 cb3d a15f 15be 9943 e43d
00000010: c12b d83d 4fd4 4ebd 0eca a73d 261f 1e3e
00000020: 4b0b d23c f747 06bb d65f aebd 412d c4bc
00000030: 79b4 1e3e fcdd 823d a1f2 d93d 938d a1bd
00000040: 690d 97bd 9769 b53d ceb7 c43d 8277 c93d
00000050: 910b 213c 7049 853d 6a01 373d 570f 2d3d
00000060: 0444 61bb 606f 0b3d 1072 06bd 2130 8ebd
00000070: ceeb 3abe c2d2 c73c 2f9c 86bd e7d7 dcbd
00000080: d387 033d 258f 993d 8d2d 003d edf2 89bd
00000090: 1e84 01be 13e3 4abc fdb7 a13d 7d0b f03d
000000a0: 6566 87bd ecde 943d bdda be3d 80e0 eabd
000000b0: fd6a 16be 52a5 05bd 3729 213e e77d 3e3c
000000c0: 70f5 2c3d c2e3 973d 510a c8bd 5b95 c83d
000000d0: 050e 493c 46d9 053d 0084 04bd 23b0 703d
000000e0: 4149 afba 8ff2 27bd 892e ab3d d8d1 65bd
000000f0: 3934 f23d 15f7 803d 7da9 54bd 88f1 e6bd
0.002228978 0.09941337 -0.14587261 0.11145706 0.105552204 -0.050495442 0.08192836 0.1544157
0.02564015 -0.0020489672 -0.08514373 -0.02394736 0.15498532 0.063899964 0.10641981 -0.07888331
-0.07375605 0.0885803 0.096053705 0.098372474 0.009829418 0.06508148 0.044679083 0.042250957
-0.0034372816 0.034041762 -0.032823622 -0.069427736 -0.18254015 0.02439249 -0.065727584 -0.107833676
0.032111954 0.07498006 0.03129344 -0.067357875 -0.12648055 -0.01238324 0.07896421 0.11720941
-0.06611327 0.072690815 0.09319065 -0.11468601 -0.1468925 -0.032628365 0.15738378 0.011626697
0.042226255 0.07416488 -0.09767593 0.09794112 0.012271409 0.03267791 -0.032352448 0.058761727
-0.0013373272 -0.041002806 0.08358485 -0.056108326 0.11826367 0.06297127 -0.05191945 -0.11276537

actor.4.weight f4 [4, 64]
00000000: a1ae 60be a159 ea3d cc15 193d ba44 463e
00000010: cc14 a43d 2344 523e 0bd2 a7bd f7b1 8abd
00000020: b635 0d3e 79e7 dc3d 6c15 a43d 7dbb 8a3e
00000030: 4817 d4bd 12fc 33bd 4587 c63d e40b 293e
00000040: 5e4e 8f3e 31f7 63bd 1a5e 873e 6921 80be
00000050: 5e9d 403e 8f53 433e b25e ebbd 8518 ac3d
00000060: fac2 923e 55ba 54be 0d1d d1bd 84dc 92be
00000070: 6a17 b3bd 8c45 ae3e 19d0 ed3d 94a4 0bbe
00000080: 34f4 8d3e dea1 2b3d 5517 42be 903f 3dbe
00000090: a9ed b5bd 4f5e 4f3e 6c6a 803e 7815 bc3d
000000a0: 2024 02be 84d5 333e 471a 893e 4acf f93b
000000b0: f987 4cbe 8b20 29be 1b7f c43d 1c66 18be
000000c0: 178e bd3d ba60 10bb f943 a7bd 40c0 013e
000000d0: a831 4c3d 0473 373d 7875 dabb 7234 b5bc
000000e0: 2134 f73d 1e42 7fbe 43ec 3abd 8672 94bc
000000f0: fae5 14bd 70a0 e53d d5ef 2a3e b3ce 6ebc
00000100: c8a8 95be 18da 85be 0750 c23c 6717 cfbb
00000110: 42fb 00be 6087 143d 3ceb 07bd 159b 583e
00000120: f000 5d3d 151c 77bd 5c78 6e3e 4b9e 2ebe
00000130: a3e7 73bd 0862 89be c74b 4c3e 9b02 843e
00000140: 2522 98bc 4202 9c3e 9b03 cfbe c5bb fe3b
00000150: a442 c6be 498d aebd 5767 853d 7846 733e
00000160: dfc0 f43d 589a 3cbd 29a3 27be 294e ab3c
00000170: dbdb 4dbd b14c 7abb 3638 90be f96d a83e
00000180: 4b46 febc e2da 593e 5cd3 a8be 3073 02be
00000190: eded 843e 8092 b4be e49f d63d b9d9 9c3d
000001a0: 3e64 31be 1a84 7f3e 9349 313d ce97 a2be
000001b0: 38c8 1b3e 3639 46be 8590 a03e 67bd 42be
000001c0: 1c99 dcbd 3400 a83d 4254 313d 5144 61be
000001d0: 6903 2e3e 4835 253c 6f0c acbe 4697 62be
000001e0: e45f 573e bc9a febb 1c58 5c3e 6bd6 553e
000001f0: fa9c 4a3e 4797 c2bd 4dce 0d3e 7c79 2d3d
00000200: 0f8c fa3d d7a4 73be 4504 22bd 7393 bf3d
00000210: 2947 aebd 3e8c 52be e64d 403e 7a42 10be
00000220: d45d 04be d587 b63d e5ff 8abe 358a 8d3d
00000230: 415d 463e 0b3e 8b3e 22d0 4b3d 0808 6fbe
00000240: dce4 fc3d 5ecc 33be 68f3 27be 3034 b63e
00000250: df01 133e a1ef a6be d3cb 4a3e 2867 5c3d
00000260: 0e43 8ebe c376 243e 6f79 883e 6cd7 753e
00000270: 161d d8bc 11ed 9cbe 9db0 4bbd 283f 593d
00000280: 6b33 aebe 6ee7 65bd 39ab eb3c 0771 293e
00000290: 658f 91be 8d49 ca3d 562e b1be 105d 5f3e
000002a0: 217b 633e 6639 91bd 8ba6 69be d17a 2c3d
000002b0: b5a4 193e de5b 993d dff7 a8bd e138 7e3e
000002c0: d058 2b3e d022 433e 40c7 81be e725 a83d
000002d0: 266e 2bbe 18f5 6abe 4fc1 b7bd 016d c4bd
000002e0: 68ff 09be 8ce2 973e 35ae 04be 9214 ed3b
000002f0: 0283 ef3d 9519 8cbe 1e9a 93be cf29 77be
00000300: 8c44 703e c3f0 533e 8b32 703e aeeb 38be
00000310: da33 7bbd 382c e23c 847f 97be 3387 1ebe
00000320: 8687 abbd 1ab7 8abe 16fc d63c fbbf 6abe
00000330: b07b 52be 3c97 a7bc a9e0 2fbe b3b2 333d
00000340: 8182 e3bd 7473 d1bd 8d98 813e 2c59 98be
00000350: 99d5 b73b 9186 053e 3439 903d 87c7 68bc
00000360: 0ebd 403d 5abe 55bd 5ba9 113d 5fc2 e0bd
00000370: b881 833e 2839 233e e16d 5a3e 16ca d5bd
00000380: dda1 dd3d a8db 8cbe a896 ca3e 607b 123c
00000390: cd0d 0cbd 0d38 113c 119e f63c f3bb 47be
000003a0: ce69 533e 0f5e 51be 1331 003e 555b 1c3e
000003b0: 1957 bebd 8a57 eb3c 9fa2 8bbe 16eb 483d
000003c0: a13c 103d f7e9 9fbe c120 8abc 130f 593d
000003d0: b2ea a7bd bbee 473e c63e 4c3e f38a f43d
000003e0: 0356 c8bd e2b2 d6bd f3a3 3c3d 9d54 08be
000003f0: 6332 21be c70b eb3d 5024 08be fe99 223e
-0.21941616 0.114428766 0.037374303 0.19362155 0.08011779 0.20533805 -0.081943594 -0.06772225
0.1379002 0.107863374 0.080118984 0.27096167 -0.10356003 -0.043941565 0.09693769 0.16508442
0.27989477 -0.055655662 0.2643898 -0.2502549 0.18810031 0.19074844 -0.11492671 0.08403114
0.2866438 -0.20774205 -0.10210619 -0.28683865 -0.087447 0.34037435 0.11611957 -0.13637
0.27725375 0.041902415 -0.18954213 -0.18481278 -0.08883221 0.2025082 0.25081193 0.09183782
-0.12709093 0.17561918 0.2677786 0.0076235877 -0.19973744 -0.1651632 0.09594556 -0.14882702
0.09255617 -0.002203031 -0.08167262 0.12670994 0.049852043 0.04478742 -0.0066668354 -0.022119734
0.1207049 -0.24927565 -0.045635473 -0.018121015 -0.036352135 0.11212242 0.16693051 -0.014575648
-0.29230332 -0.26142955 0.0237198 -0.0063199284 -0.12595847 0.036261916 -0.03318332 0.21152909
0.053955972 -0.060329515 0.23288101 -0.17052571 -0.059547078 -0.26832604 0.19950782 0.25783238
-0.018570969 0.30470473 -0.40432438 0.0077738487 -0.38722718 -0.08523042 0.06513851 0.2375735
0.1195085 -0.04604563 -0.16370834 0.020911293 -0.0502585 -0.0038192684 -0.28167886 0.32896402
-0.031039378 0.21274903 -0.32973754 -0.12739253 0.25962773 -0.3526802 0.104797155 0.07658715
-0.17323396 0.24952736 0.043283056 -0.31756443 0.15213096 -0.19357762 0.3136026 -0.19017564
-0.10771391 0.08203164 0.043293245 -0.21998717 0.16993488 0.010083504 -0.33603236 -0.22128019
0.21032673 -0.0077699106 0.21517986 0.20882575 0.19786444 -0.0950151 0.13848229 0.042352185
0.12233745 -0.2379335 -0.039554853 0.093542956 -0.085096665 -0.2056131 0.18779716 -0.14087859
-0.12926418 0.08912627 -0.27148357 0.069111265 0.19371511 0.27195773 0.049759038 -0.23342907
0.12348339 -0.17558429 -0.16401446 0.3558669 0.14356183 -0.32604697 0.19804315 0.053809315
-0.27785534 0.16060929 0.26655146 0.24007958 -0.026381057 -0.30649617 -0.04972898 0.053038746
-0.34023604 -0.05612891 0.028768169 0.16547023 -0.28429714 0.0987731 -0.34605664 0.21812844
0.22214939 -0.07091026 -0.22817437 0.042109314 0.15004237 0.074882254 -0.08250403 0.24826385
0.16733098 0.19056249 -0.25347328 0.08210354 -0.16741237 -0.22945058 -0.089724176 -0.09591103
-0.13476336 0.2966503 -0.1295708 0.007235118 0.1169491 -0.27363268 -0.2882852 -0.24137042
0.23463649 0.20697312 0.2345678 -0.18058655 -0.061328746 0.027608976 -0.29589474 -0.15481262
-0.083754584 -0.2709282 0.02624325 -0.22924797 -0.20554996 -0.020457856 -0.17175545 0.043871593
-0.11108876 -0.10227099 0.253117 -0.29755533 0.0056101796 0.13039614 0.07042161 -0.014207727
0.047055297 -0.052183487 0.0355619 -0.10974573 0.25684905 0.15939772 0.21330978 -0.104389355
0.108218886 -0.27511334 0.39568067 0.008940548 -0.03419285 0.008863461 0.030104669 -0.1950529
0.2064583 -0.20446037 0.1251872 0.15269215 -0.09293956 0.028728265 -0.27272508 0.04905232
0.03521407 -0.3123319 -0.016861321 0.05299289 -0.081990615 0.19524662 0.19945821 0.11940565
-0.097820304 -0.10483338 0.04605479 -0.13313527 -0.15741877 0.11476856 -0.13295102 0.15879056

actor.4.bias f4 [4]
00000000: 0cb4 723d 28ee 43be 0f48 123e a5ad 32be
0.059253737 -0.19133818 0.142853 -0.17449053

critic.0.weight f4 [64, 8]
00000000: 25d7 16bf 971b ec3d 9814 ba3e 6137 7e3f
00000010: 65a7 c63e f6e0 573f fba8 5c3e c5c0 b73d
00000020: 2093 7fbf 2a72 cbbe 2949 54bf 7d38 d13e
00000030: ffd8 a33f 5998 11bf 82ce 35be c017 88bd
00000040: f1fe 92be 3c46 8abf c2af 8a3e 9af7 e03f
00000050: 6b9f 9dbf 14b1 6c3e 2677 63bf 5a06 013c
00000060: 5c44 163f 17a8 bf3f 419f e3be a34a ce3e
00000070: d10a ab3e a459 83be 0276 a03e 1149 dcbe
00000080: f538 39bf 77c2 033f 7ad6 36bf 4883 7abf
00000090: 33ec 3e3f 507c 89bf 39fa fbbd 109c 073e
000000a0: b870 da3f ee86 95be d122 373f ac6b 6b3e
000000b0: 767e 5bbf e504 debe af45 623e 564e 95be
000000c0: ce94 82bf f5f6 403e 6bce 26bf b0af 2abf
000000d0: 68f5 9c3f 41ce b83f 3493 f03c 044a 91be
000000e0: 75f1 03bd 3263 043f 01ac 51be 918c fcbe
000000f0: 1b65 c6bd 67ce dbbe aaab d2be 8a9a f2be
00000100: b316 fd3f 3977 0cbf d359 723f cfab 193e
00000110: 925f 2d3d 3b14 f8be 1cc0 17bd 59c6 b2bd
00000120: d92e 6dbd 3349 fe3e 3557 26be 6597 1a3f
00000130: bd65 e43f 4207 8d3f c0d8 cfbb 0e5a a5bd
00000140: f10b 25be bb29 a6be 8081 0f3b 18eb 6bbe
00000150: fcaf 8bbf 3516 5a3c 74c7 233e ae38 db3d
00000160: 4dce f33e 9747 bb3e d711 533f acf4 793c
00000170: d1d2 843d 2907 103e c35e c03d 04fa edbb
00000180: aaf3 84bf 5c44 063f 057a 6dbe 0f92 ff3e
00000190: cb0a 823f 1ae1 1e3d 1cb7 9ebc 3307 95bd
000001a0: 86a7 be3e c67b d6be d324 523f fa90 10bf
000001b0: a673 d73c f520 46be 61f7 023f 7699 dd3e
000001c0: 897b 4f3f 224b c5bf 9a7c 313e 5bbb 6abf
000001d0: c364 2bbf 67a8 dd3e 5e3e b13c a1e6 cb3d
000001e0: b3cd b53e b689 643f 186e 42bf f55e 433e
000001f0: e79a f33d 558e e8be c5a9 25bf 9891 2abd
00000200: 61a6 ad3e 93c8 3b3f b5d5 82be ca31 8a3f
00000210: e207 373f 4b30 663e 78c6 dcbe 155d 05bf
00000220: dd1b 633e 54b1 273f f70d 06bf 3e29 033f
00000230: 08ac 0b40 c9cc d23e 291b e7be d808 07bf
00000240: c31b 953e c851 72bf d054 f8be 488e 62be
00000250: 404c 613f 2104 2d3f 3470 0ebe 3687 85bd
00000260: 7446 57bd 3099 da3f 15be 213e f16f 433f
00000270: 90ef a9be 9ee0 e5bf 55b8 bfbe fe6e 5c3e
00000280: a7a9 9bbf e77a 403e acf6 aebe da88 f13e
00000290: c651 2ebf 18f0 dfbe 468d c83d 9bc9 bf3d
000002a0: 06d0 433e 7a8d c6bf 6174 b53e 54ad 13bf
000002b0: 20ae 96be 217f d03f 5249 003f afc2 84be
000002c0: d4d2 9e3f be48 babe 1355 8b3f d49a e73e
000002d0: 3cf1 e53e 185a 4b3b e9e6 96bd 990a 4c3e
000002e0: 1ce1 bc3e bd4b 983e 19ed 9fbe 5ede 11bf
000002f0: 042c c33c 9783 87bf 19e0 0ebf 4d33 fabd
00000300: d5bc 423f d22b 15be 3c0a 323f f480 8bbf
00000310: 2c82 c73e b47b 51be c2d0 83be c2eb e43d
00000320: 8103 c13f b12f 503e b341 473f 3f7f fa3d
00000330: e26e e9be abfb 44bd 3a93 df3e 9da7 cabc
00000340: e2a6 993e 4031 20bf fe09 863e db6f a13e
00000350: 11d3 07be 569a 553e 305c 883e 3081 ce3e
00000360: 9fa9 51bf 3e7c e0bc 819e b1bf 3fd5 44bf
00000370: 51ad 393f 3876 a93d 87b5 813e 76d6 c4be
00000380: 1de2 b2bf 0ac5 d63e 0328 3dbf 797a e5bd
00000390: fa62 7e3f 47eb c4bd 645f 3e3e 9ef8 7f3e
000003a0: d623 8f3f 1b47 cf3e e11a b6be da30 ec3e
000003b0: dcf9 823d 9b87 5bbe c6ba 09be 7cd2 113f
000003c0: 9429 cb3e 9462 a53e fe60 2b3f 1a5b 68bf
000003d0: f414 59bf bd9d 82be e5a7 e7bd a899 babd
000003e0: 7fda d63e 6280 7e3f 0c45 8d3e b83f 08bf
000003f0: 4fae e83f a34d a43f b8d0 aebe 7360 53be
-0.58922035 0.115287 0.36343837 0.9930325 0.38799587 0.8432764 0.21548836 0.08972315
-0.9983387 -0.39735538 -0.82924134 0.4086341 1.2800597 -0.5687309 -0.17754558 -0.06645155
-0.2871013 -1.0802684 0.27087218 1.7575562 -1.2314276 0.23114425 -0.8885368 0.0078750495
0.5869806 1.4973172 -0.4445744 0.40291318 0.3340669 -0.25654328 0.31340033 -0.43024495
-0.72352535 0.51468605 -0.71421015 -0.9785657 0.7457916 -1.0741062 -0.123035856 0.13243127
1.7065649 -0.29204506 0.715375 0.22990292 -0.8573984 -0.4336311 0.22096895 -0.29161328
-1.0201662 0.18844207 -0.6515872 -0.6667433 1.2262392 1.4437944 0.029367067 -0.28376782
-0.032212693 0.5171386 -0.2047577 -0.49325994 -0.09687253 -0.4293091 -0.41146594 -0.4738353
1.9772552 -0.5486942 0.9466831 0.15006946 0.04232747 -0.48452935 -0.037048444 -0.08729238
-0.057906006 0.49665222 -0.16244204 0.6038726 1.7843548 1.101784 -0.0063429773 -0.08073817
-0.16117837 -0.32453713 0.0021897256 -0.230389 -1.0913081 0.013310959 0.15994054 0.1070417
0.47618333 0.36578056 0.82449096 0.015256088 0.064855225 0.14065231 0.09393074 -0.00726247
-1.038686 0.5244806 -0.23191078 0.4991612 1.0159544 0.038788892 -0.019374423 -0.07276764
0.37237185 -0.41891307 0.8208744 -0.56471217 0.026300263 -0.1934851 0.5115872 0.43281144
0.81047875 -1.5413554 0.17332688 -0.9169213 -0.66950625 0.43292543 0.021636184 0.09956098
0.355085 0.8927263 -0.7594924 0.19079192 0.1189478 -0.4542109 -0.6471217 -0.041642755
0.33916 0.73352927 -0.2555367 1.0796444 0.71496403 0.2247936 -0.4312017 -0.52095157
0.22178598 0.65504956 -0.5236506 0.51234806 2.182375 0.41171864 -0.4513791 -0.5274787
0.29122743 -0.9465604 -0.48502207 -0.22124588 0.88006973 0.67584425 -0.1390999 -0.0651993
-0.052557424 1.7077999 0.15795167 0.76342684 -0.33190584 -1.7959173 -0.37445322 0.21526715
-1.2161149 0.18796884 -0.3417257 0.47174722 -0.68093526 -0.43737864 0.09792571 0.09364625
0.19122323 -1.5511925 0.35440353 -0.5768635 -0.29429722 1.6288797 0.5011188 -0.25929782
1.240809 -0.36383623 1.0885338 0.45235312 0.4491061 0.0031029042 -0.07368261 0.19925918
0.36890495 0.29745284 -0.3123558 -0.5697993 0.0238247 -1.0587033 -0.55810696 -0.12216816
0.76069385 -0.14567497 0.69546866 -1.0898728 0.389665 -0.20457345 -0.25745207 0.1117778
1.5079194 0.20330693 0.77834624 0.122313015 -0.4559241 -0.04809157 0.43667012 -0.024738127
0.30010134 -0.6257515 0.26179498 0.3153065 -0.13264109 0.20859656 0.26632833 0.40332937
-0.81899446 -0.027402993 -1.3876497 -0.7688789 0.72530085 0.082745016 0.25333807 -0.3844487
-1.3975254 0.41947204 -0.7388918 -0.112050004 0.99369776 -0.09615188 0.18591076 0.24997184
1.1182811 0.40483937 -0.35567382 0.4613102 0.06395313 -0.21438448 -0.13450155 0.569618
0.3968016 0.32301772 0.66944873 -0.9076401 -0.84797597 -0.2551097 -0.1131132 -0.09111339
0.41963574 0.99414647 0.2759174 -0.5322223 1.8178195 1.2836193 -0.34143615 -0.20642261

critic.0.bias f4 [64]
00000000: 69ad 603f d5cf 2a3f 1faa 85bf c3bb 463f
00000010: c6e7 16be 6fae 3cbe 1ee7 1dbe 8389 63bf
00000020: c2c8 bbbe 0565 003f bc43 993f bffd 8cbd
00000030: 3581 403e d5cc f1be 4b79 3ebf 4362 0d3f
00000040: c906 763e 0662 9c3e b28a 89bf 4928 443f
00000050: 39d9 00bf b883 2dbf af57 123f bd30 1ebf
00000060: e046 24bf 1e99 e73e de5a 5e3f ca39 0cbd
00000070: c401 dd3e 68e2 a03d b03a 0fbf 051d b93b
00000080: 278d 363f d69b 60bf d1b5 503f fc75 81bf
00000090: 7740 463d 23ae 093f 02b1 9bbc c365 533f
000000a0: ece5 d6bd ce4a 9cbf 32dd 883e 7064 34be
000000b0: 4c47 f13e 303c ddbd 4ee7 ccbe 1510 77be
000000c0: 287c ac3e 6649 433f 1569 edbd 8b1d 4c3f
000000d0: 4a80 87be 3d08 3f3f 93a9 033f 3749 4c3c
000000e0: ce4e 96be 1b01 2bbf 559b 763e 311f e9be
000000f0: b43c 793e bb6a 493f 0ddf 273f d663 cfbe
0.877646 0.66723377 -1.0442542 0.7763025 -0.14736852 -0.18425916 -0.15420195 -0.888817
-0.36676604 0.50154144 1.1973796 -0.06884336 0.18799289 -0.47226587 -0.7440383 0.5522806
0.24026026 0.30543536 -1.0745451 0.7662397 -0.50331455 -0.6777911 0.57165045 -0.6179312
-0.64170647 0.45234007 0.868574 -0.0342348 0.4316541 0.078556836 -0.55948925 0.0056492114
0.7130913 -0.87737787 0.8152743 -1.0114131 0.048401322 0.53781337 -0.019005302 0.8257715
-0.10493073 -1.2210329 0.2673126 -0.17616439 0.47124708 -0.108024955 -0.4002022 -0.24127229
0.33688474 0.7628387 -0.115923084 0.7973258 -0.26465064 0.74621946 0.51430625 0.012468628
-0.29356998 -0.6679856 0.24082692 -0.4553161 0.24339563 0.7867848 0.65574723 -0.40505856

critic.2.weight f4 [64, 64]
00000000: a401 7c3f 75f8 07bd bcc6 5dbe bac9 bf3e
00000010: dffa 08bf 51a0 dbbe 8924 093f d04a e4be
00000020: 841e b4be 2818 893f 1266 bf3d b659 16be
00000030: 544b cd3e debc 64bf 23bd 3dbe c9ab eb3e
00000040: 994e ad3f 18fc 9a3f 3e8f e13d e58b cf3d
00000050: 5f64 babe 76de 1ebe 350c f33e e854 4bbf
00000060: e0c1 b8bf b21f f53d bc20 a63e 9f48 e1bd
00000070: 885d 4a3e a0c9 693d 13e1 51bf f40f 403f
00000080: d0b6 a4bd 1d12 98be 417a ad3e b5aa c5be
00000090: 1bc6 103f c5ca 6a3f 19c6 90bd 1aa1 133f
000000a0: d043 9a3e 41f6 c1be f738 ffbc 5e8d c1bd
000000b0: c188 70be 407d 643f ffe2 c53e 4ad9 eebd
000000c0: d5fb 51be 0777 18bd c12e 65be 29fb b83e
000000d0: aab5 47be f019 a73f 3540 ea3c 4c20 bebc
000000e0: 1bc3 3fbf 50dd 7dbf 9c56 ca3e fd03 11bf
000000f0: 1223 c2bf 8f61 52be 92b9 09be 8629 153e
00000100: d496 8abf f79a 71bf d99f 993e 24b5 dfbe
00000110: bdf1 753e c9a6 90bd 0412 ebbd 1cd4 763f
00000120: c6e3 88be a68a 65bf 0a14 febe 8aa9 7a3e
00000130: 13ea eebe 4481 243f 4fc8 143f 9dc2 70be
00000140: fd93 27bf b1d4 94bf 2640 db3e c54e 223c
00000150: acac b33e f61a ab3d 23c0 dabe 93ee 7e3f
00000160: 1da9 923f 0c22 283d 601d 48bf c533 2fbe
00000170: e9f2 a6bd 1e93 d3be 8b26 593f cc92 d4be
00000180: 0b37 fcbe 767a 273e 2ff2 38be 89a8 293f
00000190: 8808 b0bd 87a5 4fbf 241e ffbe db4c a1bf
000001a0: 9e17 213e b086 9f3e 7d06 75bd bbda c13e
000001b0: 8554 f6be b9c9 b13e 33a2 863e 6fc3 b03e
000001c0: 51eb a0be 471e 1fbf 6b5d 373e 5d14 bbbe
000001d0: 452a a33d b7d3 90bf e2d9 55be e43b 8b3e
000001e0: a458 3b3f 7d80 263f 638e 1dbf 82f6 253f
000001f0: e5e4 6a3e ac0e 1abf 47aa d2bc 3945 aebe
00000200: 126c 1b3e 2f18 873e 7e1b 743e b79a 9cbf
00000210: 836f b33e 4811 3ebf b216 6a3f a537 86bd
00000220: 104f 23bf 6b5a 92be 0280 a63d f476 513c
00000230: 77aa a03e d971 0d3f aaa9 ae3e 932f a6bf
00000240: 4654 76bf d7b4 2abf 2f56 e63d 83d9 61bf
00000250: 70dc 3b3e cc26 483f e948 c7bd 3c56 aabe
00000260: a874 133e 70f3 21bf 2ed5 d23d c126 a23e
00000270: 517a bc3e 1669 7bbf b0c4 533d 1b81 b2bd
00000280: 38c3 f5be 80e0 813e 81c7 9dbe 0297 373f
00000290: a29a 983d cd4b 963e 0db1 58bf 82f9 a03e
000002a0: 37f5 c23e f50d 153f c938 0a3f 3a54 d43e
000002b0: 515a 523d 1fe8 12bc 6db5 9f3e 8819 753e
000002c0: b75a 62be cbb7 fb3b 0314 913e 2341 b43e
000002d0: 538a dd3e 482e d33d 9249 dcbd 4066 583c
000002e0: 7748 ea3f c7eb 443f 3da0 37bf 5d6f de3f
000002f0: a2f0 023f 9421 343e a4a3 06bf 9811 12bd
00000300: 761a ee3c 9819 10bf 7dcd 5f3e b7b6 52bf
00000310: 7692 76bd afcf e43e 44ce 81bf e6a5 b73b
00000320: 3b26 c93e 8b4b 04bf 690a efbd 3f60 5abe
00000330: bd9b ebbe 6abe 673f 1ae2 9d3e 5a02 11bf
00000340: 9ed2 6cbf b423 aabf 0548 89bd 483d b2bd
00000350: d85a c33e 93d3 d1bc a85b 16be 06ba bc3c
00000360: 1bdb b03e 2319 f7bd fe90 c53d 13bb 8cbf
00000370: 5b06 d9bd 877b 0b3f ef59 f9bd 8536 b0bf
00000380: 4f1b b13e 45a3 243c 0c43 f53d 36f8 903e
00000390: 25e5 ea3e 718b 3cbe b247 64bf 505d 8dbe
000003a0: f0bf 80bf e670 0f3e 754f a0bd 8180 9ebd
000003b0: 4a24 0b3f 3b51 203f 3905 fcbe 518b 9e3d
000003c0: b87d 94bf f84b ec3e 5b9c 903f 9068 07be
000003d0: 78f4 2fbe 0e79 a03d 0510 063f 9f1f 993f
000003e0: 8a11 833e 4544 023f 9beb 2dbf 7308 213f
000003f0: 2ffa 1a3f e383 393e 9185 d03e 76b3 36bf
0.98440003 -0.03319593 -0.21657842 0.37458593 -0.535078 -0.4289575 0.53571373 -0.44588327
-0.35179532 1.0710497 0.0934564 -0.1468266 0.40096533 -0.8935069 -0.18529181 0.460295
1.3539611 1.2108183 0.110136494 0.10134105 -0.36404702 -0.1551455 0.4747025 -0.7942643
-1.4434166 0.11968936 0.3244685 -0.110001795 0.19762242 0.05707705 -0.8198406 0.7502434
-0.08042681 -0.2970132 0.33882335 -0.38606802 0.56552285 0.9171565 -0.07069034 0.57667696
0.30129862 -0.3788319 -0.031155093 -0.09450792 -0.23489667 0.89253616 0.38649747 -0.11662538
-0.20506223 -0.03722289 -0.22381116 0.3612912 -0.19502893 1.305479 0.02859507 -0.02320876
-0.7490708 -0.9916582 0.39519203 -0.5664671 -1.5166953 -0.20545028 -0.13449696 0.14566621
-1.0827279 -0.9437708 0.30004767 -0.43692887 0.24017997 -0.07063062 -0.114780456 0.96417403
-0.26736277 -0.89664686 -0.49624664 0.24478737 -0.4666296 0.64259744 0.58118147 -0.23511739
-0.6546019 -1.1627408 0.4282238 0.009906475 0.35092676 0.08354752 -0.42724714 0.99582785
1.1457859 0.041048095 -0.7816982 -0.17109592 -0.081518 -0.4132318 0.84824437 -0.41518247
-0.49260744 0.16355309 -0.18061136 0.6627279 -0.08595377 -0.8111195 -0.49827683 -1.260158
0.15731665 0.31157446 -0.05982064 0.3786219 -0.48111358 0.34724215 0.26295623 0.34524104
-0.31429532 -0.62155575 0.1790673 -0.36538973 0.07967047 -1.131461 -0.20883897 0.2719413
0.7318213 0.6503981 -0.6154539 0.64829266 0.22938879 -0.6017864 -0.02571596 -0.34037188
0.15177944 0.26385638 0.23838612 -1.2234715 0.35046014 -0.7424512 0.9144088 -0.06553582
-0.63792515 -0.28584608 0.08129884 0.012784708 0.31380054 0.5525184 0.34113818 -1.2983268
-0.9622234 -0.6668219 0.11246907 -0.8822252 0.18345809 0.781842 -0.097307034 -0.33268917
0.1439997 -0.6326208 0.10294567 0.31670192 0.3681207 -0.98207223 0.051701248 -0.08716031
-0.48000503 0.25366592 -0.30816272 0.71714795 0.07451369 0.29354706 -0.8464516 0.3144036
0.3807771 0.5822442 0.539929 0.4147051 0.051355664 -0.008966475 0.31193104 0.2393552
-0.22104917 0.007681822 0.2833558 0.35205945 0.43269596 0.10311562 -0.1075622 0.013207972
1.8303365 0.7692227 -0.7172888 1.7377735 0.51148427 0.17590934 -0.52593446 -0.03566131
0.029065352 -0.5628905 0.21855731 -0.8231005 -0.06019827 0.446897 -1.0141072 0.0056044934
0.3928698 -0.5167777 -0.116719075 -0.21325777 -0.46017256 0.90524924 0.30836564 -0.56644213
-0.92508876 -1.3292146 -0.0670319 -0.08703095 0.38155246 -0.025613582 -0.14683402 0.023037922
0.34542164 -0.12065341 0.09646796 -1.099459 -0.10596915 0.5448536 -0.121753566 -1.3766638
0.34591147 0.010048692 0.11975679 0.2831437 0.45877948 -0.18412568 -0.891719 -0.27610254
-1.0058575 0.14007911 -0.07827655 -0.07739354 0.5435225 0.6262395 -0.49222735 0.07741416
-1.1600866 0.4615171 1.1297716 -0.13223481 -0.17183101 0.07835589 0.52368194 1.1962775
0.2559932 0.5088542 -0.6793763 0.6290352 0.60538 0.18116717 0.40726903 -0.71367586

critic.2.bias f4 [64]
00000000: acad 273e c66c 00bf 0926 97bd ea7f 803d
00000010: 16d1 18bf a643 6dbf 8336 1a3f dfac b83d
00000020: 6290 fcbe c3a5 113f 6e82 8c3e 00ca 0cbf
00000030: ca64 4bbe fc47 5fbf 7a02 e83e cfb2 04bf
00000040: 152d a63e 80f3 59bf b2c2 2bbe b3f5 34be
00000050: ef52 debe dcab a73d ca16 0c3f 5ded 13bf
00000060: ddce d83e 73fc a2bd 7ec6 11bf a28b 34bf
00000070: f0c8 303f ba18 0f3f bdad f6be 670d bd3e
00000080: 25a8 f03d c9b0 1ebf 6ea6 043f 281b 35be
00000090: 7256 2abc e12f 353f 494c cb3d 9733 3f3d
000000a0: a5e8 233f 79fd db3e 7159 3abf e6ef f6bd
000000b0: f8d8 253f d887 cd3e c4e0 493f 272d 483f
000000c0: 9eed b5be f54c 4bbf 65d0 2a3f 78de af3e
000000d0: d446 93be f88a 883e 453f 073f 4bae c5be
000000e0: 0e11 ff3e 48c1 67be e48c 00bf ecfb adbd
000000f0: 2895 6c3d 9a51 23bf 8869 57be 1617 10bf
0.16374844 -0.50165975 -0.073803015 0.06274398 -0.5969404 -0.9268135 0.6023943 0.090173475
-0.49328905 0.5689356 0.2744326 -0.5499573 -0.19862667 -0.87219214 0.4531439 -0.5183534
0.3245627 -0.85137177 -0.16773489 -0.17671852 -0.43422648 0.081870764 0.54722273 -0.5778406
0.42345324 -0.07958307 -0.569435 -0.7052556 0.69056606 0.55897105 -0.48179427 0.36924288
0.11750821 -0.619885 0.5181645 -0.1768614 -0.010396587 0.7077618 0.099266596 0.04668006
0.6402686 0.42966822 -0.72792727 -0.12057476 0.64784193 0.40142703 0.7885859 0.78193897
-0.3553285 -0.794143 0.66724235 0.34349418 -0.28764975 0.26668525 0.52830917 -0.38609537
0.498177 -0.22632325 -0.5021498 -0.08495316 0.057759434 -0.6379639 -0.2103635 -0.56285226

critic.4.weight f4 [1, 64]
00000000: f34b 213e b720 45be d83f 0ebe 6768 dc3d
00000010: 1bb6 b0bc a9c2 bf3d 47e8 9abd 9964 dcbd
00000020: 1cdd 6a3e b154 a33c ca46 e53c 1b04 a23c
00000030: 81a3 b23d 864a f13d f656 27bd d4f2 ef3d
00000040: aae7 a43e 145b b13d 5c83 7a3c d71b 7ebe
00000050: f257 17be 3d7f 7a3e 7002 92bd fd00 073e
00000060: 586f 953d a8a3 e9bd 1285 823d e45e 85be
00000070: 071b 60bd cce4 a6bd 47c4 9bbd d1f3 24be
00000080: 7921 3a3e cd2b 6b3e eb8c 62be 6c69 0a3d
00000090: 81b2 873e 22e1 e73c 78fd 223e 90ff eebc
000000a0: bbd4 37be 00b6 293d fa83 7a3e ffe2 ae3d
000000b0: 6d0e 593d 6404 b23d f02f 42be df51 c6bd
000000c0: 326b aa3b 581c 95bd 29a4 c5bd a734 b3bd
000000d0: 6b42 03be 010c 79bd 73b6 f4bd 3bf7 fcbd
000000e0: 8215 2bbe 83fb 93be b4b1 15bd 3593 45bd
000000f0: e0a1 a3be df9b f73d 3c0e 63be d7f5 623d
0.15751629 -0.19250761 -0.13891542 0.10762101 -0.02157121 0.093633 -0.07563835 -0.10761375
0.22935909 0.019937845 0.027987856 0.019777348 0.08722592 0.11781792 -0.040854417 0.11716238
0.32207996 0.0865995 0.015290108 -0.24815308 -0.14779642 0.244626 -0.07129371 0.13183971
0.07296628 -0.11408168 0.063730374 -0.26048958 -0.054713275 -0.08149108 -0.07605796 -0.16108634
0.18176831 0.22965927 -0.22124068 0.033791944 0.26503375 0.028305594 0.15917003 -0.029174596
-0.17952244 0.041433334 0.24464408 0.0853939 0.052992273 0.08692244 -0.18963599 -0.096835844
0.005200767 -0.07280797 -0.09650452 -0.08750277 -0.12818305 -0.060802463 -0.11948862 -0.12351843
-0.16707423 -0.28902826 -0.036546424 -0.04823609 -0.31959438 0.12090277 -0.22173399 0.055410232
