PPO_preTrained/RoboschoolHalfCheetah-v1/PPO_RoboschoolHalfCheetah-v1_0_0.pth (torch, 53211 bytes, 11 tensors)

actor.0.weight f4 [64, 26]
000000 97 80 bb 3d 07 7a 33 be 4d 60 2d 3e 0f 59 e3 bc
       0.09155386 -0.17527018 0.16931267 -0.027752427
000010 f3 81 01 3e b7 54 49 be f2 31 3b 3e 73 6a 50 be
       0.12647228 -0.19661222 0.18280771 -0.20353107
000020 bb 20 72 3c 50 1b 91 3e b6 8d b7 bd 9a d3 1d 3d
       0.014778311 0.2834115 -0.08962576 0.038531877
000030 e6 d4 28 3d a3 2b 4c be f2 6f a2 be ad af 97 be
       0.04121866 -0.19938521 -0.31726032 -0.29626217
000040 e9 bd 75 be a9 5e f9 bd 40 d4 ce 3d 2d 8a 90 3d
       -0.23998226 -0.12176258 0.10099077 0.07057605
000050 d7 08 af bd ec e1 41 be 66 c3 3b 3e e7 33 0e 3e
       -0.08546608 -0.18933839 0.18336257 0.13886987
000060 cd cc 5a 3d 70 97 b2 bd a7 4f ca bd 1e da 4c bd
       0.05341797 -0.08720291 -0.09878474 -0.0500127
000070 ac 30 53 3e 80 4b a0 bd 22 7c 57 bc 8f 57 1d 3f
       0.20624036 -0.078269005 -0.013152154 0.6146173
000080 96 2f 11 3d f3 16 bf bd 42 5a a4 3d 15 17 4f 3d
       0.035445772 -0.09330549 0.08025028 0.050559122
000090 7a 02 e3 3d 1a 88 95 be 2f b9 eb 3d 6f 62 15 be
       0.11084457 -0.292054 0.1150993 -0.1458833
0000a0 79 f4 bc bd 2d 8b f5 be 1d 43 85 3e 14 e7 fb 3e
       -0.09226317 -0.47957745 0.26027766 0.49199736
0000b0 fd 52 3f 3d 9b c2 23 bf 98 b9 9b bd 28 d8 22 be
       0.046710003 -0.6396882 -0.076037586 -0.1590277
0000c0 4c 44 d8 bd 02 e8 8b be 7d d6 aa bb d7 ad 27 be
       -0.105599016 -0.27325445 -0.0052135573 -0.16374908
0000d0 e9 62 bc bd aa 6b 3e 3e 13 f5 22 3e 15 fc 87 be
       -0.09198553 0.18595758 0.15913801 -0.2655951
0000e0 aa 65 82 bc 7e 75 86 3e b6 b6 0a 3e 85 8d 5d 3d
       -0.015917618 0.26261514 0.13546261 0.05409004
0000f0 62 db c0 3e f8 32 aa be 89 80 fc bc 88 1f f5 3d
       0.37667376 -0.3324201 -0.03082301 0.11968905
000100 3c b5 07 3c 92 68 dc bd 57 ed 24 3c 68 14 04 bf
       0.008282956 -0.10762133 0.010066352 -0.5159364
000110 03 e8 3d 3f 87 89 db 3e 79 07 8b bd 83 73 7c be
       0.74182147 0.42878363 -0.06788535 -0.24653439
000120 a4 5f 57 3e b4 5e 06 be 14 23 27 be 05 b3 d2 3d
       0.21032578 -0.13122064 -0.16321975 0.102880515
000130 94 5b b5 bd f1 2c 37 3e f1 9c c8 bd 99 ee f7 bd
       -0.08855358 0.17888238 -0.09795559 -0.12106056
000140 1b b3 df bd 19 23 a9 bd 2f 4e da 3c 4a 65 3f be
       -0.109228335 -0.082586475 0.026648609 -0.18690982
000150 4c 72 3b be d1 ee e6 3e b2 38 21 3e de 6b 70 be
       -0.1830532 0.45104077 0.15744284 -0.23478648
000160 01 d4 e2 bc 10 c5 d3 3e fa d0 ac be e2 f6 26 be
       -0.027688982 0.41361284 -0.33753186 -0.16305116
000170 7f 32 69 3d a2 b8 07 3e 6f 05 2a bf 76 42 51 be
       0.056932922 0.13254026 -0.6641454 -0.20435509
000180 14 32 2d 3d e0 3c 21 3f 4f e4 47 3d 25 ca 36 3e
       0.042284086 0.6298351 0.048801716 0.1785055
000190 46 9f 37 be 55 89 5d 3e a3 40 30 3c 73 05 33 3e
       -0.17931852 0.2163442 0.010757598 0.17482547
0001a0 61 b4 d8 bd 20 62 83 3d fb de aa bc 1a 78 cc 3d
       -0.105812795 0.064152 -0.020858278 0.09983845
0001b0 5c be 15 be 73 62 83 3e ab a3 cc bd 53 b0 6e be
       -0.14623398 0.25661048 -0.09992155 -0.2330945
0001c0 a6 66 5a bd f3 9d 4e bc 25 65 89 3e 3f ad 12 be
       -0.05332055 -0.0126109 0.2683498 -0.143239
0001d0 f4 82 fc bc ec 02 f9 bb ca 00 55 be bf 40 d2 3e
       -0.030824162 -0.0075992253 -0.20801082 0.41065022
0001e0 11 e4 61 be b5 04 0b bf 18 a6 0a be d2 df 39 be
       -0.22059657 -0.5430406 -0.13539922 -0.18151787
0001f0 98 54 87 3e fe 4b f0 bc 3d 3f b5 bd f8 d5 c6 3d
       0.26431727 -0.02933311 -0.08849952 0.0970878
000200 08 d4 cd bd c0 58 ed 3d ae cf f8 bc 03 50 b6 3c
       -0.100502074 0.11589193 -0.030372467 0.02225495
000210 86 3f 08 3e 77 aa 92 3e 61 be b2 bd 7b bd 51 be
       0.13305482 0.2864568 -0.08727718 -0.20482437
000220 86 4c 39 3e 29 12 08 bd 0d a5 a1 bd 96 b0 1e be
       0.18095598 -0.033220444 -0.07892809 -0.1549705
000230 3d 0e 25 be 3b 0f 91 bd e7 37 31 3d 76 74 37 bf
       -0.16118713 -0.07082983 0.043266203 -0.7166208
000240 e5 86 e6 3d 9c 2e 87 3e 31 b6 dc 3e 44 fc 3e 3e
       0.11256198 0.26402748 0.4310775 0.18650919
000250 46 23 e7 3d 94 82 a7 bc 04 57 db 3d f1 9e c8 bc
       0.11286025 -0.020448007 0.10709956 -0.024489852
000260 ae 59 2f 3e eb b1 27 be 65 9b 48 3e 89 99 2b 3e
       0.17124054 -0.16376464 0.19590528 0.16757788
000270 6a d2 6a be 3f 63 05 be 09 ba 32 3e 74 bd 8b bd
       -0.22931829 -0.1302614 0.1745378 -0.06823245
000280 84 b5 92 3d a6 1c 9a be 69 ca 8f bb 4c 11 b8 3e
       0.071635276 -0.30099982 -0.004388143 0.35950696
000290 3e 42 d3 3e ba 04 1b be 1c 70 03 3e 3c a3 41 3d
       0.41261476 -0.15138522 0.12835735 0.047274813
0002a0 1b 7b bb 3e f9 48 d7 3e ee 3e 2c 3e d9 34 68 be
       0.3661736 0.4204786 0.16820881 -0.2267641
0002b0 ce 5b 69 3e f3 e3 13 be 72 ae 23 3e 8f 3a ce be
       0.22788927 -0.14442424 0.15984514 -0.40279052
0002c0 a0 3a 35 bc 1a e3 04 be 22 8a d5 3d 6a bd 1e bd
       -0.011061341 -0.12977257 0.10426737 -0.038754858
0002d0 7a 30 27 3e 2b b9 34 3c 5f fb 91 3c 20 d2 df bc
       0.16327086 0.011030476 0.017820058 -0.027321875
0002e0 35 ce 1b 3d 20 59 b8 bd 8f 7d e1 bc 1d 43 bc 3d
       0.03803845 -0.09001374 -0.027525691 0.09192488
0002f0 17 4d 33 be 4e 32 72 bf 0b 76 2c bf 93 2c 5f be
       -0.17509876 -0.9460801 -0.6736762 -0.21794347
000300 ca 6d ae 3e 9f 63 89 be 81 a0 21 be 1a 93 9e 3d
       0.34068137 -0.26833817 -0.15783884 0.07742901
000310 7f 2d f1 bd 75 69 2c be 1a 60 f0 3e 5c 2f 27 3c
       -0.11776256 -0.16837104 0.4694832 0.010204162
000320 35 42 1f be a5 8d aa 3e 38 6e 66 3d 7e 7a 26 be
       -0.155526 0.3331119 0.056257457 -0.16257665
000330 47 8f 01 3e 0c 95 fe bd ad 62 e3 3d 96 4e 5c 3c
       0.12652312 -0.12430772 0.11102805 0.013446471
000340 c8 6d 8b 3d bc d9 19 be 78 44 e9 bc e0 ca 05 3f
       0.068080485 -0.15024465 -0.028475031 0.5226269
000350 a1 45 21 3e 4f 31 04 bf 18 5d d6 bd cc aa ff be
       0.15749218 -0.5163774 -0.10466975 -0.49934995
000360 99 d4 b8 3e b3 9d a6 3e d8 66 bb 3d 23 a3 ef 3b
       0.360997 0.3254219 0.09150475 0.0073131486
000370 2a 80 d8 bc 0f 4d 2c 3e ae 77 17 3e 87 6b 9d 3e
       -0.0264283 0.1682627 0.14791748 0.307461
000380 19 05 f9 3e 06 4a 50 3e 7b d6 9d bd 52 a7 52 3e
       0.48636702 0.20340738 -0.077069245 0.2057164
000390 57 4e 1a be 40 33 ab 3d b9 88 bf 3d 59 ef 4b 3e
       -0.15068947 0.083593845 0.0935225 0.19915523
0003a0 5c 41 c1 bd cc 47 1a be aa 51 9b 3c 99 13 2f 3d
       -0.094362944 -0.15066451 0.018959839 0.0427433
0003b0 ec 61 2e 3e f3 52 7f bd 70 c7 17 3d f9 47 08 bf
       0.17029542 -0.062334966 0.037055433 -0.5323482
0003c0 04 ef 2f 3e 1a f0 42 be 45 fb 1b 3c 3f 45 3f 3e
       0.17181021 -0.19036904 0.009520357 0.18678759
0003d0 bb 82 bc 3e c3 f2 00 3f 2b 55 df bd 59 68 86 3d
       0.3681849 0.50370425 -0.109049164 0.065628715
0003e0 1b 08 e3 3b dc 7a 7b be 90 5c ea 3d 7c f9 94 bc
       0.0069284565 -0.24558586 0.11443436 -0.01818537
0003f0 4f 03 07 be 80 e1 11 3e 38 2e 69 be 4f 6f 90 3d
       -0.13184856 0.14246178 -0.22771537 0.070524804

actor.0.bias f4 [64]
000000 b4 7a 26 bd 96 b8 64 3d dc d2 83 3e ab 0d 52 be
       -0.040644363 0.055840097 0.2574681 -0.20513026
000010 09 77 1a 3e 10 8e 6e be 7b 23 c4 3d cb e1 0a be
       0.15084471 -0.2329638 0.0957708 -0.13562696
000020 12 b6 03 be 17 b7 97 bb d5 20 2c bd 34 ce aa 3d
       -0.12862423 -0.0046299803 -0.0420235 0.083401114
000030 79 a4 79 bc 98 b8 4a 3d 0f 97 aa bd 37 59 55 3e
       -0.015236967 0.04949245 -0.083295934 0.20834814
000040 37 0a 82 3d 3c 6f ab bd 4f ab 66 3d 1a 13 02 be
       0.063496046 -0.08370826 0.056315716 -0.12702599
000050 a0 5b 6e bc e0 a4 85 3e 18 ea 83 3d 67 25 58 3e
       -0.014548212 0.26102352 0.06441134 0.21108018
000060 8a be 63 be 10 ea 8f 3e 67 8a a0 3d e9 17 2c 3e
       -0.22240654 0.28108263 0.07838898 0.16805996
000070 e3 a6 43 be 53 7f 11 bd 94 c8 d3 3d 80 a2 63 be
       -0.19106631 -0.035521816 0.103409916 -0.22229958
000080 a1 6f bb 3b a0 7c 07 bd 95 90 4a 3e 22 cf 6a be
       0.0057200943 -0.033077836 0.19781716 -0.22930577
000090 7f 01 c5 bd c0 39 34 bc 24 b1 a8 bd 70 8f b0 bd
       -0.09619426 -0.011000097 -0.08236912 -0.086211085
0000a0 74 92 12 be 2f 86 4b be be 75 aa 3c ad 4a 27 3e
       -0.1431368 -0.19875406 0.020808097 0.1633708
0000b0 eb 75 0e 3e 8a 2c e0 bd 84 fc 1f 3e 60 61 3e 3e
       0.1391217 -0.10945995 0.15623671 0.18591833
0000c0 03 9d 09 be 33 84 07 be 38 96 33 3d f9 68 e7 bc
       -0.13438801 -0.13234024 0.04384443 -0.028248297
0000d0 b9 ac 09 be 0b 44 61 be 31 34 1f bd dc be 33 bd
       -0.13444795 -0.21998613 -0.038868133 -0.04388319
0000e0 21 3f fd 3d 05 06 c5 bc 60 f6 ed 3c 3a c6 22 3d
       0.123655565 -0.024050722 0.029048145 0.039739825
0000f0 9e a2 b4 3d 06 d3 78 3e db dc 07 be 71 99 1a 3e
       0.08820079 0.24299249 -0.13267843 0.15097596

actor.2.weight f4 [64, 64]
000000 e5 38 dc 3c 93 b7 24 3f 9d bb 4b 3f 4f 6e 98 bc
       0.026882598 0.6434261 0.7958315 -0.018607287
000010 24 64 44 be 52 af 78 3e 99 47 d5 bd 71 0f c5 3e
       -0.19178826 0.2428563 -0.10414047 0.38488343
000020 6b 60 80 bf 08 49 d3 3d 07 d2 5b be b8 7a 7f 3e
       -1.0029424 0.10316664 -0.21466838 0.24949157
000030 e2 8e 78 bc 89 64 bd be 88 39 bb 3e 6b a2 77 3d
       -0.015170785 -0.36990765 0.3656733 0.06045763
000040 84 86 23 bd a4 02 85 be 36 d7 4b bd d7 55 82 be
       -0.039923206 -0.25978577 -0.049765788 -0.25456116
000050 6d 16 aa be 4c 42 a2 3c 05 d2 32 be 85 68 49 be
       -0.33220235 0.019807003 -0.17462929 -0.19668777
000060 4b 3f 74 bf 21 14 9e be 90 c5 81 be 04 2f 1c 3e
       -0.9540908 -0.30874732 -0.2534604 0.1525231
000070 2b 5a 41 3d 26 3e c1 bc d5 b9 14 3f dd 5b 94 bd
       0.04720513 -0.023589205 0.5809606 -0.07244084
000080 5b 88 81 bb da 25 bc be 2f 4a c3 3e 44 bd 63 3e
       -0.0039530224 -0.36747628 0.38142535 0.22240168
000090 fb fd 03 be 73 a9 40 3e 5f d3 f5 3e fe d7 33 3e
       -0.12889855 0.1881464 0.48012826 0.17562863
0000a0 ca 19 41 3f 79 d0 62 bf 35 77 11 bf e9 6a bb be
       0.75429976 -0.88599354 -0.5682252 -0.36605003
0000b0 7c 50 a6 be ed 1d 6a bd 50 a4 32 bf 0b b6 6a 3d
       -0.3248328 -0.057157446 -0.6978197 0.057302516
0000c0 52 6d 48 3d 4b 7f b2 3e cb f2 7e 3e 89 23 5a 3e
       0.04893238 0.34862742 0.24897306 0.21302618
0000d0 1d 7c 7a 3d 1e b4 e6 3e a0 fc 9d be eb 29 43 3c
       0.06115352 0.45059294 -0.308568 0.0119118495
0000e0 40 aa df 3e 13 03 95 ba 3f b6 71 3e 38 3e 6a 3e
       0.43684578 -0.0011368714 0.23604678 0.22875297
0000f0 94 cd 37 3e c8 7a 4f be e5 52 57 bf 62 3d 28 3f
       0.17949516 -0.20261681 -0.8411086 0.6571866
000100 fb 82 dc 3e aa 9d 93 3e b7 7e 21 bd b2 f7 e7 3d
       0.4306868 0.28831226 -0.039427485 0.11326541
000110 db a3 a9 be 1c 91 1e 3d 3f 0e 28 be 6e de 84 be
       -0.33132824 0.038712606 -0.16411684 -0.2595095
000120 f1 8a 38 3a 84 b0 c8 bd fb 44 9c 3d bc 1f 0d 3f
       0.0007039747 -0.09799293 0.076303445 0.5512655
000130 f0 8c 57 3e d4 b2 7f be 6d 3e 0c be 79 e9 95 3e
       0.21049857 -0.24970561 -0.13695689 0.29279688
000140 a3 48 00 3e ac a0 af 3e 42 2c 98 3e 07 6d a6 be
       0.12527709 0.3430227 0.29721266 -0.32505056
000150 5a 48 8b bd bb d4 24 bf be 58 9a be 23 e0 f7 be
       -0.06800909 -0.643871 -0.3014583 -0.4841319
000160 6c 86 58 be ce 5d 8b 3e 35 8a 00 3e dd 76 f4 bd
       -0.21145028 0.27220005 0.12552722 -0.11936734
000170 e7 20 06 3f 11 e9 f4 3d b8 8e ea bd 76 5f f3 3d
       0.52393955 0.119585164 -0.11453003 0.11883442
000180 16 22 15 3f f3 1d 0e be c5 73 c9 bd 53 0c 8b 3e
       0.58255136 -0.13878612 -0.098365344 0.2715784
000190 41 8f 81 bd 1c 80 b4 3e 27 32 c7 bd b7 79 34 3f
       -0.06326152 0.3525399 -0.09726363 0.7049822
0001a0 39 6e e9 bd bb 7c 30 be ff fa 83 3e d2 35 fa be
       -0.113979764 -0.17235081 0.25777432 -0.48869187
0001b0 07 03 9e be 89 c3 00 be 06 3f 00 bf 7b f9 06 3f
       -0.30861685 -0.1257459 -0.50096166 0.52724427
0001c0 a6 67 68 3e 22 ee ce be 00 00 22 be 91 6f 10 be
       0.22695789 -0.40416056 -0.15820312 -0.14105059
0001d0 77 d9 b8 3e 57 0e bb 3d d1 3d c0 3e 15 79 c0 3e
       0.36103413 0.091335945 0.37547162 0.37592378
0001e0 b0 a8 d8 bd 28 5a 59 3e e0 7e fb bd 52 3b 82 3e
       -0.105790496 0.21225798 -0.12280059 0.25435883
0001f0 32 66 87 bc 34 14 b9 bb c9 f5 89 be 0e fd be 3e
       -0.016528223 -0.0056481604 -0.26945332 0.3730244
000200 12 34 22 3f 98 3c 37 bc 87 c4 ce bd bb 4c 2f 3e
       0.63360703 -0.01118388 -0.10096078 0.17119114
000210 8a a9 43 3e 3e 01 f5 3d da d4 1c be ae 33 08 3e
       0.19107643 0.119631276 -0.15315571 0.13300964
000220 de f1 d1 3d 0b eb b2 3e c5 a1 a5 3d b6 74 c3 3a
       0.10251211 0.3494495 0.08087496 0.0014912102
000230 af be 67 bc 44 a8 28 be f5 c2 cd 3e 78 fb bb 3e
       -0.014144584 -0.16470438 0.40187803 0.36715293
000240 29 60 b5 be e7 2a 01 bc cd 52 29 3e f4 10 05 be
       -0.35424927 -0.007883764 0.16535492 -0.12994748
000250 ef 51 fb 3d 25 f5 4b bd 6d 1b dc 3d e9 3f aa 3e
       0.12271487 -0.049794335 0.107474186 0.33251885
000260 b8 71 70 be 61 fa 90 3e b5 bd 18 be e6 a2 b7 3e
       -0.2348088 0.28316024 -0.14916117 0.3586647
000270 85 1b 04 3e 63 9e 78 3d 23 c3 f9 3d ae 6b 17 bb
       0.12901123 0.060697924 0.121954225 -0.0023104954
000280 bb f8 dc be 5a 76 0e bf b9 9d c5 3d 92 8b 82 3d
       -0.43158516 -0.5564934 0.09649224 0.06374277
000290 d2 7d 56 bf 4a 11 14 be 39 a6 96 3e 75 34 d2 bd
       -0.83785737 -0.1445972 0.29423693 -0.10263912
0002a0 7a 46 01 be d9 04 03 bf 85 b8 3b 3e c4 de 9c 3d
       -0.12624541 -0.5117927 0.18332107 0.07659677
0002b0 69 a9 9e 3d 8a 14 3a be 27 f3 be bc 09 26 32 3e
       0.07747156 -0.18171898 -0.023309303 0.17397322
0002c0 a9 d4 32 bf 8c 77 d4 3d 27 01 29 be 1e 0e a0 3e
       -0.69855744 0.10374364 -0.16504346 0.3126077
0002d0 b0 1f 02 be 48 33 30 3e 0a 8f 73 3e c1 22 71 3e
       -0.127074 0.17207062 0.23785034 0.23548414
0002e0 28 9a 04 3d 53 21 6e 3d cd 74 c9 3d a9 3f 4a 3e
       0.032373577 0.05813725 0.09836731 0.19750847
0002f0 3d 6b 61 3e 2f 87 8a 3e 8e ae c5 bd bd e3 11 3e
       0.22013564 0.27056262 -0.09652434 0.14247032
000300 f8 eb 02 3f e2 64 e6 3d 76 44 1b 3e a1 91 ad 3d
       0.5114131 0.112497106 0.15162835 0.08475042
000310 a2 b6 29 be 16 7b 2e bd 19 af 87 bd 6a d0 f6 bd
       -0.16573575 -0.042597853 -0.06625194 -0.120514706
000320 5f af 92 3e 1a cc 58 3e f9 17 88 be e2 ae ff 3b
       0.28649423 0.21171609 -0.2658079 0.00780283
000330 f5 95 7f 3d 74 01 00 bd f7 fa 67 3b 6f ea 81 3e
       0.06239887 -0.031251386 0.003539739 0.2537417
000340 f7 37 95 be 6c ff 15 bd 73 b7 34 3e 78 6a 9c bc
       -0.2914426 -0.036620542 0.17648105 -0.019093737
000350 80 1c 01 be e0 f6 9a bd 81 be 19 bd 19 24 69 bc
       -0.12608528 -0.07566619 -0.037535194 -0.014229798
000360 d5 26 40 be 67 a2 89 be e4 9c cf 3d 84 96 d2 3e
       -0.18764813 -0.26881716 0.101373464 0.4113046
000370 34 e0 34 3c 88 d0 8d 3e fa f2 88 3d e5 01 7a 3d
       0.011039782 0.2769816 0.06686969 0.061036963
000380 e2 2e 32 be 70 96 57 bd 78 e5 6c 3e 26 13 6a 3e
       -0.17400697 -0.052633703 0.2313441 0.22858867
000390 e7 ab 80 bd 65 e6 a6 3b de 06 fb bd 85 24 30 bd
       -0.06282788 0.005093383 -0.12257169 -0.043003578
0003a0 75 fa d8 bd 4c 8d 54 3d 9e ed aa 3e 66 72 6e bc
       -0.10594646 0.051892564 0.33384413 -0.014553642
0003b0 50 0a 02 3c b2 d5 8a 3e e1 26 f5 bd d0 2d fd 3d
       0.007937029 0.27116162 -0.11970306 0.12362254
0003c0 ac e9 30 bf d3 8a 4e 3e 9b d5 c3 bd 51 92 ae bd
       -0.69106555 0.20170145 -0.095622264 -0.085240014
0003d0 6d 64 88 3d 43 23 96 3c e1 21 be 3e 4c 03 34 3e
       0.0665978 0.018327361 0.37135223 0.17579383
0003e0 67 57 9d bd 12 f9 2f 3e de 5f c2 be 81 a6 22 3c
       -0.07682686 0.17184857 -0.37963766 0.009927393
0003f0 5a 45 77 be bd 25 03 bd 9c f0 21 bd 55 29 89 3e
       -0.2414755 -0.032018412 -0.039536104 0.26789346

actor.2.bias f4 [64]
000000 bb 06 98 3d 02 65 0a be 7f ca 83 3e d4 1f 02 3e
       0.07423159 -0.13515094 0.2574043 0.12707454
000010 71 e6 e8 3d ac 90 fb 3d 43 ca c1 bd 71 a7 40 bc
       0.11372078 0.12283453 -0.094624065 -0.011758671
000020 6d c3 94 3d 7b 2f 59 3e 08 80 a3 3d 66 3c 94 bd
       0.07263837 0.21209519 0.079834044 -0.072380826
000030 57 ce ca bd ef 17 23 3d ca 1f d9 3d 50 12 82 bc
       -0.099026375 0.039817747 0.106017664 -0.015877873
000040 53 b5 22 be 6f 35 3d bd 4f 2a c9 3b 8c d3 41 3e
       -0.15889482 -0.046193536 0.006139077 0.18928355
000050 f7 c2 3a be 19 db 2e 3e 79 d0 a8 3d a9 87 c8 bd
       -0.18238436 0.17075767 0.08242888 -0.097915
000060 86 c9 c9 bd 3a 72 27 3e 42 45 16 3d 43 8b c9 bc
       -0.09852891 0.16352168 0.036687143 -0.024602538
000070 d0 cd f4 bc aa c8 db bd 16 e1 0d 3e 11 10 ea bd
       -0.029883295 -0.10731633 0.13855395 -0.11428846
000080 88 5e 09 3e 4f f4 bc 3d a3 f7 1b bd c3 8e db 3d
       0.13414967 0.09226286 -0.03807796 0.10720589
000090 e8 ff fd 3c fe a9 23 3d 80 5e 88 bd 6d 66 2a bd
       0.031005815 0.03995704 -0.066586494 -0.041601587
0000a0 51 c5 41 3e 60 bd 75 3d 07 9e f6 3d 86 67 0d bc
       0.18922926 0.059995055 0.1204186 -0.008630639
0000b0 31 ab 15 be 46 0f a5 bd 66 22 44 be 99 ca 10 bd
       -0.14616086 -0.08059554 -0.19153747 -0.035349462
0000c0 40 e3 db bc a5 75 e3 3d 4f 98 42 be c4 2b f5 bd
       -0.02684176 0.11106423 -0.19003414 -0.11971238
0000d0 e6 ec 0e 3d 1c 1c 5a 3e d5 b7 1c be e7 fa 80 bc
       0.034893893 0.21299785 -0.15304501 -0.01574464
0000e0 a5 90 b6 3d 7f a2 eb 3d e6 43 86 be de c5 18 be
       0.089143075 0.11505603 -0.26223677 -0.1491923
0000f0 0f 1a 44 3e 5c 3e ec 3c b4 f6 1b bd 63 df b4 3c
       0.19150566 0.028838329 -0.03807707 0.022079175

actor.4.weight f4 [6, 64]
000000 7d ed e5 3e 3b d9 be 3e 9c 44 9c 3e 90 79 10 3e
       0.44907752 0.3727511 0.30521095 0.14108872
000010 25 32 20 be 1c 5b 7e be 3d ad db be b2 c3 12 3e
       -0.15644129 -0.24839443 -0.42905608 0.14332464
000020 e8 5f 01 3e f8 fa 73 be d9 2e 42 3e 73 0e 2c bf
       0.12634242 -0.23826206 0.18963183 -0.6720955
000030 95 da 01 bf f4 0d 80 3e 4f bd 72 3d c4 50 8b be
       -0.50724155 0.25010645 0.05926257 -0.27210057
000040 30 c7 63 3e 03 bb 2c 3d 1c 56 5f be 24 51 f6 bc
       0.22243953 0.042170536 -0.21810192 -0.030067988
000050 36 35 15 3e 6b 98 69 be 39 68 b4 3e a7 25 a7 be
       0.1457108 -0.22812049 0.35235766 -0.32645914
000060 d2 12 9a bd 7a 7e 0a 3e d0 db 8d 3e 45 d2 7e 3e
       -0.07523121 0.1352481 0.27706766 0.24884899
000070 8e 24 09 bf 52 7f 79 bd 34 87 b0 3e 08 eb 16 be
       -0.53571403 -0.060912438 0.34478152 -0.14738095
000080 fb c4 da 3d e1 a9 cb bd 7a 94 0a be f4 9e 14 3f
       0.10682102 -0.09944511 -0.13533202 0.58055043
000090 e5 73 f4 bd 93 eb f9 3d 97 b2 04 be 3e a3 94 3c
       -0.11936168 0.12203135 -0.12958752 0.018144246
0000a0 3d 42 d6 3e 9f c8 da 3e d3 f4 54 3e 73 22 9f 3d
       0.4184741 0.42731187 0.20796518 0.077702425
0000b0 1e e1 9d bd 06 52 77 3e 6c 78 d5 3d 62 f7 05 bf
       -0.07708953 0.24152383 0.10423359 -0.523306
0000c0 d1 b1 a8 be 84 b4 ee 3e 80 c8 86 be 20 31 25 3a
       -0.32948163 0.46622097 -0.26324844 0.00063015707
0000d0 91 2a 89 3d b2 90 01 3f 3b a3 db 3c ea 16 af 3e
       0.06697572 0.5061141 0.026811233 0.3419717
0000e0 dd de 87 3c 11 24 96 3e 06 17 06 3e 2c 44 91 3e
       0.016585762 0.2932439 0.1309472 0.28372324
0000f0 e8 92 8c 3e 45 52 35 3e 22 86 ca bd ca 85 aa 3e
       0.2745583 0.17707165 -0.09888865 0.33305198
000100 a6 7f 9e bd 18 25 ee bd 64 67 34 3e 38 ce 9d be
       -0.07739191 -0.11628169 0.17617565 -0.30821395
000110 4e 37 c2 3e 7e fe 83 3e a2 de c0 bd 14 46 c4 3c
       0.3793282 0.257801 -0.09417464 0.023959197
000120 22 e4 93 be f0 43 d6 3d 1d fb a4 bd 9d 16 2b 3e
       -0.2888499 0.10462177 -0.080557086 0.16707845
000130 48 a5 2b 3e 5a 49 44 be 17 0f cb bd 8c 43 16 be
       0.16762269 -0.19168606 -0.099149875 -0.14674205
000140 6f 34 5b be 82 dc 6e 3e 66 39 70 be 9a f3 b9 3c
       -0.2140672 0.23326305 -0.23459396 0.022699166
000150 57 2a 2b 3e f6 11 c4 bd f7 ef ad 3e 62 fb e8 bc
       0.1671537 -0.09573738 0.3397214 -0.028440181
000160 35 55 da 3e d1 96 35 3e be 71 74 3e 88 3f b1 3d
       0.42643133 0.17733313 0.23871514 0.08654696
000170 ff 49 c5 3d c5 11 80 3e 7d a5 59 3e 4e e1 40 3e
       0.09633254 0.25013557 0.21254535 0.18835947
000180 6a d3 1b be c2 6b a2 be 07 1c ce be 0d ef 70 be
       -0.15217367 -0.31722838 -0.40255758 -0.2352869
000190 17 80 0f 3f 44 73 bc 3e 26 0f ad 3d 41 df 3a 3f
       0.56054825 0.3680669 0.08450155 0.7299691
0001a0 45 bf 6e 3e 50 08 5b 3e ce a2 7d 3d af f0 40 3e
       0.23315151 0.2138989 0.06192284 0.18841814
0001b0 95 7a 13 3e b1 e7 ef be 81 7b 70 3d 29 6f 20 3d
       0.1440223 -0.46856454 0.058711533 0.03916851
0001c0 95 6c 07 3e bf 49 ee bd 10 c8 b6 3e 11 4e 91 3d
       0.13225015 -0.1163516 0.3569951 0.07094968
0001d0 d0 6f 98 be 54 3b f5 3d 32 ee a1 3e 87 99 d7 3e
       -0.29772806 0.119742066 0.3162704 0.4210932
0001e0 0b bd 42 bd be 83 ac be 9e fb 90 3e f9 03 ac 3e
       -0.047543567 -0.3369426 0.2831697 0.3359678
0001f0 eb e0 b5 3e d8 14 85 3e 9a 55 2e 3d b3 fd a3 3e
       0.3552316 0.25992465 0.042562105 0.32029495
000200 aa aa ff be 80 ee 3e 3e ad de 80 3d 3d c9 27 3e
       -0.49934894 0.18645668 0.06292472 0.1638536
000210 16 1c c0 3d 89 d3 ca bd ac 1b 4b bd 2c 35 f0 bd
       0.09380357 -0.099036284 -0.049586937 -0.11728892
000220 f5 9f 54 be 22 d6 46 be db 9c de 3c 1e eb 75 be
       -0.20764144 -0.19417623 0.027174404 -0.24015471
000230 43 fe 69 3e 35 89 9c 3e dc 8e a7 be 41 3e dd bc
       0.228509 0.3057343 -0.3272618 -0.027007224
000240 7d 3e 12 3f eb fe 46 3d f9 b2 0b 3e c6 f0 c3 be
       0.571266 0.048582952 0.13642491 -0.38269633
000250 e8 d7 ca be 3c bb 0b bf e4 d0 3b be 55 c3 8b bd
       -0.39617848 -0.5458257 -0.18341404 -0.06824366
000260 b5 51 11 bd c2 b1 a7 3e 75 9c 5b bd 00 9c 66 3d
       -0.035478313 0.32752806 -0.053616006 0.056301117
000270 d7 07 42 be 17 3d c4 3e 68 e5 67 bd f6 8c c7 bd
       -0.18948303 0.38327858 -0.056615263 -0.09743683
000280 a1 e4 e6 bd b3 7a 8e 3e 1d a8 0a 3e 2c 2b 70 bd
       -0.11274076 0.27827987 0.13540693 -0.058634922
000290 e9 2b 83 be 9a b8 eb 3d 1f b2 97 3e 0f 81 bf bd
       -0.25619438 0.11509819 0.29628083 -0.09350788
0002a0 d8 c0 9d bd 6e 46 da 3d b2 7f a2 be 46 e4 b1 be
       -0.07702798 0.10657965 -0.3173805 -0.3474447
0002b0 b3 e9 55 be 67 02 9f be be c1 5e 3e 84 95 d3 3d
       -0.2088993 -0.3105652 0.21753594 0.10331252
0002c0 a0 37 b6 bc dc b4 c2 3e 66 e8 3c be 69 7a 4d 3e
       -0.022243321 0.3802861 -0.18448028 0.20066227
0002d0 c4 47 f8 3d d0 3d d9 3e 0b 67 35 be 8c 58 b0 be
       0.12123063 0.42429972 -0.17715089 -0.34442556
0002e0 dc b7 ce 3e 8f 7b a9 be f5 7b ec bd bd 32 ef 3d
       0.4037465 -0.3310208 -0.115470804 0.116795994
0002f0 2d 2e e3 be 27 96 8e be 02 bb d7 3e 24 bc 7d bc
       -0.44371167 -0.27848932 0.42134863 -0.015486751
000300 6c 91 95 be 6a 76 44 3e 15 c1 12 3f 1f ca 1b 3f
       -0.2921251 0.19185796 0.5732587 0.6085529
000310 bb 8b f1 bd 0a df 0d bf a8 52 a5 bd 93 5d c2 bd
       -0.117942296 -0.55418456 -0.08072406 -0.09490504
000320 9d 1b 1d be 84 d4 6e 3e c7 5d 48 3f de b3 68 3e
       -0.15342565 0.23323256 0.7826809 0.22724864
000330 c1 da ae be 9f d0 d7 bd 23 5e c5 bb 28 71 84 be
       -0.3415127 -0.10537838 -0.006023185 -0.2586758
000340 ae 2b d0 3e e2 61 63 3e d1 92 fc be 66 53 27 3f
       0.40658325 0.22205308 -0.49330762 0.6536163
000350 1c 98 a0 be a6 32 d5 3e 17 81 b5 3b 39 1c c1 3e
       -0.3136605 0.41640204 0.0055390703 0.37716845
000360 08 ec a0 be 23 97 9a 3d c5 44 ef be 9f 98 84 3d
       -0.31430078 0.07548358 -0.46732154 0.06474423
000370 d7 a9 d1 be 82 95 50 be 6c cd ae 3e 74 bc d4 3d
       -0.4094989 -0.20369533 0.341411 0.10387507
000380 27 6c 2e 3f 61 39 7a be 37 ac ae 3d 7b c2 19 3f
       0.6813378 -0.24435951 0.08528941 0.6006238
000390 7e f3 9c bd 60 0b 3a be d9 4f 7d 3d 53 e6 38 be
       -0.0766363 -0.18168402 0.061843727 -0.18056612
0003a0 7c e8 d7 3c c7 5a 12 3f 21 da 05 3d 6d 82 70 3e
       0.026355974 0.57169765 0.032678727 0.23487253
0003b0 79 6b 93 3e 8b 12 17 3d ac c3 8e 3e 5a a1 df be
       0.28792933 0.03688292 0.2788366 -0.4367779
0003c0 1d c3 cf be 51 46 da 3e 21 79 27 3e 81 62 02 bf
       -0.40578547 0.42631772 0.16354801 -0.50931555
0003d0 6f 94 cb 3e 81 25 88 3e 26 3d 89 3e 6a 0c b3 3d
       0.39761683 0.26591113 0.26804465 0.08742602
0003e0 9d 78 e0 3d e2 07 4b 3b 75 f0 1e bf 0c b4 64 be
       0.10960505 0.003098004 -0.6208566 -0.22334307
0003f0 06 e4 78 3d f9 98 80 3e 84 1d 95 be f7 e3 b8 3e
       0.060764335 0.2511671 -0.2912408 0.36111423

actor.4.bias f4 [6]
000000 cc 62 f5 bc 41 a8 86 bd 18 35 2c be 45 63 11 3e
       -0.029954337 -0.06575061 -0.16817129 0.14198025
000010 6f 92 2e 3d b9 65 16 3e
       0.04262012 0.14687242

critic.0.weight f4 [64, 26]
000000 13 3e 69 3e 73 26 86 bd 71 d5 b0 bf 69 9b 31 bf
       0.22777586 -0.06550302 -1.3815137 -0.6937776
000010 42 f1 36 3e 4f 72 28 3f 5a 73 1c 3d 88 f8 01 40
       0.1786547 0.6579942 0.038195945 2.0307941
000020 15 c9 cd 3e 75 62 bb bd 54 ef 32 be c0 46 8a bf
       0.40192476 -0.091496386 -0.17474109 -1.0802841
000030 b2 ea 36 3f 5f 61 36 be eb 74 f4 be 79 75 1d be
       0.71451867 -0.17810582 -0.4774545 -0.15376844
000040 e4 52 86 bd ed b1 d9 bd 80 7e 4e bf bc 05 8b 3c
       -0.06558779 -0.1062964 -0.80661774 0.016970508
000050 92 23 97 be b6 a6 39 3e ef 6b 38 be 82 5f 72 bf
       -0.29519325 0.18130001 -0.18009923 -0.94676983
000060 84 f4 25 bd 07 8e 1d 3c 0e ea d0 bf 64 70 6f bc
       -0.04051639 0.0096163815 -1.6321428 -0.014614198
000070 e3 21 14 bf e5 7d bd bc ca 78 ea bd ea ca 07 bf
       -0.5786421 -0.02313132 -0.1144882 -0.53044
000080 4a 22 23 3e 6e f1 ad 3f ca 5e a7 3f 27 e8 32 3e
       0.15931049 1.3589303 1.3075802 0.17471372
000090 de 48 86 bb e9 2e 6e 3c 3d 94 91 be 8e 8e a0 bd
       -0.004098042 0.014537551 -0.2843341 -0.0783969
0000a0 fe 1e 24 3f 37 e3 db be eb 76 78 3f 3f d9 cd be
       0.6410979 -0.4294679 0.97056454 -0.40204808
0000b0 de 9d 3b 3f 03 db a3 be 77 3e 1b be ab 82 b3 3d
       0.7328776 -0.3200303 -0.15160547 0.08765157
0000c0 e8 75 4d 3d e7 a5 22 3e 4e 14 13 3e 96 4e 06 be
       0.050161272 0.15883599 0.14363214 -0.13115916
0000d0 a1 4a 9c bd c8 a5 a9 bd ad ca 7c be c8 61 1e 3f
       -0.07631422 -0.082835734 -0.2468669 0.6186795
0000e0 4a b7 09 3e d4 6c 37 3f 20 f0 fb bd 93 4f 8c 3f
       0.13448825 0.71650434 -0.123016596 1.0961784
0000f0 50 c1 cd bf c3 ea 0e c0 ed fe 1c bf 84 39 f8 3d
       -1.6074619 -2.2330787 -0.61326486 0.12120345
000100 0d bd d6 be 7b 26 17 bf 4d 8f 1a 3f a1 0c c2 be
       -0.4194111 -0.5904309 0.6037491 -0.3790026
000110 bd 89 27 3f ca e5 82 3f da 8e f1 3e 15 f7 f8 3e
       0.65444547 1.0226376 0.471793 0.4862601
000120 23 b7 50 be 00 17 2e 3e eb 88 c8 bd 6d 2e a0 3e
       -0.20382361 0.17000961 -0.0979174 0.3128542
000130 ab c1 06 be 1e a1 12 3c e8 fa 91 3d 70 b9 47 bc
       -0.13159816 0.008949546 0.07127935 -0.012190208
000140 64 0c 75 be b0 07 34 3f d1 b8 21 be 95 11 b2 3f
       -0.23930508 0.7032423 -0.15793158 1.3911616
000150 59 35 c1 bd e4 fc 0b c0 7b 10 1c be 74 0e 9d bf
       -0.094340034 -2.1873102 -0.15240662 -1.2270036
000160 ef 25 f5 bc a0 ab a9 3e a5 ca 97 be fb ea 14 3e
       -0.029925315 0.33138752 -0.29646793 0.14542763
000170 57 80 95 bc 19 20 3b bf eb 62 21 bf 50 97 3c bf
       -0.018249674 -0.7309585 -0.6304156 -0.73668385
000180 fd ea 3e bf d3 4c 33 3f 1d 34 e5 bf 4a 9a d5 3d
       -0.74577314 0.700391 -1.7906529 0.10429819
000190 f3 65 8a 3c d1 e1 19 3e 1b 5b 1c bd 10 c4 3d be
       0.016894316 0.15027548 -0.038172822 -0.18531823
0001a0 da cb d2 be 8f 95 5c 3d 81 dc 09 bf 28 6b 6b be
       -0.4117115 0.053853568 -0.5385209 -0.22990096
0001b0 d1 72 ab bd 3d 1d 27 3e e3 56 09 3e 15 58 91 bf
       -0.08371509 0.16319747 0.13412051 -1.1355006
0001c0 b1 ed 1e 3d e1 4b 01 3e 23 61 8c 3f 33 f3 cf 3e
       0.0388009 0.12626602 1.0967144 0.40615234
0001d0 c5 1b 3b 3f a2 3d b7 bd b7 8b 37 3e 1a c5 cf 3e
       0.7308925 -0.089473024 0.1792439 0.40580064
0001e0 d6 1d 3b be 09 05 28 3e 86 95 3d 3f f3 5e a3 bd
       -0.182731 0.16408171 0.7405628 -0.079770945
0001f0 bd c6 48 be db 54 2a bd df b6 2c 3d 27 5e cf be
       -0.19607063 -0.04158483 0.042166587 -0.4050152
000200 6f 4c e4 3d 54 70 18 be 73 d4 99 3f 91 74 84 3d
       0.11147391 -0.148866 1.2017959 0.06467546
000210 a6 a9 79 bf ab 97 50 3e 60 2e a2 3b 3c 18 20 bf
       -0.9752449 0.20370357 0.004949376 -0.6253698
000220 31 3e 10 be 90 7c 85 be 74 b7 a2 3d a3 ee c6 be
       -0.14086224 -0.26071596 0.07945147 -0.3885394
000230 f6 bf 51 bf 9b 9f 81 be 7d 58 d3 3e 58 0e f5 3e
       -0.81933534 -0.25317082 0.4127845 0.47862506
000240 12 bc 88 bf a7 c8 11 bf ac 9b e1 3e 9b f1 4e 3e
       -1.0682395 -0.56946796 0.4406408 0.20209353
000250 51 db bf bf 7c 42 5c 3f ee 6e a6 bd aa c9 37 3e
       -1.4988805 0.8603895 -0.08126627 0.17948022
000260 9a 1d 33 be fe 04 08 bf b6 53 e8 bd d2 9a b4 3d
       -0.17491761 -0.5313262 -0.113440916 0.08818592
000270 ba f2 c0 3e 9e 3c f4 3c fb c5 65 3f 30 48 2b bb
       0.37685186 0.02981406 0.8975522 -0.0026135556
000280 60 a8 34 bd b6 f8 c0 3f 65 ff e7 bd 2e cd 6e 3f
       -0.044105887 1.50759 -0.113280095 0.9328183
000290 95 a9 03 bf 33 33 6d bf 88 71 1a bf 6c d7 2e 3a
       -0.51430637 -0.9265625 -0.60329485 0.00066696736
0002a0 4c 93 fb bf c7 93 17 3f b0 de 3c 3f e0 88 ab 3e
       -1.9654326 0.59209865 0.73777294 0.33502865
0002b0 10 33 a8 3d b0 77 81 3e 58 d0 36 3f db 75 e5 3c
       0.082128644 0.25286627 0.7141166 0.0280103
0002c0 11 fc 28 3e 8b fb 84 bd b7 85 33 3e da d4 03 bf
       0.16502406 -0.064932905 0.17531477 -0.5149666
0002d0 3b 2a 3a be 53 c6 3c 3d b5 e1 95 3f a0 5d 63 bd
       -0.18180172 0.046087574 1.1709505 -0.05550921
0002e0 a8 76 e3 bd d0 ef fb 3d ad aa 96 bd 06 48 2e be
       -0.11106616 0.123016 -0.073567726 -0.17019662
0002f0 53 1f 31 3d 23 9c 10 3e bc e3 2f bf 8e 50 0c 40
       0.043242764 0.14122061 -0.6870687 2.1924167
000300 63 b1 89 3e 77 39 49 be a3 5b 15 3f 99 f0 2e 3f
       0.26893148 -0.19650827 0.5834295 0.6833587
000310 56 79 bf bf 56 52 95 3f b1 40 6c be 74 7b 73 3e
       -1.4958904 1.1665752 -0.23071553 0.23777562
000320 93 c3 48 bf 14 99 63 3e 23 9f 82 3e 63 c8 2d be
       -0.7842342 0.22226363 0.25512037 -0.16970973
000330 01 42 56 3d 6e bd 2b 3e 80 31 b5 bd 33 54 80 3b
       0.05230904 0.1677148 -0.08847332 0.0039162873
000340 bc 0c ca 3e 23 dc 07 be dc 3c 9f be 47 28 34 3f
       0.3946284 -0.13267569 -0.3110112 0.7037396
000350 d9 d9 a3 bd 7f 9d 07 3f 13 b4 d9 3d 76 e3 82 bf
       -0.080005355 0.52974695 0.106300496 -1.0225666
000360 69 d8 70 3b a4 8e ff bf 1b a3 6d be 99 8c b2 3e
       0.0036750084 -1.9965405 -0.23206751 0.34872892
000370 22 bc 85 be e2 23 e0 bd fd 46 3f 3f 54 d7 6b bf
       -0.26120096 -0.10944344 0.74717695 -0.9212544
000380 ab fa 20 3e 44 56 04 bf 2a e8 18 3d 87 0a 96 be
       0.15720622 -0.5169413 0.037330784 -0.29304907
000390 8c 0b 9f 3d 05 23 ab 3d 22 33 86 bd 98 26 82 bc
       0.07765874 0.08356289 -0.065527216 -0.015887544
0003a0 13 23 74 3d 6e 29 10 3d 07 50 ee bf 7e df 3a 3d
       0.059603762 0.03519576 -1.8618172 0.045623295
0003b0 41 57 af be 81 e3 5c bd cf e7 b9 bd 8b ad f3 bf
       -0.34246257 -0.053927902 -0.09077417 -1.9037336
0003c0 77 1a fd bd 05 b6 c4 40 3e c1 a6 3e a4 5b 10 3d
       -0.123585634 6.147219 0.32569307 0.035243645
0003d0 e3 fa 8c 3e 6f be d3 be cb 21 f3 3e fc 5d 10 3e
       0.2753516 -0.41356227 0.4748672 0.14098352
0003e0 b3 56 8c 3f 69 64 4f 3f 2b 37 72 bf f0 e5 11 3f
       1.0963959 0.8101259 -0.9461543 0.5699148
0003f0 72 d6 1f 3e 1c 95 93 3e 92 7f a7 be f5 80 d6 3c
       0.15609148 0.288247 -0.32714516 0.026184538

critic.0.bias f4 [64]
000000 10 11 99 bf 90 d2 2b bf 09 66 2b be 81 1d 77 be
       -1.1958332 -0.6711817 -0.16738142 -0.24132349
000010 3a be 36 bf ba 54 3d bf 46 8c 28 3f 91 4d 53 3e
       -0.7138401 -0.7395741 0.6583904 0.20635058
000020 44 35 f1 bd a4 56 80 be 84 3e d7 be 29 b6 6b 3f
       -0.11777738 -0.25066102 -0.42039883 0.9207483
000030 b5 b5 8d bf 1a 1f 2b be cb 66 b4 3e 57 06 a4 be
       -1.1071078 -0.16711083 0.35234675 -0.32036087
000040 3a 48 be 3d fc 89 32 bf 14 33 89 3d 09 97 b1 3e
       0.0929112 -0.697418 0.066991955 0.34685543
000050 1d b4 29 bf cc d4 89 bf d3 7b c7 3e bb 1a 2d bf
       -0.66290456 -1.0768065 0.38961658 -0.6761891
000060 c6 3e d5 be 51 21 35 bf ce ee 1f 3f 8d 22 f3 3e
       -0.41649455 -0.7075396 0.6247376 0.47487298
000070 2e da b7 3c a5 22 45 bf 3c 7d 8f be 16 ec 95 be
       0.022442903 -0.7700599 -0.28025234 -0.29281682
000080 9d 33 86 3e f2 4a 30 3f e2 72 2a 3f 59 7d ab 3f
       0.26211253 0.6886436 0.6658155 1.3397628
000090 74 ae 3f bf 1a 66 41 bf ef fd f4 be 99 ef 28 be
       -0.7487557 -0.7554642 -0.47849986 -0.16497649
0000a0 77 06 cf 3d 35 12 f5 be fa 24 ab 3f d1 fc 08 bf
       0.10108655 -0.47865453 1.3370659 -0.5351077
0000b0 9c 5e 65 be 38 4d 0e be b0 c8 ca 3e cb ab c7 3e
       -0.22399372 -0.13896644 0.39606237 0.38998255
0000c0 90 50 32 bf b2 03 57 bf 16 8a 7f 3c b0 f6 38 bf
       -0.6965418 -0.83990014 0.015596887 -0.72251415
0000d0 73 a4 8e be 48 08 6d bf 1f 55 3e bf 51 bb 32 3f
       -0.2785984 -0.9259076 -0.74348634 0.6981707
0000e0 2e b0 7d bf c1 64 2b 3e 9b b1 b7 3e 00 20 68 bf
       -0.99096954 0.16737653 0.3587769 -0.9067383
0000f0 ad 4e 4d 3f 02 35 da 3e 08 5a 91 3f 15 5d ef 3e
       0.80198175 0.42618567 1.13556 0.46750703

critic.2.weight f4 [64, 64]
000000 53 f5 ab bc e5 77 0a bf 5f 96 a1 bd 98 03 2f bf
       -0.020991003 -0.54089195 -0.07890009 -0.6836486
000010 4e e6 9a bd 92 b6 d9 be bd 2a 9a be 1d 4a 09 3f
       -0.075634584 -0.42522103 -0.30110732 0.5362871
000020 00 fd d4 be 49 c2 52 bf d8 26 0e 3e 1b ff c4 3e
       -0.41599274 -0.82327706 0.13882005 0.3847588
000030 0d 02 83 bf d2 40 4c bf 75 e5 0d 3f 79 19 bd 3e
       -1.0235001 -0.7978641 0.5542825 0.36933497
000040 56 28 36 bf 06 48 a4 be 3a 15 56 be 80 46 84 3e
       -0.711553 -0.320862 -0.20906535 0.25835037
000050 0b 4d ba bf 4e 7f 8b be 23 f9 e9 3b 80 34 8f 3e
       -1.4554762 -0.27245563 0.007140295 0.27969742
000060 3c 49 87 be 2a 58 57 bf 27 40 d8 be 74 11 28 bd
       -0.2642306 -0.841189 -0.42236444 -0.04103227
000070 fe d1 be 3d 32 59 80 be a8 73 09 3e 84 ef 25 bf
       0.093173966 -0.2506805 0.13423026 -0.64818597
000080 82 21 da 3d 7a 66 94 be 4f 22 a9 3e 00 c7 0d 3f
       0.10650922 -0.28984433 0.33033988 0.55381775
000090 a8 f9 7b be f2 d2 a5 be 3a af c4 3c ce 8e 71 bd
       -0.24606955 -0.323875 0.024009336 -0.05897408
0000a0 76 cf 8d bc 4e 54 5a 3e a0 b7 ac 3f c1 d8 49 be
       -0.01731084 0.21321222 1.3493538 -0.19711591
0000b0 80 71 f3 3a 54 0f ae 3c d4 f9 81 3d ad ef 35 3d
       0.0018573254 0.021247543 0.06346479 0.044418026
0000c0 5f a6 b4 bf d9 41 db bd 04 fd 1e be f8 91 80 3e
       -1.4113272 -0.10705919 -0.15526205 0.25111365
0000d0 cd cb 55 3d 05 85 38 bf 6f 9f ac bd c0 f1 3d 3f
       0.052196313 -0.7207797 -0.08428847 0.74197006
0000e0 99 8d b0 bf 6e e5 97 3e e9 49 57 3f d2 9e b0 be
       -1.3793212 0.29667228 0.8409715 -0.3449617
0000f0 17 3e c4 3f c6 17 3e 3e bd e6 f3 3f 07 10 43 3f
       1.5331448 0.18563756 1.9054791 0.7619633
000100 05 c2 53 be a6 da 2a 3f 10 4a af bf 2c e1 50 3e
       -0.20679481 0.6673988 -1.3694477 0.20398396
000110 58 08 f2 be 5c fb ac bd 4e db 67 bf 6b c2 c6 3d
       -0.4727199 -0.084463805 -0.9056901 0.09705051
000120 fd 8a f5 be 7d 1b 11 bf dc f3 9a be c6 46 a8 be
       -0.47957602 -0.5668257 -0.30264175 -0.32866496
000130 2c b1 47 bf d5 ef 08 bf 5c 28 77 be f5 74 05 bd
       -0.7800472 -0.53490955 -0.2413649 -0.032582242
000140 09 a4 a4 3e e5 11 8f bd a9 cc 0b 3e bb f9 74 3e
       0.321564 -0.06985835 0.1365229 0.2392339
000150 fb 8a 34 3f 39 65 ab be 80 b0 2a be 2e 8b 79 3e
       0.7052457 -0.33475664 -0.16668892 0.24369499
000160 3d d1 95 3f 3d 55 2d bf 69 01 4c be 63 dd 40 3e
       1.170448 -0.6770819 -0.19922413 0.18834452
000170 0d d1 b5 3f 9a 83 ff 3e 88 db 14 bf d4 a1 84 be
       1.4204422 0.49905092 -0.5814748 -0.25904715
000180 1d 96 1f bf a1 e9 e2 be 68 2a 56 bd 2e 08 06 bd
       -0.6233843 -0.4431887 -0.052286536 -0.032722645
000190 19 ce 3a bf b6 64 ea bd e7 ca 05 bf f8 d4 1d 3e
       -0.7297073 -0.1144499 -0.5226273 0.15413272
0001a0 e8 eb 9e 3f 78 92 da 3e 5b 17 27 3d 86 81 94 3d
       1.2415743 0.42689872 0.040793758 0.07251267
0001b0 ef bd df 3e 84 86 3b bf f2 bb 22 bf 2f 6b b0 3f
       0.43699595 -0.7325213 -0.6356803 1.378271
0001c0 eb bf 2f 3e 6f 8d 07 be a9 c3 86 be ae 0e 44 3f
       0.17163055 -0.13237546 -0.26321152 0.765849
0001d0 47 e6 5d bc 76 7c 67 be c4 57 b6 3e e4 53 5a be
       -0.013543672 -0.22606072 0.35613835 -0.21321064
0001e0 35 27 61 3f 6d 59 58 3e ef 21 e6 be 63 fc b7 bf
       0.8795045 0.21127863 -0.44947764 -1.4373897
0001f0 c3 9c 20 3f 5a 34 98 be c3 76 4b 3f 6e 98 06 bd
       0.627392 -0.2972744 0.7947809 -0.032860212
000200 1b c5 24 3f 45 36 0a 3f b4 40 64 bd e8 7a a5 bd
       0.6436326 0.5398906 -0.05572577 -0.08080083
000210 63 df a0 be eb 6d 32 be 41 39 86 bf 8f 66 d2 3e
       -0.3142043 -0.17424743 -1.0486223 0.4109387
000220 67 1c f7 3e e5 a2 09 3f de 8a 87 bd 8c f1 aa be
       0.48263857 0.5376418 -0.06618284 -0.3338741
000230 38 85 3c be 2f 58 34 bf 5f bb 5d bf 56 ef 23 3e
       -0.18410194 -0.7044706 -0.8661403 0.16009268
000240 ac 82 39 3e 6b dd 26 bd 11 d5 85 3e 9d ce af bd
       0.18116254 -0.040738504 0.2613912 -0.0858433
000250 19 1d 22 3e 51 e4 90 3f 4b 0f ae be d9 95 ef be
       0.15831412 1.1319677 -0.33996043 -0.46794012
000260 39 e9 e9 3d cc 8a cc be 8a 34 66 be dd d6 74 be
       0.11421437 -0.39949644 -0.2248098 -0.23910089
000270 6b 79 fe 3e 72 c2 39 be a4 66 85 3e c1 e5 55 bd
       0.4970201 -0.18140581 0.2605487 -0.052221064
000280 e6 18 21 bf f3 35 bf bf aa 5b ef be b3 01 c8 bd
       -0.62928617 -1.4938339 -0.46749622 -0.09765949
000290 7d 8b 8f 3e 5d 05 06 bf b5 5d 60 3f c2 0e 1b 3f
       0.2803611 -0.52351934 0.87642986 0.60569394
0002a0 53 0a f3 3d 37 b5 d7 be 1f f2 90 3e d0 7f fe be
       0.118672036 -0.42130443 0.28309724 -0.49706888
0002b0 7f 56 46 3f 88 55 3e bf 2d 3e 37 be e8 ef 89 3f
       0.7747573 -0.7434926 -0.17894812 1.0776339
0002c0 45 79 f9 bd 7d 55 2f 3e 21 2d 31 bf 15 a6 48 3f
       -0.121813335 0.17122455 -0.69209486 0.7837842
0002d0 1d 6f 61 3e 39 d4 08 bd 2a 56 f2 3e 91 ac 19 bf
       0.22015043 -0.033405516 0.47331363 -0.6002894
0002e0 5c 74 33 3f a9 83 e6 3e f8 fa af 3f ef ea b6 be
       0.70099425 0.45022324 1.3748465 -0.35726115
0002f0 f3 66 49 bd 7a 99 9a 3e ef 48 7d bf 9a 86 82 3f
       -0.049170446 0.30195218 -0.9893941 1.0197327
000300 6b c2 e7 be 72 ce 85 3f 51 ed 6a 3d e7 2c f5 bc
       -0.45265517 1.0453627 0.05735523 -0.029928638
000310 bc 86 2b 3f 46 bc 23 bf d9 67 43 3f 66 2a 0c be
       0.67002463 -0.6395916 0.76330334 -0.13688049
000320 94 b1 71 bf 5f c5 40 3f 8f 35 8c 3d c0 42 c5 bc
       -0.9441159 0.75301164 0.06846153 -0.02407968
000330 dd c4 6f 3e c3 00 e4 3d 8c 16 fd 3d 02 80 28 3f
       0.23414941 0.11132958 0.12357816 0.65820324
000340 be f5 c2 3e 3e 64 53 3f 74 79 ec be 64 a1 9c bc
       0.3807811 0.8257483 -0.4618641 -0.019119926
000350 76 97 d2 3f fe 1e e6 ba 18 90 87 bf c6 6f 91 be
       1.6452472 -0.0017556844 -1.0590849 -0.2840559
000360 41 ab 8b 3f 9f 8c 39 3e 23 16 df be d2 4a 49 bf
       1.0911638 0.18120049 -0.43571576 -0.7862979
000370 2b 36 23 bf cd 13 08 bf ad de 88 3e f3 a6 c7 3d
       -0.6375453 -0.53155214 0.26732388 0.0974864
000380 bf a8 95 3e 3f 77 42 be f3 d3 4f 3d 84 0b e5 be
       0.29230306 -0.18990801 0.05073924 -0.44735348
000390 ae de cf be 5b d4 88 3f 5f d1 a2 bf 08 5f a4 be
       -0.4059958 1.0689806 -1.2720145 -0.32103753
0003a0 36 43 97 3d a6 74 50 3f f1 77 c3 3d 40 0a 51 3e
       0.07385866 0.8142799 0.095443614 0.20414066
0003b0 20 1b ae 3e 32 96 aa bf 17 d8 c8 3d dd 30 84 3f
       0.3400507 -1.3327086 0.09806841 1.0327412
0003c0 47 a0 97 3f 33 07 bb 3e d2 c0 24 3f 40 e1 da 3e
       1.1845788 0.3652893 0.6435672 0.42749977
0003d0 cd 22 6e be 73 34 d3 3e b4 9e e2 bd d3 41 e4 bd
       -0.23255463 0.41250953 -0.110654265 -0.111453675
0003e0 60 72 83 3f 79 22 0d 3e 1a 43 93 bf e2 81 e9 3e
       1.026928 0.13782682 -1.1504853 0.45606905
0003f0 45 99 b4 bb bb 31 9f bf a2 1e ae be 1c 69 be bf
       -0.005511435 -1.2437052 -0.34007746 -1.4875827

critic.2.bias f4 [64]
000000 74 68 f1 3d 89 30 c1 bd 5b fa 29 be f9 f2 7b 3e
       0.11787501 -0.094330855 -0.1659941 0.24604405
000010 32 16 23 3f 23 e4 74 3e 88 41 f0 bd 07 a3 fc 3e
       0.6370574 0.23915152 -0.11731249 0.4934313
000020 14 d8 dd 3c 7e 36 8a 3d a0 4c 92 3e f7 a6 e8 3d
       0.027080573 0.06748675 0.28574085 0.11359971
000030 ae 4c 14 be 26 0f 80 3e 39 be 10 3f a8 f9 01 3e
       -0.14482376 0.25011557 0.56540257 0.12692893
000040 39 f7 d8 3e 09 ea 07 3f 4f 90 02 3f 67 a5 10 3e
       0.42376116 0.53091484 0.5100145 0.14125596
000050 eb 9e 08 3e 26 c4 50 be 37 cc 03 be 30 53 ab 3c
       0.13341872 -0.20387325 -0.1287087 0.02091369
000060 3b b6 22 3f 06 f5 76 be 66 50 ba 3d 7a e4 93 3e
       0.6355931 -0.24116907 0.09097366 0.2888525
000070 72 64 92 bd b5 c3 2b be dd 93 a0 be 84 ed a1 bc
       -0.07148065 -0.16773875 -0.3136281 -0.019766577
000080 81 eb f6 3e 63 8f 7e be 60 c9 95 be a0 09 51 3d
       0.4822655 -0.24859385 -0.292552 0.05103457
000090 fe 21 ba 3e 70 96 83 3e 7c 90 e7 be 66 f2 7a 3d
       0.3635406 0.25700712 -0.4522742 0.061266325
0000a0 4b 2a d9 3e 60 5b b9 3d a2 12 7a bd 94 cc 77 3e
       0.4241508 0.090506315 -0.061052926 0.24199134
0000b0 79 b0 27 3f fb e9 30 bd 2f 0a a0 3e fd 6d ee 3e
       0.6550365 -0.04319189 0.3125777 0.4656829
0000c0 2c df 2f 3e 68 1c 1f 3d b0 34 9c 3e bf 00 05 3f
       0.17174977 0.03884545 0.30508947 0.51954263
0000d0 b6 10 8a 3e fe 41 0e be 75 ab 6e be 9a 9a 73 3d
       0.26965874 -0.13892362 -0.23307593 0.05947361
0000e0 c4 dd 4d bd 3f 76 19 3f b1 c2 b3 3e c5 20 55 bf
       -0.05026032 0.59946054 0.35109475 -0.8325313
0000f0 38 92 74 bd f4 3f d6 3d 1e 85 e6 bd fa 07 c1 3d
       -0.059709758 0.10461417 -0.11255859 0.094253495

critic.4.weight f4 [1, 64]
000000 cb 42 9c be f9 52 8d be 98 fa ce 3e f6 73 48 be
       -0.3051971 -0.27602366 0.40425563 -0.19575486
000010 17 ab b8 3d 3c 9c 39 be c8 85 87 3e e7 bb 17 bf
       0.09017008 -0.18126005 0.26469254 -0.5927109
000020 cf 8f f7 be 26 47 b1 3e c3 1d cb 3e 0b 75 53 be
       -0.48351905 0.34624594 0.39671144 -0.20650117
000030 aa bf 1e bf 18 8f 8a 3e da 16 fe be f7 da 6b be
       -0.62011206 0.27062297 -0.4962681 -0.23032747
000040 3f 67 b3 be e0 8c 71 bf 03 22 8c 3e ce 02 28 bf
       -0.35039708 -0.94355583 0.273697 -0.6562928
000050 3a bf 48 3e ea 09 3a bf c8 67 eb 3d fc a6 cb 3d
       0.19604197 -0.7267138 0.11494404 0.09943959
000060 71 83 cf be 80 de 0a 3f 7b 61 a2 3e c5 1c 13 be
       -0.4052997 0.5424576 0.31714997 -0.14366443
000070 73 65 bf 3e 83 b7 12 be b9 cf dc 3e 64 3e c6 3d
       0.37382087 -0.14327817 0.4312723 0.09679869
000080 1f 45 6b 3c 11 89 bc 3e 02 33 cc 3e 9d 72 9d 3e
       0.0143597415 0.36823323 0.39882666 0.30751505
000090 82 ba 14 be 04 73 9e 3e 00 20 bb be 59 14 9b be
       -0.14524272 0.30947125 -0.36547852 -0.30288962
0000a0 15 dd c4 be d4 d4 85 be 04 4a bf 3e d7 18 0a 3e
       -0.38449922 -0.26138937 0.37361157 0.13486038
0000b0 02 3d 57 be d1 73 a6 be cd 31 ab 3d 00 df a2 3e
       -0.21019366 -0.32510236 0.08359108 0.3181076
0000c0 78 7b 80 3d 89 f9 f8 3c 4d c3 a2 be 3c df 00 bf
       0.0627355 0.030392425 -0.31789628 -0.5034063
0000d0 17 e6 bc 3e 57 e0 8f be 78 8d 22 be cd 4f 9d be
       0.36894295 -0.28100845 -0.15874279 -0.30724946
0000e0 e1 8f 9e 3e 10 b6 67 3e e0 ed 11 be ec 45 0c bf
       0.30969146 0.22628045 -0.14250898 -0.5479419
0000f0 37 70 31 be 5f c6 87 3e 96 24 7a be de ad 0f 3e
       -0.17327963 0.26518533 -0.24428019 0.14031169
