PPO_preTrained/BipedalWalker-v2/PPO_BipedalWalker-v2_0_0.pth (torch, 51675 bytes, 11 tensors)

actor.0.weight f4 [64, 24]
0	0x3dd9ca2c	0.10634264
1	0xbe8e07f8	-0.27740455
2	0xbd5c5003	-0.053787243
3	0x3e8c4d73	0.2740284
4	0x3ee31dd7	0.44358703
5	0x3d8a8dd5	0.067653336
6	0x3eab9efa	0.33519727
7	0x3ea706aa	0.32622272
8	0xbe261bab	-0.16221492
9	0xbe2454df	-0.16048001
10	0x3ebe22de	0.37135977
11	0xbd4019a1	-0.04689944
12	0x3cb47cd0	0.022032171
13	0x3e48399b	0.19553225
14	0xbd53c5bd	-0.05170225
15	0xbdf71d01	-0.12066079
16	0x3a95b765	0.0011422454
17	0xbd02337f	-0.03178739
18	0xbcfd0554	-0.03088633
19	0xbe2dc6e7	-0.16970406
20	0x3e057bbf	0.13035487
21	0xbdd5496f	-0.10414397
22	0x3e8a465c	0.27006805
23	0xbd4206b1	-0.047369663
24	0xbea2ba8c	-0.3178295
25	0xbe6511f7	-0.22370134
26	0xbef5edfe	-0.48033136
27	0x3f07e07b	0.53076905
28	0xbe65ab39	-0.22428598
29	0x3e042747	0.12905608
30	0xbe3a7dc9	-0.18212046
31	0x3e547a59	0.20749797
32	0x3dbaa24a	0.091129854
33	0x3d5f010d	0.05444436
34	0x3ea165c9	0.31522968
35	0x3dcc172f	0.099653594
36	0x3e45e5c3	0.19325928
37	0x3d040812	0.03223426
38	0xbe621d48	-0.22081482
39	0xbe710d32	-0.2354019
40	0xbdc45380	-0.09586239
41	0x3c4f29cc	0.0126442425
42	0xbe0276f0	-0.12740684
43	0xbca60923	-0.020268029
44	0xbe7eac6e	-0.24870464
45	0x3db0f75c	0.0864093
46	0xbdb2474c	-0.08705005
47	0x3e17ac4d	0.14811821
48	0x3e2473fd	0.16059871
49	0xbea79650	-0.32731867
50	0xbd1ddd5f	-0.038541194
51	0x3e30a5a0	0.17250681
52	0x3ddfbab3	0.10924282
53	0xbc1f31f3	-0.009716499
54	0xbeb5708e	-0.35437435
55	0x3dab9bfc	0.08379361
56	0x3df2bc1b	0.118522845
57	0x3e31f21a	0.1737751
58	0x3e3a36b1	0.18184926
59	0x3e9ca8b9	0.30597475
60	0xbb0629e6	-0.002047175
61	0xbe25ef35	-0.16204531
62	0x3e29b19f	0.16571663
63	0xbe183b89	-0.14866461
64	0x3e3c955b	0.1841635
65	0xbe1a038b	-0.15040414
66	0x3b19a3e9	0.0023443645
67	0x3cef0ac6	0.029179942
68	0xbe2f79b3	-0.17136268
69	0xbdb3a998	-0.08772582
70	0x3d4ac0d6	0.04950031
71	0x3e1929b2	0.14957312
72	0x3e406890	0.18789887
73	0x3ee0b843	0.4389058
74	0x3e6bfe25	0.23046167
75	0xbf12e0f6	-0.57374513
76	0xbe7b0bf0	-0.24516273
77	0xbf47fbe7	-0.7811875
78	0x3ef5e798	0.48028255
79	0x3f520651	0.8204089
80	0x3e8ecd05	0.27890792
81	0xbe995c3a	-0.29953176
82	0x3dd5e375	0.104437746
83	0xbe0b6eac	-0.13616437
84	0xbe23cf6e	-0.15997097
85	0xbe8bfe66	-0.27342528
86	0xbe6ff111	-0.23431803
87	0x3db96f5a	0.09054442
88	0xbe3bd804	-0.18344122
89	0xbe4a67f9	-0.19766225
90	0x3d485767	0.04891148
91	0xbe356f0e	-0.17718145
92	0xbe12c7dd	-0.14334054
93	0xbe262942	-0.16226676
94	0xbe960554	-0.2930094
95	0xbe02ab4e	-0.1276066
96	0x3e2cd556	0.16878256
97	0xbecdd30c	-0.40200078
98	0x3ebf63c6	0.3738081
99	0xbe8140a8	-0.2524464
100	0xbeee0dc2	-0.4649487
101	0x3ded9c6a	0.11602099
102	0x3ea5eeed	0.32408848
103	0x3e0d71b8	0.13812912
104	0xbf1d54c0	-0.61457443
105	0xbe4ef02a	-0.20208803
106	0x3ec0a89c	0.3762864
107	0xbca27a1c	-0.019833617
108	0xbebaea45	-0.36506858
109	0x3cc4121d	0.023934418
110	0x3ddfea05	0.109333076
111	0xbe75852a	-0.2397658
112	0x3de75457	0.112953834
113	0xbe1957ed	-0.14974947
114	0x3dbf3d2a	0.09337838
115	0x3d85a489	0.06525523
116	0x3de97c3f	0.11400651
117	0xbd0f160f	-0.034933146
118	0xbe3c723d	-0.18402953
119	0xbe41283a	-0.18863001
120	0xbee350c9	-0.44397572
121	0xbf1ddeec	-0.61668277
122	0x3e4f6b15	0.20255692
123	0x3dac4cd9	0.08413095
124	0x3e8ad40e	0.2711491
125	0xbe2039be	-0.15647027
126	0x3e65f366	0.2245613
127	0x3d2bb6aa	0.04192225
128	0xbde0e81a	-0.1098177
129	0x3d24abc7	0.040202882
130	0xbf073009	-0.5280767
131	0xbdd18e1d	-0.10232184
132	0x3cc3ae5c	0.023886852
133	0x3de2b4df	0.11069655
134	0x3cdeac91	0.027181895
135	0xbe0c64eb	-0.13710372
136	0xbc147019	-0.009059929
137	0x3c159dd8	0.009131871
138	0xbe4fc32b	-0.20289294
139	0xbd1b07ed	-0.037849355
140	0xbe12bd57	-0.1433004
141	0x3d42e3d7	0.047580566
142	0x3e0a14fd	0.13484569
143	0xbc7cf1f7	-0.015438548
144	0x3e57c2a1	0.21070339
145	0x3ed5b85b	0.41742215
146	0x3e0281b0	0.12744784
147	0xbe848f3a	-0.25890523
148	0x3c1baa02	0.009500982
149	0xbdc49b42	-0.095999256
150	0x3ebf3bd4	0.37350333
151	0xbda17bbb	-0.07884928
152	0xbcd827d3	-0.026386177
153	0xbe4d1088	-0.20025837
154	0x3d3cc853	0.04608948
155	0x3e5b6305	0.21424492
156	0x3d7df0b1	0.06199712
157	0x3e78e032	0.24304274
158	0xbc60426d	-0.013687712
159	0x3e591baf	0.21201967
160	0x3e7899ca	0.24277416
161	0x3e7a0f25	0.2441984
162	0x3d4fa010	0.050689757
163	0x3e091cf3	0.1338995
164	0xbcf9f19f	-0.030510722
165	0x3cc11ff1	0.023574801
166	0xbd2e345d	-0.042530406
167	0xbdba2c3b	-0.090904675
168	0x3d59f2c4	0.053210035
169	0x3e56f55f	0.20992039
170	0xbe264e5a	-0.16240826
171	0x3f477cfd	0.7792509
172	0xbec15b0e	-0.37764782
173	0x3d22a876	0.039711438
174	0x3d881e8d	0.06646452
175	0xbcfae2ad	-0.030625666
176	0xbecad627	-0.3961651
177	0x3e419501	0.18904497
178	0x3dabea93	0.08394351
179	0x3f2385b7	0.6387591
180	0xbd8a09e1	-0.067401655
181	0xbdc2e3b9	-0.09516091
182	0x3e19936c	0.14997643
183	0xbe5a41a4	-0.21314102
184	0x3da45e8f	0.08025848
185	0x3bf81a4a	0.0075714933
186	0x3d8770fd	0.06613348
187	0x3dd67931	0.10472334
188	0x3da6e767	0.08149605
189	0x3e88a85b	0.26690945
190	0xbdbb9326	-0.09158926
191	0xbb9a9a3a	-0.0047180923
192	0xbd851111	-0.06497396
193	0xbf264f47	-0.6496472
194	0x3ef2b2d4	0.4740206
195	0xbe9043d5	-0.28176752
196	0xbec43101	-0.38318637
197	0xbc566d28	-0.013087548
198	0x3ee14f65	0.44005886
199	0x3e29f99f	0.16599129
200	0x3e0e062d	0.13869543
201	0x3d82155c	0.0635173
202	0xbdcbe244	-0.09955266
203	0xbe705ba3	-0.23472457
204	0xbbada929	-0.0052997065
205	0x3c9d074e	0.019168522
206	0x3cde1626	0.02711017
207	0x3e2a7276	0.16645226
208	0x3db12ef9	0.086515374
209	0xbd253fc8	-0.04034403
210	0xbd8213fd	-0.06351469
211	0xbdea2b0d	-0.114339925
212	0x3ded672d	0.11591945
213	0xbdbd312f	-0.09237897
214	0xbe080f4d	-0.13287087
215	0x3e629fec	0.22131318
216	0x3c6fc7a7	0.014635003
217	0x3e647084	0.22308546
218	0x3ee4f4b8	0.44717956
219	0xbf08949f	-0.5335178
220	0x3e95a289	0.29225567
221	0x3d1723a8	0.03689924
222	0x3c5011e9	0.012699583
223	0x3d7ae189	0.061250243
224	0x3e968d8d	0.2940487
225	0x3a8c6679	0.0010711692
226	0xbe5378d7	-0.20651565
227	0x3dbde7f4	0.09272757
228	0x3bf9b00c	0.0076198634
229	0x3e57fd2a	0.21092668
230	0xbdb31a68	-0.08745271
231	0xbe0295b5	-0.12752421
232	0x3e4a1156	0.19733176
233	0x3cf090f4	0.029365994
234	0x3e3b9fdc	0.183227
235	0xbcf43d86	-0.029814493
236	0x3e31489c	0.17312855
237	0x3cad006a	0.021118362
238	0x3e3abbbb	0.18235676
239	0xbe0e5627	-0.13900052
240	0xbd819e4a	-0.06329019
241	0x3ef5174e	0.47869343
242	0x3da2763c	0.07932708
243	0xbeb6ef65	-0.3572952
244	0x3ca26e8f	0.01982811
245	0x3ec05d6d	0.37571278
246	0x3eac5685	0.3365976
247	0xbf09703e	-0.53686893
248	0x3db0fcff	0.08642005
249	0xbe5b3d8f	-0.21410201
250	0x3c7def68	0.015498973
251	0x3e6229a9	0.22086205
252	0xbe920419	-0.2851875
253	0x3c93735a	0.01799934
254	0x3dc5fca5	0.09667329
255	0xbd3dc4a2	-0.0463301

actor.0.bias f4 [64]
0	0x3e68ae79	0.22722806
1	0xbd985605	-0.07438282
2	0xbd9d48b4	-0.07679883
3	0xbe38f2ca	-0.18061367
4	0x3c229135	0.009922315
5	0x3dcc5f5a	0.09979124
6	0xbe4f1718	-0.20223653
7	0x3e008e78	0.12554348
8	0x3dbd6446	0.09247641
9	0xbe547e82	-0.20751384
10	0xbde81c75	-0.11333553
11	0xbe524849	-0.20535387
12	0xbde37911	-0.11107076
13	0xbdf62d4e	-0.1202036
14	0xbd3ddf25	-0.046355385
15	0xbe151e89	-0.1456243
16	0xbe123667	-0.14278565
17	0xbdfef12e	-0.12448345
18	0xbda077ad	-0.07835326
19	0xbe3e69ce	-0.18595049
20	0x3d8ad45f	0.06778788
21	0x3e514472	0.20436266
22	0xbe1d5396	-0.15363917
23	0xbe623c9c	-0.22093433
24	0xbe3b28de	-0.18277308
25	0xbe3bd9a1	-0.18344738
26	0x3e106eba	0.14104739
27	0xbd58b35e	-0.052905433
28	0xbe94cd63	-0.29062948
29	0xbe1314a2	-0.1436334
30	0xbc9b9f55	-0.018996874
31	0x3ddaeab7	0.106892996
32	0xbe720dd5	-0.23638089
33	0xbd72a18d	-0.059236098
34	0xbd8a1c03	-0.06743624
35	0x3e2e17a1	0.17001201
36	0xbe33f5cd	-0.17574234
37	0xbd9c738b	-0.076392256
38	0xbe8409be	-0.25788683
39	0x3e135885	0.14389236
40	0x3e3bae56	0.18328223
41	0xbe39483f	-0.18093966
42	0x3dc26e41	0.094936855
43	0xbdb3d530	-0.08780897
44	0xbe6bbb31	-0.23020627
45	0xbd94d973	-0.07268038
46	0x3e06b755	0.13155873
47	0xbe5c727a	-0.21528044
48	0x3e914b43	0.28377733
49	0xbcdc86b1	-0.026919695
50	0x3e683818	0.22677648
51	0xbd3035fc	-0.043020234
52	0xbd87ac92	-0.06624712
53	0xbe105ff3	-0.14099102
54	0x3d0212fe	0.031756394
55	0xbd0b4a0a	-0.034006156
56	0x3e2ea08c	0.17053431
57	0xbdbeb413	-0.0931169
58	0xbdcec5fd	-0.10096357
59	0x3e070fcb	0.13189618
60	0x3c8a0933	0.01685009
61	0xbe011cc6	-0.12608632
62	0x3e59f4b4	0.21284753
63	0xbbd5f8fe	-0.0065299263

actor.2.weight f4 [64, 64]
0	0x3ce43299	0.027856158
1	0x3c873ad6	0.016507547
2	0xbde3f32e	-0.11130367
3	0x3e2eb5a8	0.17061484
4	0xbde34a6e	-0.11098181
5	0xbe6c2527	-0.23061047
6	0x3e668568	0.22511828
7	0x3e3fd4df	0.18733548
8	0x3c98e9db	0.018666198
9	0x3e704c01	0.23466493
10	0xbcd0f6df	-0.025508342
11	0xbdd9dd29	-0.10637886
12	0xbce1848b	-0.027529022
13	0x3e18ed76	0.14934334
14	0xbdc4a5e0	-0.09601951
15	0x3d2b15c9	0.041768823
16	0x3d419c15	0.047267992
17	0x3de1480e	0.110000715
18	0x3c95938c	0.018258832
19	0x3d3c2455	0.045933086
20	0x3e72e24a	0.23719135
21	0xbb019204	-0.001977087
22	0x3d8aa339	0.067694135
23	0x3da34b99	0.079734035
24	0x3e916db4	0.2840401
25	0x3e00b8aa	0.12570444
26	0x3d118ad4	0.035532787
27	0x3e4d3a19	0.20041694
28	0x3e6d3b36	0.23167118
29	0xbd711f03	-0.058867466
30	0x3d90b93e	0.07066582
31	0xbd23a6b0	-0.039953887
32	0x3e0de633	0.13857345
33	0xbdb43a75	-0.08800212
34	0x3d816aa0	0.06319165
35	0x3e04f144	0.1298266
36	0x3e006cb7	0.12541471
37	0x3d472402	0.048618324
38	0x3e088d72	0.13335207
39	0xbc06810d	-0.008209479
40	0xbcc5ea33	-0.024159526
41	0xbdbd6fab	-0.092498146
42	0xbc8f6a3b	-0.01750671
43	0x3dfa13f1	0.12210835
44	0xbd87605a	-0.066101745
45	0xbd794f60	-0.060866714
46	0xbc4da1da	-0.012550795
47	0x3eac0857	0.33600113
48	0xbd33523f	-0.043779608
49	0x3e74eda1	0.23918773
50	0xbcf8f9b1	-0.0303925
51	0xbd095db6	-0.033536635
52	0x3d2ac133	0.041688155
53	0x3e355dc2	0.17711547
54	0xbe2f9391	-0.17146136
55	0xbce0e33b	-0.027452102
56	0xbe11d2d7	-0.14240585
57	0xbe4b935a	-0.19880429
58	0x3d7a0ccc	0.06104736
59	0xbdac40bc	-0.084107846
60	0xbc32109b	-0.010868217
61	0x3ce8390d	0.028347516
62	0xbb8a23e4	-0.0042157043
63	0xbdd39f7b	-0.10333153
64	0xbd489f6b	-0.048980158
65	0xbccbb2e9	-0.024865584
66	0xbecc536c	-0.39907396
67	0x3e72e7d0	0.23721242
68	0x3d905cbf	0.0704894
69	0xbe211999	-0.15732421
70	0x3e8ee4f1	0.27909043
71	0xbd9cefc2	-0.07662918
72	0xbf12368d	-0.5711449
73	0x3dc10484	0.094246894
74	0x3ddfbd22	0.10924746
75	0x3dfbc272	0.12292947
76	0xbdfd92b7	-0.12381499
77	0x3eabd89b	0.33563694
78	0x3c726093	0.014793533
79	0x3de99c6a	0.11406787
80	0xbeadbec4	-0.33934605
81	0x3efd9ecd	0.49535218
82	0xbd8cb884	-0.06871131
83	0xbc0e788c	-0.008695733
84	0xbd57433b	-0.05255435
85	0xbee91f68	-0.45531774
86	0xbe9b2b62	-0.30306536
87	0x3e48fcdf	0.19627713
88	0x3e0eb14b	0.1393482
89	0x3e2d177c	0.1690349
90	0xbe953463	-0.2914153
91	0x3db5aacb	0.08870467
92	0x3f0e7a43	0.55655307
93	0xbe0d06e8	-0.13772166
94	0xbc988059	-0.018615888
95	0x3b43b60f	0.0029863154
96	0x3ec97d90	0.3935361
97	0xbcbc8633	-0.02301321
98	0x3d6726bf	0.056433436
99	0x3ddc99a9	0.10771496
100	0x3e203b04	0.15647513
101	0x3eb060fd	0.34448996
102	0xbdd5eb11	-0.10445226
103	0x3d8450ca	0.06460722
104	0xbdf086cf	-0.11744463
105	0xbc222cbc	-0.009898361
106	0xbe20d430	-0.15705943
107	0xbe259c5c	-0.16172928
108	0x3e53ba09	0.20676436
109	0xbe198388	-0.14991581
110	0x3ef033a9	0.46914414
111	0x3ed9eca6	0.4256336
112	0xbe5e24d2	-0.21693733
113	0x3d945548	0.072428286
114	0xbe64cb85	-0.22343262
115	0xbd967bf8	-0.07347864
116	0xbd398f21	-0.045302514
117	0xbc64647f	-0.013939976
118	0xbd5802e4	-0.05273713
119	0xbde555b6	-0.11197989
120	0xbe4fd792	-0.20297077
121	0x3ba89777	0.005145009
122	0x3e5cdcfa	0.21568671
123	0xbe32d6a9	-0.17464699
124	0xbe7c0f0c	-0.24615115
125	0xbd9f1782	-0.07768156
126	0xbe41398f	-0.18869613
127	0xbd18ea90	-0.03733307
128	0xbda609d3	-0.081073426
129	0xbe812987	-0.25226995
130	0xbccb1fe9	-0.02479549
131	0x3e792625	0.24330957
132	0xbdd77bd7	-0.105216675
133	0xbdeaba03	-0.1146126
134	0x3ed20264	0.4101745
135	0x3bb49471	0.0055108597
136	0xbe446c8f	-0.19182037
137	0x3e8439ee	0.25825447
138	0x3a50f30c	0.0007970787
139	0xbe196602	-0.14980319
140	0xb9365b92	-0.00017390985
141	0x3e486cb6	0.1957272
142	0xbd54d4f0	-0.051960886
143	0x3e0b110a	0.13580719
144	0x3e3e88be	0.1860685
145	0x3e8bc36d	0.27297536
146	0xbe306eec	-0.17229813
147	0x3e64815c	0.22314972
148	0x3e7d2bd2	0.24723747
149	0x3b92f8b0	0.0044852123
150	0x3e0b375b	0.13595335
151	0x3e86e7d9	0.2634876
152	0x3e47b38e	0.19502088
153	0x3e77e744	0.24209315
154	0xbe223c35	-0.1584328
155	0x3eb908f6	0.3613965
156	0x3e9c12a1	0.30482963
157	0x3be92417	0.007114898
158	0xbdfc970a	-0.12333496
159	0x3dd79799	0.10526962
160	0x3de244b7	0.110482626
161	0x3d78bf3c	0.06072925
162	0x3de7aa6c	0.11311802
163	0x3c023bea	0.007948855
164	0x3e5a507b	0.21319763
165	0x3e1772d2	0.14789894
166	0x3bb882e0	0.005630836
167	0xbda1a9ed	-0.07893739
168	0xbe0b7716	-0.13619646
169	0x3d3677e3	0.044547927
170	0x3ddf3788	0.108992636
171	0x3e43d97c	0.19125932
172	0xbdeb96cd	-0.11503372
173	0xbdb6855d	-0.08912156
174	0x3d559e4d	0.05215292
175	0xbda9463c	-0.08265349
176	0x3c2f2b35	0.010691454
177	0x3e139003	0.14410405
178	0xbe93fea8	-0.28905225
179	0x3dc8c672	0.098034754
180	0xbdb8f27a	-0.09030624
181	0x3ea9b6e1	0.33147338
182	0xbe99dd49	-0.3005164
183	0xbdf6c684	-0.120495826
184	0xbe387bf0	-0.18016028
185	0xbdc7200f	-0.097229116
186	0x3db559ef	0.08855044
187	0xbe128711	-0.14309336
188	0x3da5d5d8	0.08097428
189	0x3e000531	0.1250198
190	0x3ce637c0	0.028102756
191	0x3d971e07	0.07378774
192	0xbe6a5371	-0.22883393
193	0xbe17222f	-0.14759134
194	0x3d71cee4	0.059035197
195	0x3e98ec6e	0.29867882
196	0xbe63990c	-0.22226351
197	0x3e9e7602	0.30949408
198	0x3e3bc887	0.18338214
199	0xbb298419	-0.002586609
200	0x3ddeb6ce	0.10874711
201	0x3e627a15	0.22116883
202	0x3e2dbbd2	0.16966179
203	0xba113353	-0.0005538959
204	0x3f068322	0.5254384
205	0x3bde1336	0.0067771925
206	0xbd4cf22f	-0.05003565
207	0x3dd8fb3a	0.10594793
208	0x3e57fec3	0.21093278
209	0x3c137643	0.009000364
210	0xbe18629c	-0.14881366
211	0x3e13a60a	0.14418808
212	0xbb71dbd4	-0.003690471
213	0xbe385260	-0.18000174
214	0xbea0b370	-0.313869
215	0x3e4a0068	0.19726717
216	0x3e7901d6	0.24317107
217	0x3d1c32b9	0.03813431
218	0xbe24928b	-0.16071527
219	0x3eba1154	0.36341345
220	0xbc9e1e7e	-0.01930165
221	0xbd05d451	-0.032673184
222	0x3e628a84	0.22123152
223	0x3d1c79ec	0.03820221
224	0xbb478a99	-0.00304476
225	0x3df429c6	0.1192203
226	0x3e3e30c4	0.1857329
227	0xbda0246f	-0.07819449
228	0x3d3ed217	0.046587076
229	0xbe0941cd	-0.13404007
230	0x3da4cc73	0.08046808
231	0xbe742eb3	-0.2384594
232	0xbe4323b4	-0.19056588
233	0x3eb673da	0.35635263
234	0xbe3cded7	-0.18444382
235	0x3c352fc8	0.011058755
236	0x3cd1adaa	0.025595505
237	0x3de10279	0.109868
238	0x3bb46d53	0.0055061965
239	0x3e135003	0.14385991
240	0xbdaf4e07	-0.085598044
241	0x3ce0a972	0.027424548
242	0x3c884f6c	0.016639434
243	0xbda618a1	-0.08110166
244	0x3d93379f	0.07188343
245	0x3d7374a4	0.05943741
246	0xbd803cd5	-0.06261603
247	0xbca56d6b	-0.020193776
248	0xbde04422	-0.10950495
249	0xbe3abb41	-0.18235494
250	0x3ea88cd4	0.32919943
251	0x3d5e3f3b	0.05425952
252	0x3e1a0e99	0.15044631
253	0x3cfa55bf	0.030558465
254	0x3c6ac2f9	0.014328712
255	0xbd99ebe0	-0.07515693

actor.2.bias f4 [64]
0	0xbdb01f21	-0.08599687
1	0xbdee1127	-0.11624365
2	0x3d4a8a8f	0.049448546
3	0xbe092028	-0.13391173
4	0xbc7427e5	-0.01490209
5	0x3e0ba03e	0.13635346
6	0x3dbaadaa	0.09115155
7	0x3e13a886	0.14419755
8	0xbdbba634	-0.0916256
9	0xbda2c997	-0.079486065
10	0xbcad551b	-0.021158746
11	0x3d1a8d35	0.03773232
12	0x3d849fa5	0.06475762
13	0xbe2daccd	-0.1696045
14	0x3e138b79	0.14408673
15	0xbbf91ebe	-0.0076025417
16	0x3c39f369	0.011349537
17	0x3d704ba8	0.0586659
18	0x3c3689d4	0.011141259
19	0x3dd1ca66	0.102436826
20	0x3c84d6eb	0.016215762
21	0xbcc58a31	-0.024113746
22	0x3dabb6fb	0.0838451
23	0x3d8d1561	0.06888843
24	0x3cd0b1eb	0.025475463
25	0x3de30011	0.11083997
26	0x3dfc81f8	0.12329477
27	0xbd6bf5f5	-0.05760761
28	0xbe0b559a	-0.13606873
29	0xbe221a29	-0.15830292
30	0xbcf51722	-0.029918257
31	0xbd1a9e38	-0.037748545
32	0x3e730ade	0.23734614
33	0x3e286a75	0.1644686
34	0x3c9cb499	0.019129084
35	0x3c95cc42	0.018285874
36	0xbb0985cb	-0.0020984288
37	0xbe6ed296	-0.2332252
38	0x3b4db695	0.0031389345
39	0xbda871e1	-0.08224846
40	0xbcdf410c	-0.027252696
41	0x3da3efdf	0.08004736
42	0x3e08e2f9	0.13367833
43	0xbe7b49ff	-0.24539946
44	0xbdb3443b	-0.08753248
45	0xbded9f06	-0.11602597
46	0xbce1fa57	-0.027585192
47	0x3cfa0f5f	0.030524908
48	0xbe28fdcb	-0.16503064
49	0x3ca418b2	0.020031307
50	0xbd0e3f9d	-0.034728635
51	0xbdb4d15e	-0.08828996
52	0xbdb0a387	-0.0862494
53	0x3d9a2e13	0.07528319
54	0x3dcc88c4	0.099870235
55	0xbe0d9b2c	-0.13828725
56	0xbd6a5069	-0.05720559
57	0xbdb6f451	-0.089333184
58	0xbda42e71	-0.080166705
59	0xbd0317be	-0.032005064
60	0xbe2cbd36	-0.16869053
61	0xbe4e5708	-0.20150387
62	0xbc689141	-0.0141947875
63	0x3de0fd95	0.10985867

actor.4.weight f4 [4, 64]
0	0xbdc0ec6b	-0.09420093
1	0xbe97fbaf	-0.29684207
2	0xbe6f1906	-0.2334939
3	0xbd5e7320	-0.05430901
4	0x3d53b688	0.051687747
5	0x3cfa50af	0.030556051
6	0x3d81c059	0.063355155
7	0x3e88e27a	0.26735288
8	0xbd882e22	-0.06649424
9	0xbd29408d	-0.041321326
10	0x3d7717a2	0.060325272
11	0x3e30e098	0.17273176
12	0xbdfaa8dd	-0.12239239
13	0x3ed94c72	0.42441136
14	0x3dcdd787	0.10050874
15	0xbdad8047	-0.084717326
16	0xbd4f12f3	-0.05055518
17	0xbeb06950	-0.34455347
18	0x3e77736e	0.24165127
19	0x3db2d294	0.08731571
20	0xbc077875	-0.008268465
21	0xbe78d1c1	-0.24298765
22	0xbd94112a	-0.07229836
23	0xbe6d54ad	-0.23176832
24	0x3e9800ef	0.29688212
25	0xbcf88590	-0.030337125
26	0x3e9c9431	0.3058181
27	0xbe61d86c	-0.22055215
28	0x3e73f305	0.23823173
29	0xbd9d2419	-0.07672901
30	0xbe68a3c9	-0.22718729
31	0x3e3a3b88	0.18186772
32	0x3e8ce017	0.27514717
33	0xbdb33bda	-0.0875165
34	0x3f24511c	0.64186263
35	0xbe126433	-0.14296035
36	0x3d838479	0.064217515
37	0xbe657906	-0.22409448
38	0x3e948fb7	0.29015896
39	0x3e8d5003	0.27600107
40	0x3e60e8c5	0.21963795
41	0x3d19c5e7	0.03754225
42	0xbd51533d	-0.051104773
43	0x3d180d67	0.037122156
44	0x3e18aec5	0.1491042
45	0xbdb392ff	-0.08768272
46	0xbeb5628c	-0.35426748
47	0xbe25f077	-0.16205011
48	0xbc65ac92	-0.014018195
49	0xbe9c729f	-0.305562
50	0x3e91f960	0.2851057
51	0x3e95a216	0.29225224
52	0xbdfde947	-0.1239801
53	0x3eba7394	0.36416304
54	0xbd41ae81	-0.04728556
55	0x3e0fa59d	0.1402802
56	0xbdd4b97c	-0.10386941
57	0x3cda4803	0.026645666
58	0xbe673dfd	-0.2258224
59	0x3d65f9a6	0.056146286
60	0x3db858df	0.09001326
61	0xbed01ce9	-0.40647057
62	0xbd156242	-0.03647066
63	0x3e3cf64b	0.18453328
64	0xbe7e6910	-0.24844766
65	0xbe7c441f	-0.24635361
66	0xbf297914	-0.66200376
67	0xbe88bbb3	-0.26705703
68	0x3f391d9f	0.72310823
69	0x3f12e213	0.5737621
70	0x3f0d0c06	0.5509647
71	0x3e513d5c	0.20433563
72	0x3e48ef6a	0.19622579
73	0x3d72822d	0.059206177
74	0xbea92cd1	-0.33042005
75	0x3eddc7b1	0.43316415
76	0x3e74a58d	0.23891278
77	0xbf06d40f	-0.52667326
78	0x3e96b426	0.29434317
79	0xbe7ec5c0	-0.24880123
80	0x3f10865a	0.56455004
81	0x3e9ec3c9	0.31008747
82	0xbeb4ffd8	-0.35351443
83	0x3e696925	0.22794016
84	0x3f27a72f	0.65489477
85	0xbe562b36	-0.20914921
86	0xbda1f417	-0.079078846
87	0xbe5c6e0c	-0.21526355
88	0x3e9c04d8	0.30472445
89	0x3e50a924	0.20377022
90	0x3eea615e	0.4577741
91	0xbd28b0f2	-0.041184373
92	0xbebfe1f3	-0.37477073
93	0xbe6a6a14	-0.22892028
94	0xbe35b8f0	-0.1774633
95	0x3d703654	0.05864556
96	0xbd02e4d0	-0.031956494
97	0xbe453c34	-0.19261247
98	0xbe4ab860	-0.19796896
99	0xbf23609e	-0.638193
100	0xbeeeff94	-0.46679366
101	0xbd740823	-0.059578072
102	0xbf0c8405	-0.54888946
103	0xbf066966	-0.52504575
104	0xbdf14781	-0.117812164
105	0xbe3b2a0d	-0.1827776
106	0xbf02931f	-0.5100574
107	0xbe812399	-0.2522247
108	0x3d9e7960	0.07737994
109	0xbf53e87d	-0.82776624
110	0x3ca706cb	0.020388981
111	0x3e52fbe2	0.20603898
112	0x3e31b932	0.17355803
113	0x3e4770ae	0.19476578
114	0x3ec43385	0.38320556
115	0x3ce791b1	0.028267713
116	0xbe9ff88d	-0.31244317
117	0xbf2e1b79	-0.6801067
118	0x3c7008c7	0.01465053
119	0x3d6ce594	0.05783613
120	0x3f65ba12	0.89737046
121	0xbd0d9b61	-0.03457201
122	0xbf29d6f6	-0.6634363
123	0x3ec12ac4	0.3772794
124	0x3e11b996	0.14230952
125	0xbe646bde	-0.22306773
126	0xbdebb16d	-0.11508451
127	0xbf0851b2	-0.5324966
128	0xbe124a73	-0.14286213
129	0xbe0fdde4	-0.14049488
130	0x3d2996c5	0.04140355
131	0xbe6bf373	-0.23042087
132	0xbe034541	-0.12819387
133	0x3e5e9727	0.21737348
134	0xbcec3799	-0.028835105
135	0xbd5b31ec	-0.053514406
136	0xbe956a56	-0.2918269
137	0xbb010363	-0.0019685857
138	0x3b1f5b97	0.0024316066
139	0xbec431e3	-0.3831931
140	0x3e0ab200	0.13544464
141	0xbe7a3328	-0.24433577
142	0x3e2d7d99	0.16942443
143	0x3eb39b1e	0.35079283
144	0x3e002d4f	0.12517284
145	0x3cceec15	0.025259057
146	0xbc877600	-0.016535759
147	0xbdbf4dee	-0.09341036
148	0xbe43f2a9	-0.19135536
149	0x3d89b6fe	0.06724356
150	0x3e1a03cb	0.1504051
151	0x3e432ea4	0.1906076
152	0xbe2b1109	-0.16705717
153	0x3db0d98c	0.08635244
154	0xbcdde79a	-0.027087975
155	0xbe974191	-0.2954221
156	0x3ddc41d7	0.107547455
157	0xbe26d3b8	-0.16291702
158	0xbdcc313b	-0.099703275
159	0xbdf85cfb	-0.121271096
160	0x3dbe742f	0.09299504
161	0x3eacf454	0.33780158
162	0xbbfafaf7	-0.007659312
163	0x3d86d73e	0.06584023
164	0xbd97e736	-0.07417147
165	0xbda424e0	-0.08014846
166	0xbe515271	-0.20441605
167	0xbe88f15a	-0.26746637
168	0xbcec1dd6	-0.02882282
169	0x3e93d290	0.28871584
170	0x3e62ee80	0.22161293
171	0xbe4780bf	-0.19482706
172	0xbe92855b	-0.28617367
173	0x3be29f86	0.0069159893
174	0x3e968860	0.2940092
175	0xbabf34e4	-0.0014587906
176	0xbde8119e	-0.11331485
177	0xbe04f72b	-0.12984912
178	0xbdb622e9	-0.08893377
179	0xbe8c434a	-0.27395087
180	0x3d5af7a9	0.053458843
181	0x3de6e28f	0.11273681
182	0xbd3f0847	-0.046638753
183	0xbd8bbb78	-0.06822866
184	0xbd47fae5	-0.048823256
185	0xbe116e37	-0.142022
186	0xbbf6369a	-0.007513833
187	0xbd08e5ce	-0.033422284
188	0xbe83f364	-0.2577163
189	0xbdf91f67	-0.12164193
190	0x3e4a6f1a	0.19768944
191	0x3d476529	0.04868046
192	0xbe298d93	-0.16557913
193	0x3d8c5829	0.06852753
194	0xbe6748ea	-0.22586408
195	0x3c57f711	0.013181464
196	0x3d525159	0.05134711
197	0x3e78878b	0.24270456
198	0x3bc42eca	0.005987023
199	0xbe3d5b5f	-0.18491887
200	0xbdb1db35	-0.086843885
201	0x3e9f281a	0.31085283
202	0xbe003c0a	-0.12522903
203	0x3e14d1e0	0.14533186
204	0x3e9b5c13	0.30343685
205	0x3bcccc50	0.006249942
206	0xbc91c133	-0.01779232
207	0x3f041024	0.5158713
208	0xbcfe0bb0	-0.031011432
209	0x3e098bec	0.13432282
210	0xbe9aab88	-0.30208993
211	0xbe4fb4cd	-0.20283814
212	0xbcf304d3	-0.029665386
213	0x3e8bdf28	0.27318692
214	0x3e2a5cff	0.16637038
215	0xbe25261f	-0.16127823
216	0xbe149ca7	-0.14512883
217	0xbd18ddc4	-0.037320867
218	0xbe58f1b2	-0.2118595
219	0xbe8f3765	-0.2797195
220	0xbe99f622	-0.30070597
221	0x3e50465a	0.20339337
222	0xbd96ee4e	-0.07369672
223	0x3e31facc	0.17380828
224	0xbe5fea8e	-0.2186682
225	0xbdab5a7e	-0.083668694
226	0x3dab74ea	0.08371909
227	0xbc830d4f	-0.015997557
228	0xbe59b40e	-0.21260092
229	0x3e2aeead	0.1669261
230	0xbcdfe859	-0.027332472
231	0x3e0dc41d	0.13844343
232	0xbecf71ec	-0.40516603
233	0xbe957f16	-0.2919852
234	0x3d754aae	0.059885673
235	0xbe9561f1	-0.29176286
236	0x3ecb2d28	0.3968289
237	0xbe7fd4d4	-0.24983531
238	0xbe9bbc03	-0.3041688
239	0xbd65ac0c	-0.05607228
240	0x3cd64896	0.026157659
241	0xbe008aab	-0.12552898
242	0x3e106b04	0.14103323
243	0xbebc643d	-0.36795226
244	0xbbe4c6e1	-0.006981716
245	0xbd43d724	-0.047812596
246	0x3e7b53e9	0.24543728
247	0x3e57bf86	0.21069154
248	0xbd57d190	-0.05269009
249	0xbdc193a9	-0.09451992
250	0xbcb26d12	-0.021780524
251	0xbdf48910	-0.11940205
252	0xbe43ecaa	-0.19133249
253	0x3e6f0c60	0.23344564
254	0xbe832a23	-0.25618085
255	0xbe4689ea	-0.19388548

actor.4.bias f4 [4]
0	0x3e25b30d	0.16181584
1	0xbc36d10a	-0.011158237
2	0x3e19aa60	0.15006399
3	0xbdfd38ad	-0.12364326

critic.0.weight f4 [64, 24]
0	0x3e6cbc49	0.231187
1	0xbf149e4a	-0.5805403
2	0x3e6889d5	0.22708829
3	0x3dbd8118	0.09253138
4	0x3fa10986	1.2581031
5	0x3ed1fe5a	0.41014367
6	0xbf2be48b	-0.67145604
7	0x3f06f58e	0.52718437
8	0x3e744af0	0.23856711
9	0x3f92e504	1.147614
10	0x3c259f3e	0.010108767
11	0x3f8f5338	1.1197271
12	0xbe0a6e6c	-0.13518685
13	0x3ec6a944	0.38801014
14	0x3eb35181	0.3502312
15	0x3e96de31	0.29466394
16	0x3e1e4615	0.15456422
17	0x3e4da06a	0.20080724
18	0x3e1ab9b3	0.15109901
19	0x3e518a75	0.20462973
20	0x3e4584c1	0.19288923
21	0x3e8cb5d5	0.27482477
22	0x3e589a64	0.21152645
23	0x3f178029	0.5917993
24	0x3fd18841	1.6369706
25	0x3f0d9f20	0.5532093
26	0x3f8a4d09	1.0804759
27	0xbfb1ae33	-1.3881286
28	0x3c7b7a96	0.015349051
29	0xbb58617b	-0.0033017087
30	0xbf8a3120	-1.0796242
31	0x3e175d19	0.14781608
32	0xbecc4bc0	-0.39901543
33	0x3d81b95c	0.063341826
34	0xbf94f112	-1.1636069
35	0x3f88741f	1.0660437
36	0x3d6683da	0.056278087
37	0x3fc74469	1.5567752
38	0x3e1cf905	0.15329368
39	0x3e868476	0.26272935
40	0x3e32c251	0.17456938
41	0x3e4faab5	0.20279963
42	0xbc49ee2e	-0.012324853
43	0x3dd9a634	0.10627404
44	0x3e62d76f	0.22152494
45	0x3e7ae5fa	0.24501792
46	0x3e34cd2b	0.1765639
47	0x3def1265	0.1167343
48	0xbe9b1a53	-0.3029352
49	0x40400980	3.0005798
50	0xbee74cbe	-0.45175737
51	0x400e1c37	2.220472
52	0x3f3e0c07	0.742371
53	0x3efb9633	0.4913803
54	0x3f4ad280	0.7922745
55	0xbf2b738f	-0.66973203
56	0xbf0d7d28	-0.552691
57	0xbf335c28	-0.70062494
58	0xbebed320	-0.3727045
59	0xbf7131ed	-0.94216806
60	0x3d3f9e5a	0.046781875
61	0x3e095ac4	0.1341353
62	0x3ca2c7d4	0.019870676
63	0xbdd63ec9	-0.10461194
64	0x3e91f45a	0.28506738
65	0x3d7e1187	0.062028434
66	0x3e614bfe	0.22001645
67	0x3ec6974b	0.38787302
68	0x3d7830fe	0.060593598
69	0x3e9b62b1	0.30348733
70	0x3ea8349b	0.32852635
71	0xbe85dc1b	-0.2614449
72	0xbe870a46	-0.26375026
73	0x40e5c8ea	7.1807756
74	0xbfea864e	-1.8322237
75	0xbf0637bb	-0.5242879
76	0x40247ba4	2.5700464
77	0xbe337748	-0.17525971
78	0x3fbf9180	1.4966278
79	0xbe52b502	-0.20576862
80	0xbdd9257e	-0.10602854
81	0xbdcc5e21	-0.09978891
82	0x3e9cd7e2	0.30633456
83	0xbf055e2a	-0.5209681
84	0x3cbad241	0.022805335
85	0x3f3dcfb8	0.7414508
86	0x3f160592	0.5860225
87	0x3f145566	0.5794281
88	0x3f02a065	0.5102599
89	0x3efbc7bc	0.49175823
90	0x3f11b595	0.569177
91	0x3f054b8d	0.52068406
92	0x3ea34d92	0.3189512
93	0x3f2bb95a	0.670797
94	0x3c86b23d	0.016442413
95	0xbe455e5d	-0.19274278
96	0x3ddb1dc8	0.1069904
97	0x3e7fe177	0.24988352
98	0x3f2b152b	0.66829175
99	0xbfe28a43	-1.7698444
100	0xbfe8acb8	-1.817771
101	0xbe0a0db7	-0.13481794
102	0xbf9f3aa1	-1.2439767
103	0xbed5d96d	-0.41767445
104	0x3e5729c7	0.2101203
105	0x3e043301	0.12910081
106	0xbf064963	-0.5245573
107	0xbe6084bc	-0.21925634
108	0xbdc37599	-0.09543914
109	0xbf2a3edd	-0.6650217
110	0x3e348085	0.17627151
111	0x3e448b95	0.19193871
112	0x3e84863f	0.25883672
113	0x3e52b038	0.20575035
114	0x3e193371	0.1496103
115	0x3a5b907a	0.00083757157
116	0xbdf72989	-0.12068469
117	0xbf053af9	-0.5204311
118	0xbf442ff2	-0.7663566
119	0x3d604d26	0.054761074
120	0x3fd5debb	1.6708597
121	0x3f387c61	0.7206479
122	0x3f0bc830	0.54602337
123	0xc066ebfb	-3.608153
124	0xbef25510	-0.47330523
125	0x3e8a3423	0.26992902
126	0x3f278bec	0.6544788
127	0x3e0f3c53	0.13987856
128	0x3d32f92b	0.043694656
129	0xbe09ac56	-0.13444647
130	0x3edc12fd	0.42983237
131	0x3f3df27c	0.74198127
132	0x3eacb7ac	0.3373388
133	0x3da2089c	0.07911798
134	0xbdd41c3d	-0.103569485
135	0x3cfc657a	0.030810107
136	0x3e04353c	0.12910932
137	0x3db373ad	0.08762298
138	0xbdd5f8d2	-0.10447849
139	0xbd7cd266	-0.06172409
140	0x3dbacdbb	0.09121271
141	0xbdab6b48	-0.08370072
142	0xbd39c899	-0.04535732
143	0x3e0a565c	0.13509506
144	0xbfac3e17	-1.3456448
145	0xbe5f4122	-0.2180219
146	0x403cf801	2.952637
147	0xbfc1ea81	-1.514969
148	0xbf9e438e	-1.2364366
149	0x3e90bf99	0.28271177
150	0xbf4b9bb9	-0.7953449
151	0xbdbd7d66	-0.092524335
152	0xbe0f6c12	-0.1400607
153	0xbe728f4e	-0.23687479
154	0x3e6404d2	0.22267464
155	0x3d091ff9	0.033477757
156	0xbe1f260e	-0.1554186
157	0x3ef89fe8	0.485595
158	0xbeb20185	-0.34766784
159	0xbe9d216b	-0.30689558
160	0xbe07502a	-0.13214174
161	0x3da424d9	0.08014841
162	0xbd2b1d85	-0.0417762
163	0xbd83b819	-0.06431598
164	0xbdf5a260	-0.11993861
165	0xbde446d7	-0.11146324
166	0x3f2abba2	0.66692555
167	0x3f187936	0.59559953
168	0xbf60fa29	-0.87881714
169	0xbe823f34	-0.25438845
170	0x3fab9886	1.3405921
171	0xbfba0d93	-1.4535393
172	0x3cbe9f7d	0.02326941
173	0x3ebc8756	0.36822003
174	0xbeee177f	-0.465023
175	0xbf14085e	-0.5782527
176	0x3e23882c	0.15969914
177	0xbec4cb6d	-0.38436452
178	0xbf8d10e4	-1.102078
179	0xbe69127d	-0.22760959
180	0xbf3ffe5c	-0.74997497
181	0x3d17e96a	0.037087835
182	0xbe8ae3dd	-0.2712697
183	0xbcddca56	-0.02707402
184	0xbd913c2d	-0.07091556
185	0x3e0032f2	0.12519434
186	0x3deeaf6b	0.11654552
187	0x3e4a8b56	0.19779715
188	0xbd6811c5	-0.05665757
189	0x3ef754e8	0.48306966
190	0x3f16312e	0.5866879
191	0x3d52bcc7	0.051449563
192	0xc01952f5	-2.3956883
193	0xc048ac00	-3.135498
194	0x3f872b19	1.0560027
195	0x3f6f47a9	0.9346872
196	0x3fd2c41e	1.64661
197	0xbd0a12e3	-0.033709418
198	0x3fba4138	1.4551153
199	0x3ebde82f	0.37091205
200	0x3ed385de	0.4131307
201	0xbebf8871	-0.37408784
202	0x3e47b846	0.19503888
203	0xbff9ca78	-1.9514914
204	0xbec2c124	-0.3803798
205	0x3f38f62c	0.7225063
206	0xbe8534d3	-0.26016864
207	0xbe11a417	-0.14222752
208	0xbef594f9	-0.4796522
209	0xbf0c9008	-0.54907274
210	0xbe85eabc	-0.2615565
211	0xbf150bca	-0.58221114
212	0xbf31b341	-0.69414145
213	0xbf45e766	-0.7730621
214	0xbde65158	-0.11245984
215	0xbd55ab75	-0.052165467
216	0xbe9f3dc6	-0.31101817
217	0xbf829fa5	-1.020497
218	0xbdb05fe9	-0.086120434
219	0x401fb65a	2.4955049
220	0x3d3da327	0.046298172
221	0x3ed9a89e	0.42511457
222	0x3f607657	0.8768057
223	0x3ecf4441	0.4048176
224	0xbf962647	-1.1730431
225	0x3bd7c832	0.0065851444
226	0xbe642ced	-0.22282763
227	0x3de7d2e4	0.11319521
228	0x3f1a5da3	0.6029913
229	0x3f423dd9	0.7587562
230	0xbe2845cb	-0.16432874
231	0xbe881e33	-0.2658554
232	0xbe8dec0d	-0.27719155
233	0xbe9e7b8c	-0.30953634
234	0xbe7362c5	-0.23768146
235	0xbf19497a	-0.5987774
236	0xbf3d7c83	-0.74018115
237	0xbf1d04e6	-0.613356
238	0xbf3aa507	-0.7290806
239	0xbf1ce43a	-0.61285746
240	0x3df0617b	0.11737343
241	0xbfc00c81	-1.5003816
242	0xbe90c5db	-0.28275952
243	0x3fcdc1e2	1.6074793
244	0xbffad0a4	-1.9594922
245	0x3effda43	0.49971208
246	0xbea9f9d3	-0.33198413
247	0x3ccce8a4	0.025013275
248	0x3dfb00a2	0.1225598
249	0x3e957492	0.291905
250	0x3f163656	0.5867666
251	0xbd601123	-0.054703843
252	0x3ecb87be	0.39752
253	0xbe8ef161	-0.27918532
254	0x3e080829	0.13284363
255	0x3e83185f	0.2560453

critic.0.bias f4 [64]
0	0x3f36ba8e	0.7137841
1	0x3ea5a61e	0.323533
2	0xbe8f2943	-0.27961168
3	0xbdc2b56c	-0.0950726
4	0x3ee76193	0.4519163
5	0x3e9de977	0.30842182
6	0x3eafa09c	0.34302223
7	0xbe00f10a	-0.12591949
8	0xbe6f57cd	-0.23373337
9	0xbec2adbe	-0.3802318
10	0x3f18e2f9	0.5972133
11	0x3f19cc98	0.6007781
12	0xbf058101	-0.5214997
13	0x3f9092c9	1.1294795
14	0x3e5631bf	0.20917414
15	0x3ead9b49	0.33907536
16	0x3f16bc1e	0.58880794
17	0xbe0f79f8	-0.14011371
18	0x3eb07187	0.34461614
19	0x3d5e7d20	0.054318547
20	0xbc1b05b4	-0.009461809
21	0x3f0244ce	0.5088624
22	0x3e79c77e	0.24392506
23	0x3e42fc25	0.19041498
24	0xbe44ba3f	-0.19211672
25	0xbf3697cf	-0.7132539
26	0x3ed3ac8a	0.41342574
27	0xbf35861a	-0.7090775
28	0x3bed2778	0.007237371
29	0x3f01ef6e	0.50755966
30	0x3d00af16	0.031416975
31	0x3f38e734	0.7222779
32	0x3f13177e	0.5745772
33	0x3f16b969	0.58876663
34	0xbf10f535	-0.56624156
35	0xbf5ed181	-0.8703843
36	0xbdeed736	-0.11662142
37	0xbebc5740	-0.36785316
38	0x3eeea1e0	0.46607876
39	0xbf0c7b6f	-0.54875845
40	0xbed82b76	-0.42220658
41	0xbe08f3cd	-0.13374253
42	0xbdd35f3b	-0.10320898
43	0xbdfadebe	-0.12249516
44	0xbea92b8b	-0.33041033
45	0xbe3d158b	-0.18465249
46	0x3f7bfe9d	0.98435384
47	0xbdd7679d	-0.105178095
48	0xbf760eeb	-0.96116513
49	0x3e8f1638	0.2794664
50	0x3ebefc67	0.37301943
51	0x3e18b1ed	0.14911623
52	0x3dd57e9e	0.10424541
53	0xbdf6c9f2	-0.12050237
54	0xbdc44145	-0.09582762
55	0x3f877a78	1.058425
56	0x3ded6241	0.11591006
57	0x3cef9aa4	0.029248543
58	0x3f3315d1	0.69955164
59	0xbe39bc3f	-0.18138216
60	0x3d246dba	0.040143706
61	0xbd06365b	-0.03276668
62	0x3f193751	0.5985003
63	0x3f6b988b	0.9202964

critic.2.weight f4 [64, 64]
0	0x3ea1ca35	0.31599584
1	0xbeb21300	-0.3478012
2	0x3e866d7f	0.26255414
3	0xbee60759	-0.4492748
4	0xbea1f6a5	-0.31633487
5	0xbdeae79c	-0.11469957
6	0x3f8d39c4	1.1033254
7	0x3f6df712	0.92955124
8	0xbe42a15c	-0.19006866
9	0xbe83be09	-0.25730923
10	0x3ea4c9cb	0.32185206
11	0x3e964c77	0.29355213
12	0x3eaa58f2	0.33270985
13	0xbda0c0ea	-0.078492954
14	0x3edef5d5	0.4354693
15	0x3dddad33	0.10824051
16	0xbf49bef4	-0.78806996
17	0xbf5cba8a	-0.86222136
18	0x3e7d38cb	0.24728696
19	0x3eed86df	0.4639196
20	0xbec1f136	-0.37879342
21	0x3d85f1b4	0.06540242
22	0x3b1c4106	0.0023842468
23	0x3eac0aa3	0.33601865
24	0x3f3c6021	0.7358418
25	0x3f23abb3	0.6393387
26	0xbf0fbbe3	-0.5614607
27	0x3c60f9e2	0.013731452
28	0x3f610003	0.8789064
29	0xbcd2f4d7	-0.025751514
30	0xbf4ba243	-0.79544467
31	0x3f4be509	0.79646355
32	0x3f1c89f3	0.61147994
33	0x3ef74e27	0.48301813
34	0x3ef704fc	0.4824599
35	0xbf60888b	-0.8770835
36	0xbebe9700	-0.3722458
37	0xbc20127e	-0.009770034
38	0x3e078b4d	0.13236733
39	0xbe85af16	-0.26110142
40	0x3f0c17ee	0.54724014
41	0xbe5f483b	-0.21804897
42	0xbf7c053c	-0.9844549
43	0xbd66e02b	-0.056366127
44	0x3e541a3c	0.20713133
45	0xbf2248d5	-0.6339238
46	0xbeb09371	-0.3448749
47	0xbe6c1ab1	-0.23057057
48	0xbf996dbf	-1.1986617
49	0x3f8d4457	1.1036481
50	0x3ec8939b	0.39175114
51	0xbcc51e8e	-0.024062421
52	0xbe1914f2	-0.14949396
53	0xbe4b5865	-0.19857939
54	0x3ec048f3	0.37555656
55	0x3eba34ad	0.36368313
56	0x3e1b8670	0.15188003
57	0x3e6c49c2	0.23075011
58	0xbe25a81d	-0.16177411
59	0x3df1a888	0.11799723
60	0x3f85f5cd	1.0465637
61	0xbf4d41c0	-0.8017845
62	0x3e23bfcf	0.15991138
63	0x3bc01570	0.0058619305
64	0xbd21178c	-0.039329097
65	0x3db7c709	0.0897351
66	0xbc08d977	-0.008352629
67	0xbfa79117	-1.3091153
68	0x3f082deb	0.53195065
69	0xbef5834d	-0.47951737
70	0x401e1f1f	2.4706495
71	0x3f005e52	0.5014392
72	0xbda38ebd	-0.079862095
73	0xbeaf981b	-0.34295735
74	0x3dbe35bd	0.092875935
75	0x3f84682e	1.0344293
76	0x3d6f3b35	0.058406074
77	0x3e55d727	0.20882855
78	0x3f271f08	0.65281725
79	0xbe5f40d4	-0.21802074
80	0x3ac662f8	0.0015135696
81	0xbf1f4d1e	-0.62227046
82	0xbdefeef0	-0.117154956
83	0x3fa0c989	1.2561504
84	0x3e90a31c	0.28249443
85	0x3f0d6dc6	0.55245626
86	0xbf0f41bd	-0.55959684
87	0x3e8e0ed8	0.277457
88	0x3fa74999	1.3069335
89	0xbe4a5f51	-0.19762923
90	0xbea37511	-0.31925252
91	0xbda11dd7	-0.078670196
92	0x3c0950cc	0.00838108
93	0x3e82d8f0	0.25556135
94	0xbfad3edc	-1.3534808
95	0x3f6cb350	0.9246111
96	0x3f285285	0.65750915
97	0x3ef2870f	0.47368667
98	0xbdbc47e7	-0.09193402
99	0xbdffee00	-0.12496567
100	0xbeed8c2d	-0.46396008
101	0xbeb9d0fb	-0.36292252
102	0x3f2e0a2a	0.6798426
103	0x3e3a7838	0.18209922
104	0x3f03f151	0.51540095
105	0xbf437120	-0.7634449
106	0x3e8fa5ac	0.28056085
107	0x3f8122a1	1.0088693
108	0x3f4ae41a	0.79254305
109	0xbf641e14	-0.89108396
110	0x3f6b1228	0.9182458
111	0x3f05be23	0.5224325
112	0xbfa2f780	-1.2731781
113	0x3fb72c6b	1.431043
114	0x3e95ae52	0.29234558
115	0xbe8fb58b	-0.28068194
116	0x3f56830e	0.83793724
117	0xbeb6391c	-0.35590446
118	0xbe907d9c	-0.28220832
119	0x3e28bf11	0.16479136
120	0x3e1a4573	0.15065555
121	0x3f12e63d	0.57382566
122	0xbeb620e0	-0.35571957
123	0xbe5f2142	-0.2179003
124	0x3f8a62ad	1.0811363
125	0x3ea2289d	0.3167161
126	0x3ee9ac2e	0.45639175
127	0x3ee76aef	0.4519877
128	0xbf0df936	-0.5545839
129	0x3d6f5f9d	0.058440793
130	0xbec8926f	-0.3917422
131	0x3df0986c	0.11747822
132	0x3e0c2e2f	0.13689493
133	0x3e0dac3a	0.1383523
134	0xbf22fa72	-0.636634
135	0xbea874d9	-0.32901648
136	0x3c2f243e	0.010689793
137	0x3df37aea	0.11888678
138	0x3e030101	0.12793352
139	0xbf00494e	-0.50111854
140	0x3f001656	0.5003408
141	0xbedc7cb5	-0.43063894
142	0xbf4dc112	-0.80372727
143	0xbdfcf08d	-0.12350569
144	0xbeb1a641	-0.34697154
145	0x3ef6a26f	0.48170802
146	0x3eccfe6f	0.40037867
147	0xbf380fcc	-0.71899104
148	0x3e9557ca	0.2916854
149	0xbf212e68	-0.62961435
150	0x3d83a739	0.064283796
151	0xbeb89b87	-0.36056158
152	0x3e6ae09f	0.22937249
153	0xbee4b8ab	-0.4467214
154	0x3f06f98c	0.5272453
155	0x3e611739	0.21981515
156	0xbed49dfe	-0.41526788
157	0x3f08b291	0.5339747
158	0x3c61c198	0.0137790665
159	0xbec5c5d6	-0.386275
160	0xbf24fe2c	-0.64450336
161	0xbe83e860	-0.25763226
162	0x3df959c5	0.12175325
163	0x3cbe3225	0.02321727
164	0x3d473262	0.048632033
165	0xbeee83c8	-0.46584916
166	0xbf8dfc7d	-1.1092678
167	0xbedb2463	-0.42801198
168	0xbe0f42c3	-0.13990311
169	0x3ed30850	0.4121728
170	0xbcf6a506	-0.030107986
171	0x3ca4bb50	0.020108849
172	0xbd218152	-0.03942997
173	0x3ebcaad6	0.36849087
174	0xbfe728d9	-1.8059341
175	0xbd1519c5	-0.03640153
176	0x3f5c7524	0.8611624
177	0xbe92e865	-0.28692928
178	0xbf2d6cb2	-0.6774398
179	0x3e32c669	0.174585
180	0x3dfacc92	0.1224605
181	0x3e34fdb0	0.17674899
182	0xbe90b83f	-0.2826557
183	0xbe82a703	-0.25518045
184	0xbe4fa68c	-0.20278376
185	0xbeed170a	-0.4630664
186	0xbea85c07	-0.3288271
187	0x3f164d58	0.5871177
188	0xbdc3ee21	-0.09566904
189	0x3e17a561	0.14809181
190	0xbe004f35	-0.12530215
191	0xbecfcb2b	-0.40584692
192	0x3d7087da	0.05872331
193	0xbd30d341	-0.043170217
194	0xbe544a85	-0.20731552
195	0x3f385e86	0.7201923
196	0xbef23457	-0.47305557
197	0x3e8e38de	0.2777776
198	0xbfd0c293	-1.6309379
199	0xbf1ad9f2	-0.6048881
200	0xbbf7edbf	-0.0075661833
201	0xbd842086	-0.06451516
202	0xbdd5d5eb	-0.10441192
203	0xbe81fabe	-0.25386614
204	0x3f38fe55	0.7226308
205	0xbe9e8e36	-0.30967873
206	0xbeb4336a	-0.35195476
207	0xbd0735ee	-0.033010416
208	0xbe867365	-0.26259914
209	0x3f090796	0.535272
210	0x3e27abfd	0.16374202
211	0xbed12a6d	-0.4085268
212	0x3df802a0	0.12109876
213	0xbec8c8f8	-0.39215827
214	0x3ec0ac1c	0.3763131
215	0x3d9a2bf8	0.075279176
216	0xbf1c17db	-0.609739
217	0x3e4ae11b	0.19812433
218	0x3ef486f7	0.4775922
219	0x3e723e59	0.23656596
220	0xbe6cbefd	-0.23119731
221	0x3e84f547	0.25968382
222	0x3f61e623	0.88241786
223	0xbf5819ea	-0.8441454
224	0xbec4ddc5	-0.38450447
225	0x3cf7aa83	0.030232674
226	0xbe45b699	-0.19307937
227	0x3ea8b8ce	0.32953495
228	0x3ef93d4f	0.48679587
229	0xbe3576ab	-0.1772105
230	0xbf185a88	-0.5951314
231	0xbea74dfa	-0.3267668
232	0x3e0e2eca	0.13885036
233	0x3f8bba2c	1.091619
234	0x3dfd0c63	0.12355878
235	0xbe7d0b9d	-0.24711461
236	0xbe9fa11d	-0.31177607
237	0x3d7f7f46	0.062377237
238	0xbf73de60	-0.9526119
239	0xbdcce3e6	-0.10004406
240	0x3f2d93c4	0.678036
241	0xbf860c47	-1.0472497
242	0xbe4cddac	-0.20006436
243	0xbd895a98	-0.067067325
244	0xbec30f24	-0.3809749
245	0xbb215e87	-0.0024622993
246	0xbcaf8969	-0.021427827
247	0xbeb495ee	-0.35270637
248	0xbdde6f7a	-0.10861106
249	0xbf1baede	-0.608137
250	0x3ee2992b	0.44257483
251	0x3ec64698	0.38725734
252	0xbf5d7f23	-0.8652212
253	0x3e11c64a	0.14235798
254	0xbe6f1c87	-0.23350726
255	0xbe464031	-0.19360425

critic.2.bias f4 [64]
0	0xbca4b9ce	-0.02010813
1	0x3ea1747a	0.31534177
2	0xbec21965	-0.3791
3	0xbebb5b7f	-0.36593243
4	0x3d6dcb75	0.05805536
5	0xbdc2cb73	-0.09511461
6	0xbf05692e	-0.52113616
7	0x3ddd35cb	0.10801276
8	0xbf16069f	-0.58603853
9	0x3e6bdaab	0.23032634
10	0x3bbf3413	0.005835065
11	0xbf1f9318	-0.6233382
12	0xbf2593d8	-0.64678717
13	0xbe41e412	-0.18934658
14	0xbf35f06e	-0.7106999
15	0x3f56762c	0.83774066
16	0x3e9d6e6a	0.30748302
17	0xbe8f5f85	-0.28002563
18	0x3d942002	0.072326675
19	0xbe01e57d	-0.12685199
20	0x3e8c2c28	0.2737744
21	0x3eab5240	0.3346119
22	0x3e276e1d	0.16350599
23	0xbec9a814	-0.39386046
24	0xbec4bbe8	-0.3842461
25	0xbe0eca3a	-0.13944331
26	0x3f24d2b3	0.64384
27	0xbe1c6297	-0.15271984
28	0x3e7705f0	0.24123359
29	0xbf12cd28	-0.57344294
30	0x3ea8154c	0.32828748
31	0xbf22c3d0	-0.63580036
32	0x3d67fd33	0.056637954
33	0x3ca1bf60	0.019744575
34	0x3f4d1d30	0.8012266
35	0xbe726d07	-0.23674403
36	0x3e5a8c61	0.21342613
37	0xbe54c1d9	-0.20777072
38	0x3ec7ec95	0.39047685
39	0xbf196caf	-0.59931463
40	0xbe39b180	-0.18134117
41	0x3e93ac7a	0.28842527
42	0x3dd670e8	0.10470754
43	0x3e7073c5	0.23481663
44	0xbdb34faf	-0.08755433
45	0x3eb21a83	0.34785852
46	0x3e3ec170	0.18628478
47	0xbed2b738	-0.4115541
48	0xbf168397	-0.5879454
49	0x3df07c96	0.11742513
50	0x3d9b6b17	0.07588785
51	0x3ece58b6	0.40302056
52	0x3ed24e58	0.41075397
53	0xbf27c2db	-0.655317
54	0xbed294e4	-0.4112922
55	0x3d717585	0.058949966
56	0x3c741b0c	0.014899027
57	0x3e0b85cd	0.1362526
58	0xbf22ec16	-0.6364149
59	0x3e9dbefc	0.30809772
60	0xbdbf8fad	-0.09353576
61	0xbf37cf5f	-0.718008
62	0xbeb157d3	-0.34637317
63	0x3f1e465e	0.6182612

critic.4.weight f4 [1, 64]
0	0x3e8be132	0.27320248
1	0xbe302059	-0.1719984
2	0x3e968b92	0.2940336
3	0x3e5b2344	0.21400172
4	0x3c5f6ced	0.01363681
5	0xbea6acff	-0.3255386
6	0xbcd808c5	-0.02637137
7	0xbe5078da	-0.20358601
8	0x3edb496f	0.42829463
9	0x3eb91c6c	0.36154497
10	0x3de3d10b	0.11123856
11	0x3f071eb3	0.5278122
12	0x3d9f62c0	0.07782507
13	0xbe2103b4	-0.15724069
14	0x3ec2bda3	0.38035306
15	0xbefe4656	-0.49663037
16	0xbe10de33	-0.14147262
17	0x3e897588	0.26847482
18	0x3ee34c3f	0.4439411
19	0xbdad5ea1	-0.08465315
20	0x3e964cb4	0.29355395
21	0xbece9796	-0.40350026
22	0x3e79fcd8	0.24412858
23	0x3e1cfa22	0.15329793
24	0x3e232ec9	0.15935816
25	0xbe245073	-0.16046314
26	0xbdf463ee	-0.119331226
27	0xbf008a13	-0.50210685
28	0x3e94e5f7	0.290817
29	0x3ec3213e	0.381113
30	0x3e9f434f	0.3110604
31	0x3eeea3c4	0.46609318
32	0x3e3aa23e	0.18225953
33	0x3e73f6d3	0.23824625
34	0xbd84ee02	-0.06490709
35	0xbbc36f72	-0.005964213
36	0x3da7f8ce	0.082017526
37	0xbe122966	-0.14273605
38	0xbeb2aad1	-0.34895948
39	0x3ca7d0e2	0.020485345
40	0xbdb576b5	-0.08860532
41	0x3cd124cd	0.025530243
42	0xbda931c7	-0.082614474
43	0x3d6263c5	0.05527093
44	0x3ef305d7	0.47465393
45	0xbecb349c	-0.39688575
46	0x3e9ecea2	0.31017023
47	0xbe850bec	-0.25985658
48	0x3dd9d3d6	0.106361076
49	0x3f9b8312	1.2149374
50	0xbe8aaf15	-0.27086702
51	0x3f871b53	1.0555214
52	0xbdb69a1a	-0.08916111
53	0x3eeffda7	0.4687321
54	0xbf1b4d78	-0.6066508
55	0xbe84ddb3	-0.25950393
56	0x3c097c8c	0.008391511
57	0xbe0e668b	-0.13906305
58	0x3eec78fc	0.46186054
59	0x3ea5fe3d	0.3242053
60	0xbe0c28aa	-0.13687387
61	0x3ee57192	0.4481321
62	0x3e6b3779	0.2297038
63	0xbec5b4f3	-0.38614616
