PPO_preTrained/RoboschoolWalker2d-v1/PPO_RoboschoolWalker2d-v1_0_0.pth (torch, 51163 bytes, 11 tensors)

actor.0.weight f4 [64, 22]
0	0xbce93c76	-0.028471213
1	0x3d035243	0.032060873
2	0xbd24f43f	-0.040271994
3	0x3ea5c64f	0.3237786
4	0xbe428566	-0.189962
5	0x3f00b082	0.5026933
6	0x3e55430a	0.20826355
7	0x3e29d6bf	0.16585825
8	0x3e57ec82	0.21086314
9	0x3f0fb50a	0.5613562
10	0xbec3be8b	-0.3823131
11	0xbdba12a2	-0.09085585
12	0xbd163fe4	-0.036682025
13	0xbe9753c1	-0.29556087
14	0xbe0e0dd3	-0.13872461
15	0x3f28540f	0.65753263
16	0x3db66c35	0.089073576
17	0xbefbd4c7	-0.49185774
18	0xbc4de728	-0.012567319
19	0x3c9594e9	0.018259482
20	0xbe9f8f31	-0.31163934
21	0xbe2f3a21	-0.17112018
22	0xbd26fc25	-0.040767808
23	0xbe012a9e	-0.12613913
24	0x3cec1920	0.028820574
25	0x39772265	0.00023568569
26	0xbe0313a2	-0.12800458
27	0x3dadae75	0.08480541
28	0x3df2d045	0.118561305
29	0xbeab6318	-0.3347404
30	0x3d20abbe	0.039226286
31	0xbd85109f	-0.06497311
32	0x3e328ace	0.17435762
33	0xbe778fae	-0.24175903
34	0xbe9a8dfc	-0.3018645
35	0xbe4bf81e	-0.19918868
36	0xbca86c39	-0.020559417
37	0xbe8e786d	-0.27826253
38	0xbd07764f	-0.033071812
39	0xbee2259b	-0.44169316
40	0x3ceaa9ee	0.028645482
41	0x3ec03539	0.37540606
42	0x3e1a3057	0.15057503
43	0xbdf8b39f	-0.12143635
44	0xbdc0d02e	-0.09414707
45	0x3dc5ec49	0.096642084
46	0xbe16c8fb	-0.14725105
47	0xbd00f131	-0.031480018
48	0xbda0ee59	-0.07857961
49	0xbe953e84	-0.29149258
50	0x3dfb0ebe	0.12258671
51	0xbe16286a	-0.14663854
52	0x3d9feb03	0.07808497
53	0x3e9fc164	0.31202233
54	0x3ec13fc0	0.3774395
55	0xbde4bc48	-0.11168724
56	0x3d0270d1	0.03184587
57	0xbe42ce96	-0.19024119
58	0x3e66bc26	0.2253271
59	0x3e34cc03	0.1765595
60	0xbe4bc764	-0.1990028
61	0x3bf7bb6a	0.0075601833
62	0x3cd1dde2	0.025618497
63	0x3ceec302	0.029145721
64	0xbe0e036d	-0.13868494
65	0x3dfec60c	0.12440118
66	0xbf02d8cd	-0.5111206
67	0x3dd8b9ff	0.10582351
68	0xbd9245bf	-0.07142209
69	0xbf07c566	-0.5303558
70	0x3de4c6aa	0.11170705
71	0xbe076192	-0.13220814
72	0x3e40b2cc	0.18818206
73	0xbe71e73b	-0.23623364
74	0xbdf49d54	-0.119440705
75	0xbe16a6c1	-0.14712049
76	0xbe032669	-0.12807621
77	0x3e88e164	0.2673446
78	0xbe5952b4	-0.21222955
79	0xbdacb3d8	-0.0843274
80	0xbd86f147	-0.06588989
81	0xbcae64cf	-0.021288304
82	0x3e079cef	0.13243459
83	0xbda39031	-0.07986487
84	0xbe563984	-0.20920378
85	0xbed9f3de	-0.42568868
86	0xbdb23f66	-0.087034985
87	0x3d03d941	0.03218961
88	0x3e24aaa1	0.16080715
89	0x3d75578c	0.059897944
90	0x3ca6248c	0.020281099
91	0xbd0eab98	-0.034831613
92	0xbd69fba6	-0.057124756
93	0x3e24c418	0.16090429
94	0x3e11dc2e	0.14244148
95	0xbe5bd3dc	-0.21467537
96	0x3dfc4b2c	0.123190254
97	0xbe5073c0	-0.20356655
98	0xbe311e7b	-0.17296784
99	0x3e395e21	0.18102314
100	0xbdb59925	-0.088671006
101	0xbe0b7a5d	-0.13620897
102	0xbdaec4c2	-0.08533622
103	0x3e1d1423	0.15339713
104	0x3e522cbb	0.20524876
105	0x3d6a62bf	0.057223078
106	0xbc196a2f	-0.009363695
107	0xbd43237c	-0.047641262
108	0x3e96016e	0.29297966
109	0xbe2de1d4	-0.16980678
110	0xbe941eb3	-0.28929672
111	0xbe37db67	-0.17954789
112	0xbd6bfea9	-0.05761591
113	0x3ded69bc	0.11592433
114	0xbd2e4432	-0.042545505
115	0x3e84ecf1	0.25962022
116	0xbd52395a	-0.051324226
117	0x3e8c9a90	0.27461672
118	0xbe15acdd	-0.14616723
119	0xbdd1eed4	-0.10250631
120	0xbed14045	-0.40869346
121	0xbe8f44e8	-0.2798226
122	0x3d7dc25d	0.061952937
123	0xbe59d347	-0.21272002
124	0x3e5f77df	0.21823071
125	0x3ead41e4	0.33839333
126	0xbeb3d1ac	-0.35120904
127	0xbf188258	-0.5957389
128	0x3ea80f92	0.3282438
129	0xbf2e5f1e	-0.6811389
130	0xbce0b40e	-0.027429607
131	0xbef4c650	-0.4780755
132	0xbec6e14b	-0.3884376
133	0xbd19bbf9	-0.03753278
134	0x3c86e65f	0.016467271
135	0x3d33b182	0.043870457
136	0xbe351717	-0.1768459
137	0xbd57db26	-0.05269923
138	0xbe4950b6	-0.19659695
139	0xbe37d572	-0.17952517
140	0x3e981f8f	0.29711577
141	0x3e342bb0	0.1759479
142	0x3da93645	0.08262304
143	0xbe05427f	-0.13013647
144	0xbeecce9f	-0.4625139
145	0xbe96e867	-0.29474184
146	0xbe85261e	-0.26005644
147	0xbe5e1587	-0.216879
148	0x3eb10752	0.34575897
149	0x3d873f45	0.066038646
150	0x3edef91e	0.43549436
151	0xbcfe90f4	-0.031074978
152	0xbe345806	-0.17611703
153	0xbcd62514	-0.026140727
154	0xbbb8f69d	-0.005644633
155	0xbe3defad	-0.1854846
156	0xbd4d44bb	-0.050114375
157	0x3dc7d7c0	0.09757948
158	0x3dc5122e	0.09622608
159	0x3e29b4c6	0.16572866
160	0xbde3555c	-0.111002654
161	0xbe5763ed	-0.21034212
162	0xbd91250f	-0.070871465
163	0x3dbf3fd5	0.09338347
164	0xbe4893e5	-0.19587667
165	0xbdbdcea0	-0.09267926
166	0xbd88beba	-0.06677003
167	0xbebb5d5a	-0.3659466
168	0x3de509a2	0.11183478
169	0x3da71f09	0.08160216
170	0x3e002b5a	0.12516537
171	0x3e8fafe6	0.28063887
172	0xbeca3fb1	-0.39501718
173	0xbe1339d4	-0.14377528
174	0x3c699a96	0.014258048
175	0x3db42e46	0.087978885
176	0x3e229893	0.15878515
177	0x3a0d04da	0.0005379446
178	0x3e63f211	0.2226031
179	0xbdbd0bb2	-0.09230746
180	0xbe0cff3c	-0.13769239
181	0x3e50f688	0.20406544
182	0x3bb0df24	0.005397694
183	0xbd05bdbe	-0.032651655
184	0x3e60c1d2	0.21948937
185	0x3d4c3cc0	0.049862623
186	0xbd34e0f0	-0.04415983
187	0xbe8d7cba	-0.2763422
188	0xbec092bc	-0.3761195
189	0xbefc32d8	-0.4925754
190	0x3d85f2a4	0.06540421
191	0x3db33f8d	0.08752356
192	0xbe871683	-0.26384363
193	0xbe735ac2	-0.2376509
194	0x3d2ef02a	0.042709507
195	0xbe1ac352	-0.15113571
196	0x3d1d734a	0.038440026
197	0x3e08f97d	0.13376422
198	0x3e35538d	0.17707653
199	0x3d71d47a	0.059040524
200	0x3d91a6c8	0.07111889
201	0x3bb4b420	0.0055146366
202	0xbd836d5d	-0.06417344
203	0xbea7a2a2	-0.32741266
204	0xbdd9942e	-0.10623966
205	0xbca9eb98	-0.020742223
206	0x3e291fd5	0.16516049
207	0xbe723a74	-0.2365511
208	0xbec27e32	-0.37986904
209	0xbe242e20	-0.1603322
210	0xbe406050	-0.1878674
211	0x3eee74a9	0.4657338
212	0xbee70a4a	-0.45125037
213	0xbf1d6f23	-0.61497706
214	0x3e1532ba	0.14570132
215	0xbe66534b	-0.22492711
216	0x3d1c54a1	0.038166646
217	0xbd84ffc5	-0.06494097
218	0xbe7d617a	-0.24744216
219	0x3e14c502	0.14528278
220	0x3e02755a	0.12740079
221	0xbe34fd44	-0.17674738
222	0xbdb15dd3	-0.08660474
223	0xbe8469b9	-0.2586191
224	0xbe3c3bf4	-0.18382245
225	0x3e4860f9	0.19568242
226	0xbe0c6b60	-0.13712835
227	0xbe07a762	-0.13247445
228	0x3e5b62b2	0.21424368
229	0x3e247af4	0.16062528
230	0xbdb7fd08	-0.08983809
231	0xbde4f17e	-0.111788735
232	0x3e57300b	0.2101442
233	0x3cfa1673	0.030528283
234	0xbdf80dc4	-0.121120006
235	0xbda5005e	-0.08056711
236	0xbc90e61e	-0.017687853
237	0xbe2ab17c	-0.16669267
238	0x3e0f5182	0.13995937
239	0x3f2993e3	0.6624128
240	0xbd9f586c	-0.07780537
241	0x3daa9133	0.08328476
242	0xbdb67d83	-0.08910658
243	0xbd059e2a	-0.03262154
244	0x3d4c3754	0.049857453
245	0xbd2565a6	-0.040380143
246	0xbc1efd15	-0.009703894
247	0x3ca626ba	0.020282138
248	0xbd9eb2fc	-0.07748982
249	0xbec0ffa9	-0.37695053
250	0xbcb23e56	-0.02175824
251	0xbc469468	-0.012120344
252	0x3d8c46a4	0.06849411
253	0xbed07f85	-0.4072229
254	0x3cbea9ca	0.023274321
255	0x3e84a065	0.2590362

actor.0.bias f4 [64]
0	0xbe636264	-0.22205502
1	0xbd37f3a4	-0.04491009
2	0x3d675dc7	0.056485917
3	0xbe023713	-0.12716322
4	0x3d7e3d53	0.062070202
5	0xbdd500a4	-0.10400513
6	0x3bd7e958	0.006589096
7	0xbe143c60	-0.14476156
8	0xbde93f8f	-0.11389076
9	0xbe34e46c	-0.17665261
10	0x3e202b55	0.1564153
11	0xbdbbdaeb	-0.09172615
12	0xbe5cb9f1	-0.21555306
13	0xbe3e6ccd	-0.18596192
14	0x3e014b84	0.12626463
15	0xbd98f622	-0.07468821
16	0xbe19a119	-0.1500286
17	0x3cdfbfb6	0.027313095
18	0x3d653ebb	0.055968028
19	0xbcce7e9f	-0.025206862
20	0xbe1f6606	-0.15566263
21	0xbe6569d6	-0.22403654
22	0x3d730830	0.05933398
23	0xbe571b05	-0.21006401
24	0xbe205dc2	-0.15660766
25	0x3db655b1	0.08903063
26	0xbd9a9547	-0.07548004
27	0xbe2de395	-0.16981347
28	0xbe269fa5	-0.16271837
29	0x3d82664f	0.0636717
30	0xbe1a8f7b	-0.15093796
31	0xbd8651f7	-0.06558602
32	0xbd0ef704	-0.03490354
33	0x3ddc8cbf	0.10769033
34	0xbe3a299b	-0.18179934
35	0x3df72940	0.12068415
36	0x3d144bc8	0.036205083
37	0xbda7c8c2	-0.081925884
38	0x3e25ddcd	0.16197892
39	0xbcd746e7	-0.026278926
40	0x3c3ba54a	0.011452982
41	0xbd1aae3f	-0.03776383
42	0x3daaa162	0.083315626
43	0x3d70ad99	0.058759306
44	0x3e276156	0.16345724
45	0x3ddd8e98	0.10818213
46	0xbe42d8f4	-0.19028074
47	0xbe4e55c3	-0.20149903
48	0x3d120ceb	0.03565685
49	0x3d31b85e	0.043388717
50	0x3d9d628f	0.07684814
51	0xbe1395ab	-0.14412563
52	0x3ddc0698	0.10743445
53	0x3e7582b3	0.23975639
54	0xbdee2a3b	-0.116291486
55	0xbe5c41c7	-0.21509467
56	0xbc4f2e5b	-0.012645329
57	0x3e291a3b	0.16513912
58	0x3ba93b86	0.0051645664
59	0xbe2e67b6	-0.1703175
60	0x3e26fca5	0.16307314
61	0xbe22a6be	-0.1588392
62	0x3e171e6e	0.14757702
63	0x3c90bbb0	0.017667621

actor.2.weight f4 [64, 64]
0	0x3b618c27	0.0034415813
1	0x3f18856c	0.59578586
2	0x3e0e55c4	0.13899904
3	0xbcd465f7	-0.025927527
4	0xbc953f4a	-0.018218655
5	0x3d7566ac	0.05991237
6	0x3e97dd37	0.2966096
7	0xbd0e84dc	-0.034794673
8	0x3eccf02f	0.40026996
9	0x3d8f541a	0.06998463
10	0x3e125229	0.14289154
11	0xbdb21738	-0.08695835
12	0xbd884ad4	-0.06654897
13	0x3e37f100	0.17963028
14	0x3e875ba5	0.26437107
15	0xbe759cf1	-0.2398565
16	0xba356e04	-0.00069209957
17	0xbddd890f	-0.108171575
18	0xbd47ac91	-0.048748557
19	0xbe351a5a	-0.17685834
20	0x3cacc76e	0.02109119
21	0x3e02244d	0.1270916
22	0xbd64a69c	-0.055822954
23	0xbe22874e	-0.15871927
24	0xbf0b377d	-0.54381543
25	0xbe41d5a0	-0.18929148
26	0xbd257903	-0.04039861
27	0xbc2120da	-0.009834493
28	0xbe922834	-0.28546298
29	0xbcce2ecb	-0.025168797
30	0xbd5e7dd2	-0.05431921
31	0x3cf58bcf	0.029973892
32	0x3d7527e2	0.05985249
33	0x3e131ede	0.14367244
34	0xbdd8521c	-0.10562536
35	0x3e2d252c	0.16908711
36	0xbdc37d68	-0.09545404
37	0x3d7c970d	0.06166749
38	0xbd52797a	-0.05138538
39	0xbe12e050	-0.14343381
40	0x3df3b5ad	0.11899886
41	0xbde51f1a	-0.11187573
42	0xbe4b23cd	-0.19837876
43	0xbe31892b	-0.17337482
44	0x3e03ef88	0.12884343
45	0x3ccc40ad	0.024933184
46	0x3dad3e4b	0.08459147
47	0x3dd8a560	0.10578418
48	0xbe5d59e7	-0.21616326
49	0x3d4db1c8	0.050218374
50	0x3eabac88	0.33530068
51	0xbea3464c	-0.3188957
52	0xbdfb3f66	-0.12267952
53	0x3e881370	0.2657733
54	0xbe7ffc72	-0.24998644
55	0x3e1aeb88	0.1512891
56	0xbda1f6ad	-0.07908378
57	0xbc0927e1	-0.008371324
58	0xbcf63ea5	-0.030059168
59	0x3c9cf6b2	0.019160602
60	0x3e51e73b	0.20498364
61	0x3e098724	0.13430458
62	0xbe4c76ba	-0.19967166
63	0x3e2cb8f8	0.16867435
64	0x3ece606a	0.40307933
65	0xbe86a524	-0.26297867
66	0x3e2e05e7	0.16994439
67	0x3d01986e	0.03163951
68	0xbd0a72cb	-0.03380088
69	0xbe07aa80	-0.13248634
70	0x3a435c9f	0.0007452461
71	0x3f3aa1f7	0.7290339
72	0x3e2b84e3	0.16749911
73	0xbc8d6e75	-0.017264584
74	0xbe83208d	-0.25610772
75	0xbd0974eb	-0.033558767
76	0xbe3ed1c8	-0.18634713
77	0x3e07cf76	0.13262734
78	0xbdf3487f	-0.11879062
79	0xbdd07a4e	-0.10179578
80	0x3d9fce7b	0.07803055
81	0x3f41ccb2	0.75702965
82	0xbe6c7dd2	-0.23094872
83	0x3ddca809	0.10774238
84	0xbeae503c	-0.3404559
85	0xbe2be116	-0.16785082
86	0xbdd339c3	-0.103137515
87	0xbdbed99a	-0.09318848
88	0xbeb63fb2	-0.3559547
89	0x3e893c8d	0.2680401
90	0xbd15acd7	-0.036541786
91	0x3dc98274	0.09839335
92	0x3dcef0a8	0.10104495
93	0x3e3be98e	0.18350813
94	0x3cffcb08	0.031224743
95	0x3ef52383	0.47878656
96	0x3eba97bc	0.3644389
97	0xbe1b07a3	-0.15139632
98	0x3ea811bb	0.32826027
99	0x3d95612f	0.07293927
100	0x3d2d2363	0.042270076
101	0x3f289439	0.6585117
102	0xbf263308	-0.6492162
103	0x3a8211ea	0.0009923552
104	0x3e0a8d78	0.13530529
105	0x3dead0a2	0.11465575
106	0x3e4feeca	0.20305935
107	0xbe016781	-0.1263714
108	0x3dca9019	0.09890766
109	0xbd98cdca	-0.07461126
110	0x3e3f2c78	0.18669307
111	0xbe94b93b	-0.2904757
112	0xbf102d00	-0.56318665
113	0xbd336901	-0.04380131
114	0x3b62c122	0.003459998
115	0x3e5c3094	0.21502906
116	0x3e7ca726	0.24673137
117	0xbd95c843	-0.073135875
118	0xbda0eac4	-0.07857278
119	0x3e2f171d	0.17098661
120	0xbf2b54ad	-0.6692608
121	0xbe044fbf	-0.12921046
122	0xbde1d6dc	-0.11027309
123	0xbeebbfec	-0.46044862
124	0x3e7222b5	0.23646052
125	0x3d90cd4a	0.07070406
126	0xbeefe1d8	-0.46851993
127	0xbe35275f	-0.176908
128	0x3e1d9fdb	0.15393011
129	0x3d171bb7	0.036891665
130	0x3e9941df	0.29933068
131	0x3e2446ed	0.16042681
132	0xbd8dcbb2	-0.069236174
133	0x3e5b6cc0	0.21428204
134	0xbd03f90d	-0.032219935
135	0x3cfaaabf	0.030598996
136	0x3e133545	0.1437579
137	0x3c2c26a8	0.010507263
138	0x3dc317d2	0.09526028
139	0xbcd69cf1	-0.026197882
140	0xbc648a7d	-0.013949034
141	0x3e8c6d50	0.2742715
142	0xbde3e455	-0.11127535
143	0x3e0d7e44	0.13817698
144	0xbd2cc857	-0.042183246
145	0x3cb1f252	0.021721993
146	0x3d1d498f	0.03840023
147	0xbd26d884	-0.04073383
148	0x3ead7a2e	0.33882278
149	0x3d81f5bf	0.063457005
150	0x3d465a89	0.048426185
151	0x3e19e63c	0.15029234
152	0xbdbb3a25	-0.091419496
153	0xbe222414	-0.15834075
154	0x3bea6f7c	0.0071544033
155	0x3e35aa7f	0.1774082
156	0xbe8456a9	-0.25847366
157	0xbe4f524a	-0.20246235
158	0xbde5d263	-0.11221769
159	0xbddd60f0	-0.10809505
160	0xbcce3325	-0.025170872
161	0x3cbccf2e	0.02304801
162	0xbd05c643	-0.03265978
163	0x3d42ba19	0.047540758
164	0xbe0db0a1	-0.1383691
165	0xbce6b04b	-0.028160235
166	0xbe3e1320	-0.18561983
167	0xbc371c23	-0.011176142
168	0xbcea4b63	-0.0286004
169	0x3e4082da	0.18799916
170	0xbc2f63d0	-0.0107049495
171	0x3da28358	0.07935208
172	0x3d8cc418	0.068733394
173	0xbe684363	-0.22681956
174	0xbc4ef7f4	-0.012632359
175	0x3e0ada98	0.1355995
176	0xbd346bcf	-0.044048127
177	0x3dde7c15	0.108635105
178	0x3d65073c	0.055915102
179	0xbd01c4db	-0.031681877
180	0xbe02ea92	-0.12784794
181	0x3e180b96	0.1484817
182	0xbd9e8d4b	-0.07741793
183	0x3e3db13a	0.18524638
184	0x3e271b4d	0.16319008
185	0xbcd12461	-0.025530042
186	0x3eb2eb25	0.34945026
187	0x3e406f4e	0.1879246
188	0xbd780da1	-0.060559873
189	0xbdaefb05	-0.08543972
190	0x3dc2c910	0.09511006
191	0x3e37dccc	0.17955321
192	0x3dfe2053	0.12408509
193	0xbebf0425	-0.3730785
194	0xbec85b11	-0.39131978
195	0xbe024955	-0.12723286
196	0xbca25fab	-0.019821009
197	0x3d08aa13	0.03336532
198	0x3d00674b	0.031348508
199	0x3dd145e8	0.10218412
200	0x3e026a04	0.12735754
201	0x3d818bdb	0.063255034
202	0xbdf3e019	-0.119079776
203	0xbe8ecae1	-0.2788916
204	0xbd456667	-0.04819336
205	0xbe9bae9e	-0.3040666
206	0x3d9dd3d6	0.0770642
207	0x3e2e2f40	0.17010212
208	0xbe0b2433	-0.13588028
209	0x3ca4422d	0.020051086
210	0x3e517c55	0.20457585
211	0xbd8d7db2	-0.0690874
212	0xbe4b649f	-0.19862603
213	0xbec4f2f5	-0.38466612
214	0x3e1b9dd7	0.1519693
215	0xbdac29dd	-0.08406422
216	0xb9f062e5	-0.0004585005
217	0x3d90fd55	0.07079569
218	0x3e30789d	0.1723351
219	0xbe2d85e8	-0.16945612
220	0x3e841663	0.2579833
221	0xbe1f539b	-0.15559237
222	0x3e2c1106	0.16803369
223	0xbe1553d8	-0.14582765
224	0x3e9165be	0.28397936
225	0xbe4faa09	-0.20279707
226	0x3d59fb5e	0.053218238
227	0xb976b3fe	-0.0002352744
228	0x3ce96f95	0.02849559
229	0xbe24708c	-0.16058558
230	0xbc9235f2	-0.017847989
231	0xbd159532	-0.036519237
232	0xbebbd611	-0.36686757
233	0x3e17aa0c	0.14810961
234	0xbcd18376	-0.02557538
235	0x3da8a53a	0.082346395
236	0x3b7a75f7	0.0038217285
237	0x3dc3a5c2	0.095531
238	0x3e463abc	0.19358343
239	0x3e60a6a7	0.21938573
240	0xbd619a52	-0.055078812
241	0xbdc1bc5c	-0.09459755
242	0x3d37015a	0.044679023
243	0x3d0da4b1	0.03458089
244	0x3d4b1ab0	0.049585998
245	0x3c3de3ba	0.011589939
246	0xbcd060dc	-0.025436811
247	0xbccf5b17	-0.02531199
248	0x3dd400a1	0.103516825
249	0x3e020562	0.12697366
250	0xbdaa4ff8	-0.08316034
251	0xbe38392d	-0.17990561
252	0xbcd8364b	-0.026393076
253	0x3daeed0d	0.085413076
254	0x3e032f79	0.12811078
255	0xbea6588f	-0.3248944

actor.2.bias f4 [64]
0	0x3d9eaec5	0.077481784
1	0xbe52286e	-0.20523235
2	0x3ddd4b06	0.10805325
3	0x3d409a7a	0.04702232
4	0xbe1854eb	-0.14876144
5	0xbd5513a7	-0.052020695
6	0xbdf783a2	-0.12085654
7	0x3a025d2e	0.00049729913
8	0xbdf7b852	-0.12095703
9	0xbb813257	-0.0039427686
10	0x3d906c02	0.07051851
11	0xbda49723	-0.080366395
12	0x3cd3c9d8	0.025853083
13	0x3dc1a229	0.09454758
14	0xbd614286	-0.054995082
15	0x3d5a012f	0.053223785
16	0xbe1cbd3f	-0.15306567
17	0xbd0fa034	-0.03506489
18	0x3e2df9ec	0.16989869
19	0x3da2b560	0.07944751
20	0x3cd02757	0.025409384
21	0x3d99d533	0.07511368
22	0xbcf3fe8a	-0.02978446
23	0xb8fb98ae	-0.000119970515
24	0xbc68678d	-0.014184845
25	0xbbf33b70	-0.007422857
26	0x3cefac0c	0.029256843
27	0xbe520980	-0.20511436
28	0x3d7aaff4	0.06120296
29	0x3d88f5cc	0.06687507
30	0xbca7ed1d	-0.020498807
31	0x3e09f597	0.13472591
32	0xbd89cc34	-0.06728402
33	0x3de3cf9a	0.11123581
34	0xbd099909	-0.03359321
35	0xbcee03fa	-0.02905463
36	0x3e214f21	0.15752842
37	0x3d0d1566	0.034444235
38	0x3e802f71	0.25036195
39	0x3d0692e5	0.032854933
40	0xbe1e53b4	-0.15461618
41	0xbd132c1c	-0.035930738
42	0xbe251a5e	-0.1612334
43	0x3dc52060	0.09625316
44	0xbd5ae2a7	-0.05343881
45	0x3d79d269	0.06099168
46	0x3df90299	0.121586986
47	0xbdcfcec0	-0.10146856
48	0x3e0aa543	0.13539605
49	0x3be3f4b7	0.0069566625
50	0xbd4a41da	-0.049379207
51	0xbd36b592	-0.044606753
52	0x3d989235	0.07449762
53	0xbd94e2a8	-0.07269794
54	0xbdd9887b	-0.10621735
55	0x3def0919	0.11671657
56	0x3cfc2988	0.030781522
57	0x3e5d52f9	0.21613683
58	0x3dad12f9	0.08450884
59	0x3d47878f	0.048713263
60	0xbdb6f4c3	-0.08933403
61	0x3d3c9ec5	0.046049852
62	0x3dd49ff0	0.10382068
63	0x3d5c6030	0.05380267

actor.4.weight f4 [6, 64]
0	0x3e9d6f45	0.30748954
1	0xbd463dca	-0.04839877
2	0x3dfbfb4c	0.123037905
3	0xbe3371e1	-0.1752391
4	0x3df0db14	0.11760536
5	0x3f39ea3b	0.7262303
6	0x3dcb650f	0.09931385
7	0x3d1806af	0.03711575
8	0xbced053d	-0.028933162
9	0xbe0d1b0e	-0.13779852
10	0x3e479255	0.19489415
11	0xbd6c29b6	-0.057656966
12	0x3ea7fcd8	0.32810092
13	0xbe8fa94a	-0.28058845
14	0xbe0e0e57	-0.13872658
15	0xbe780cb5	-0.24223597
16	0xbe81b845	-0.253359
17	0xbe7ca259	-0.24671306
18	0xbe39be3c	-0.18138975
19	0x3efee049	0.4978049
20	0xbeec92c1	-0.46205714
21	0xbe153a1c	-0.14572948
22	0x3e7586e0	0.23977232
23	0xbdb701d4	-0.089358956
24	0xbdafe960	-0.085894346
25	0x3d75818d	0.059938002
26	0xbe14e656	-0.14540991
27	0x3d9152a2	0.07095839
28	0xbe9f0971	-0.3106189
29	0x3df5e861	0.120072134
30	0xbe175ed9	-0.14782275
31	0xbed551ca	-0.41663963
32	0x3e38cdf6	0.18047318
33	0x3cfe74c5	0.03106154
34	0xbeda017c	-0.42579257
35	0x3e737869	0.23776402
36	0xbee9c903	-0.45661172
37	0xbeec50d0	-0.46155405
38	0x3dfe46a4	0.124158174
39	0x3e486153	0.19568376
40	0xbe1009b7	-0.14066206
41	0x3b62269f	0.0034507883
42	0x3edecaaa	0.43513995
43	0x3e19c991	0.15018298
44	0x3e68a170	0.22717834
45	0xbec39cc9	-0.38205555
46	0x3e918b72	0.284267
47	0x3dbcf35c	0.092261046
48	0xbe0d1193	-0.13776235
49	0xbd96aee3	-0.07357576
50	0x3e7b2997	0.24527584
51	0x3edfb1ae	0.43690246
52	0x3d0818ed	0.033226896
53	0xbdb467f7	-0.08808892
54	0xbe824b8c	-0.25448263
55	0xbe8e79e1	-0.2782736
56	0xbc3c1db0	-0.011481687
57	0xbe2d9534	-0.16951448
58	0x3f2be967	0.6715302
59	0x3e11ed99	0.14250793
60	0xbe49abb1	-0.19694401
61	0xbe72c88d	-0.23709317
62	0x3e6fbef4	0.23412687
63	0x3e9c6e4c	0.305529
64	0xbe97881f	-0.2959604
65	0x3ca7bb7b	0.02047514
66	0x3d9c1562	0.07621266
67	0xbe7b3f06	-0.2453576
68	0x3e881d51	0.26584867
69	0xbdfe1224	-0.12405804
70	0xbdd86f36	-0.10568087
71	0xbe6af912	-0.22946575
72	0x3e5fc8d5	0.21853955
73	0xbf069494	-0.5257046
74	0xbd96679e	-0.07343982
75	0x3eb25bda	0.34835702
76	0xbd070444	-0.032963052
77	0xbe838a27	-0.2569134
78	0x3e271c60	0.16319418
79	0x3d8926ba	0.0669684
80	0xbe373e17	-0.17894779
81	0x3d7e5c0a	0.062099494
82	0xbd13780f	-0.03600317
83	0xbe74ccac	-0.23906201
84	0xbea1891e	-0.31549925
85	0x3e987359	0.29775503
86	0xbe873304	-0.2640611
87	0xbebbbab5	-0.36665884
88	0xbe7be0ea	-0.24597517
89	0x3d0c8baa	0.03431288
90	0x3e3df8cb	0.18551938
91	0xbd33e142	-0.043915994
92	0x3f00de55	0.5033925
93	0x3ee52980	0.44758224
94	0xbd8b31c5	-0.06796602
95	0xbe96df15	-0.29467073
96	0x3eb4bc24	0.3529979
97	0xbd852bec	-0.06502518
98	0x3ec0979a	0.37615663
99	0x3ca5ddf9	0.020247446
100	0xbd91a1fe	-0.07110976
101	0xbe8f6882	-0.2800942
102	0x3dc8cdc3	0.09804871
103	0x3ee9af91	0.4564176
104	0x3efc943e	0.4933185
105	0xbe2bd0f1	-0.16778924
106	0x3e07f9dd	0.13278909
107	0xbe972bec	-0.29525697
108	0x3e0042d2	0.1252549
109	0x3ec0d196	0.376599
110	0xbe53b814	-0.20675689
111	0x3e75c5c4	0.24001223
112	0xbe66ef48	-0.22552216
113	0x3e80eee2	0.25182253
114	0x3f07cc5d	0.5304621
115	0x3ebe83bc	0.3720988
116	0x3e8bf4ff	0.27335355
117	0xbe6a9883	-0.22909741
118	0xbe18851d	-0.14894529
119	0x3e11a569	0.14223255
120	0xbc02816b	-0.007965426
121	0xbe40c426	-0.18824825
122	0xbe4209b7	-0.18949018
123	0x3ea57518	0.32315898
124	0xbe8af912	-0.2714315
125	0x3db9d5e2	0.09073998
126	0xbebe93a4	-0.37222016
127	0x3e86c727	0.26323816
128	0xbd821ddb	-0.06353351
129	0x3ebcd755	0.36883035
130	0x3e687d87	0.22704135
131	0xbe236280	-0.15955544
132	0xbe27d0d8	-0.16388261
133	0x3e780194	0.24219352
134	0x3e4e9f13	0.2017787
135	0x3cc9e04a	0.024643082
136	0x3eb1b069	0.34704903
137	0x3dae0891	0.08497728
138	0xbe828304	-0.25490582
139	0xbead04ef	-0.33792827
140	0x3e9e35bc	0.3090037
141	0xbdb09107	-0.08621412
142	0x3e6c2c2c	0.23063725
143	0x3d866af9	0.06563372
144	0xbe84b914	-0.25922453
145	0x3e9b578c	0.3034023
146	0x3eb72a13	0.35774288
147	0xbd2d6e8b	-0.04234175
148	0xbc790dbb	-0.0152010275
149	0x3db1c70a	0.08680542
150	0xbeed7bf0	-0.4638362
151	0xbe7867ef	-0.24258398
152	0xbe8a4f60	-0.27013683
153	0xbdcb3632	-0.09922446
154	0x3ea211fb	0.31654343
155	0x3d85f254	0.06540361
156	0x3ea053ab	0.31313834
157	0xbd132855	-0.035927135
158	0x3e660d01	0.22465898
159	0xbe13cc5b	-0.14433424
160	0x3e541ec3	0.2071486
161	0xbe5ba87f	-0.21450995
162	0x3d0baf79	0.03410289
163	0xbd7f7c14	-0.06237419
164	0x3e99ed4a	0.3006385
165	0x3e0dfb17	0.13865314
166	0xbea963e3	-0.3308402
167	0x3c8526f6	0.01625393
168	0x3ed78253	0.42091617
169	0xbe58a8b3	-0.21158104
170	0xbeb32e36	-0.34996194
171	0x3e86cca6	0.2632801
172	0x3e6916ac	0.22762555
173	0xbdcb59e1	-0.099292524
174	0xbe085636	-0.13314137
175	0xbf0c6b2a	-0.5485102
176	0xbeeeffdc	-0.4667958
177	0x3e59d95f	0.21274327
178	0xbe5768d7	-0.21036087
179	0xbd62a782	-0.05533553
180	0xbf0d3a0f	-0.55166715
181	0xbdd7221a	-0.10504551
182	0x3e52f231	0.20600201
183	0xbd1806f3	-0.037116002
184	0x3e26b44a	0.16279712
185	0xbe8cca40	-0.27498055
186	0x3e81d152	0.2535501
187	0xbe85e674	-0.26152384
188	0xbe55a18b	-0.20862405
189	0xbe50ad88	-0.20378697
190	0x3d3b5b67	0.045741465
191	0x3e108929	0.14114822
192	0x3e53d307	0.2068597
193	0x3bc7c772	0.006096774
194	0xbd30bff9	-0.04315183
195	0x3daa8b31	0.0832733
196	0x3ebac79a	0.3648041
197	0x3d5ab752	0.053397484
198	0xbe1366ae	-0.14394638
199	0xbe7e343c	-0.24824613
200	0x3d7c4a5f	0.061594363
201	0xbbaa5396	-0.0051979525
202	0x3e87c509	0.26517513
203	0x3d34deae	0.044157676
204	0x3e6dd71c	0.23226589
205	0xbe66b6df	-0.22530697
206	0x3d114a93	0.03547151
207	0x3e96701a	0.29382402
208	0x3dd58451	0.10425628
209	0xbea2dc7b	-0.31808838
210	0x3edf1c02	0.43576056
211	0x3ca3bfc4	0.019988902
212	0x3dd41410	0.10355389
213	0x3e7ed717	0.24886738
214	0x3e9a3a75	0.30122724
215	0x3ede2edb	0.43395123
216	0xbedd12df	-0.4317846
217	0xbe519595	-0.20467217
218	0x3ddced5a	0.10787459
219	0x3f146311	0.57963663
220	0x3e3abb08	0.1823541
221	0xbe2e1ef4	-0.17003995
222	0xbe67bf69	-0.22631611
223	0xbe740a2d	-0.23832007
224	0x3f0af9fc	0.54287696
225	0x3e1e5be0	0.15464735
226	0x3f02523a	0.5090672
227	0xbc58f926	-0.013242995
228	0xbc4207f6	-0.011842718
229	0x3e4dd167	0.20099412
230	0xbea6fc6a	-0.32614452
231	0x3c828cac	0.015936218
232	0xbe07c139	-0.13257302
233	0xbf28136f	-0.65654653
234	0x3d749788	0.059714824
235	0x3df59d10	0.11992848
236	0xbb890527	-0.0041815224
237	0x3e8fdf40	0.28100014
238	0xbcf6033a	-0.030030835
239	0x3e4799df	0.19492291
240	0xbea5892f	-0.32331225
241	0xbe975563	-0.29557332
242	0x3dd983b1	0.10620821
243	0x3f2b6959	0.6695762
244	0x3cf3f815	0.02978138
245	0xbf06c5ea	-0.5264574
246	0xbc0fe91b	-0.008783604
247	0xbea09ef6	-0.31371278
248	0xbe734da2	-0.23760083
249	0x3cf90033	0.030395603
250	0xbe4f5072	-0.20245531
251	0x3ed0403a	0.40674
252	0x3db3813b	0.08764883
253	0x3e8cb0dc	0.27478683
254	0xbeccb041	-0.3997822
255	0xbd3c617d	-0.04599141

actor.4.bias f4 [6]
0	0x3e26ae03	0.16277318
1	0xbdb833cf	-0.08994257
2	0x3d215d3c	0.039395556
3	0x3e437bb6	0.1909016
4	0x3e42b28d	0.19013424
5	0x3d551a01	0.052026752

critic.0.weight f4 [64, 22]
0	0xbfc87441	-1.5660478
1	0x3db57faf	0.08862244
2	0x3e74c5e1	0.2390361
3	0x3e9ce0b0	0.30640173
4	0xbe11aa9b	-0.14225237
5	0xbea13b4e	-0.31490558
6	0x3df5ec82	0.12008001
7	0x3f37f70e	0.7186135
8	0xbf47f3dd	-0.7810648
9	0xbf82bcc5	-1.0213858
10	0xc00d6c6b	-2.2097423
11	0xbf8b27b3	-1.087149
12	0xbec10029	-0.37695435
13	0xbe2a2199	-0.16614379
14	0xbf3094ef	-0.68977255
15	0x3eb3e30e	0.35134166
16	0xbfd8a4d5	-1.6925303
17	0xbe82a2ed	-0.25514928
18	0xbe260d93	-0.16216116
19	0x3df65c60	0.12029338
20	0xbe0d3959	-0.13791408
21	0xbcba2983	-0.022724872
22	0xbfa70457	-1.30482
23	0x3cbed8eb	0.023296794
24	0xbe5dfd9f	-0.2167878
25	0xbeefc30f	-0.46828505
26	0xbdfd5c45	-0.12371115
27	0xbe9d213a	-0.30689412
28	0x3c5700db	0.013122763
29	0xbe830829	-0.25592163
30	0xbf8b7418	-1.0894804
31	0xbe504dce	-0.2034218
32	0xbf79220a	-0.97317564
33	0xbd907a43	-0.070545696
34	0xbeba5d01	-0.3639908
35	0xbe64f245	-0.22358043
36	0x3f3e9c59	0.7445732
37	0x403e9a04	2.9781504
38	0xc04ff88f	-3.2495458
39	0x3f9a6605	1.2062384
40	0x3eed7aa0	0.46382618
41	0xbf6d56dc	-0.9271066
42	0x3e77e3fd	0.24208064
43	0xbd106879	-0.035255883
44	0x3f769119	0.9631515
45	0xbd1faf1b	-0.038985353
46	0x3f0c6e42	0.5485574
47	0xbe2de9cf	-0.16983722
48	0x3da6c637	0.08143275
49	0xbe17ff74	-0.14843541
50	0x3d622de1	0.055219535
51	0x3ebe661f	0.37187287
52	0x3f240145	0.6406444
53	0xbfe3ef0a	-1.7807324
54	0xbf78bb79	-0.9716106
55	0xbf1beaf6	-0.60905397
56	0x3fb67e69	1.4257327
57	0xbd2cd3fd	-0.042194355
58	0xbf251130	-0.6447935
59	0x403ae3f9	2.9201643
60	0xbdd2c163	-0.10290792
61	0x3fe44f7e	1.7836759
62	0xbe48f878	-0.19626033
63	0xbe166503	-0.1468697
64	0x3e0068ca	0.12539974
65	0x3d44da89	0.048059974
66	0x3ee64baf	0.44979617
67	0xbe23d303	-0.15998463
68	0xbf2f1b13	-0.68400687
69	0xbeb7388b	-0.35785326
70	0xbd17cd00	-0.037060738
71	0xbea9a25a	-0.33131677
72	0xbce31e57	-0.027724428
73	0xbf2d86b8	-0.6778369
74	0xbfc7687d	-1.5578762
75	0x3f2d856f	0.6778173
76	0x3f56d223	0.83914393
77	0x3e70bdd2	0.2350991
78	0xbf09fece	-0.53904426
79	0xbf7bae9e	-0.9831332
80	0x3ffcb37b	1.9742273
81	0x3f449b17	0.7679915
82	0x3ef3b306	0.47597522
83	0x3e221e9f	0.15831994
84	0xbd8451bb	-0.06460901
85	0x3e17b817	0.14816318
86	0xbd35e943	-0.04441191
87	0xbdcb6114	-0.099306256
88	0x3eb6c17a	0.35694486
89	0xbe43329c	-0.19062275
90	0x3f45010f	0.7695474
91	0x3d1954ad	0.03743427
92	0x3e26398f	0.16232894
93	0x3ea5a385	0.32351318
94	0x3df7a68a	0.12092312
95	0x3f78b40c	0.9714973
96	0xbf04a572	-0.5181495
97	0xbf967e82	-1.1757357
98	0x3ecb5b6f	0.39718196
99	0x3d6e523c	0.058183894
100	0xbe86bfcf	-0.26318213
101	0xbe4e3d55	-0.20140584
102	0xbef6bf02	-0.48192602
103	0x3dd51473	0.10404291
104	0xbe777fb7	-0.24169813
105	0xbea72583	-0.32645807
106	0xbe348553	-0.17628984
107	0xbe1df886	-0.15426835
108	0x3cbbbe17	0.02291779
109	0x3e9d7132	0.30750424
110	0xbe703271	-0.23456742
111	0x3e36e3e7	0.17860375
112	0x3f965fc5	1.1747977
113	0x3f0bb886	0.54578435
114	0x3c922705	0.017840872
115	0x3f0c16ca	0.54722273
116	0x3ddb790d	0.10716448
117	0x3f68a0a2	0.90870106
118	0x3cbf654c	0.023363732
119	0xbe793342	-0.2433596
120	0x3d8b84f5	0.06812469
121	0x3e7c8aa7	0.24662267
122	0x3c077cf3	0.008269536
123	0x3f48982f	0.78357214
124	0x3e0df2af	0.13862108
125	0xc0146b58	-2.3190517
126	0xbf146079	-0.57959706
127	0xbf382cdb	-0.71943444
128	0x3eed194e	0.46308368
129	0xbd9fc0f1	-0.078004725
130	0xbe5c1535	-0.21492465
131	0xbd44e327	-0.04806819
132	0xbf1e80aa	-0.61915076
133	0x3e0f974c	0.14022559
134	0x3e51fb62	0.20506051
135	0x3c8681ff	0.016419409
136	0xbe3a3716	-0.18185076
137	0xbe9ab402	-0.3021546
138	0x3d753827	0.059868004
139	0x3d0e6205	0.034761447
140	0xbf6099a3	-0.8773443
141	0xbf0ea38a	-0.5571829
142	0xbfc9c958	-1.576457
143	0x3f35e96c	0.710593
144	0xbf4fe1b5	-0.81203777
145	0xbe2ee6ee	-0.1708028
146	0xbea055c2	-0.31315428
147	0x3f27b35f	0.65508074
148	0xbeee568a	-0.465504
149	0x3ef6c48e	0.48196834
150	0xbeccebce	-0.40023655
151	0x3f1ff8ca	0.62488997
152	0xbde385b9	-0.1110949
153	0xbd8e72da	-0.069555
154	0x3ee67c82	0.45016867
155	0xbc9aa693	-0.018878257
156	0xbf612764	-0.8795073
157	0x3e044212	0.12915829
158	0xbdee8bc3	-0.11647751
159	0xbe97fd3d	-0.29685393
160	0xbcea37aa	-0.028590996
161	0xbf3661e0	-0.71243095
162	0xbf86afd9	-1.0522414
163	0x3fbabf6c	1.4589667
164	0x3eb5848f	0.35452697
165	0x3f0dff95	0.5546811
166	0xbf78b74e	-0.971547
167	0xbdb065b6	-0.0861315
168	0x3fc903d2	1.5704291
169	0xbf73dfe1	-0.9526349
170	0x3f4ba967	0.7955536
171	0xbe1e872d	-0.15481253
172	0x3e64fdb8	0.22362411
173	0xbdfde99c	-0.12398073
174	0xbe1da588	-0.15395176
175	0xbe9051b1	-0.28187326
176	0x3fdd1bb2	1.7274077
177	0x3e4305ef	0.19045232
178	0x3f06b875	0.5262521
179	0xbf34af27	-0.7057976
180	0xbc6853dc	-0.01418015
181	0x3f291a13	0.6605541
182	0x3de0b4ac	0.109719604
183	0x3f1895ff	0.59603876
184	0x3f7e2f97	0.99291366
185	0xbe9e4c01	-0.3091736
186	0xbe97a40e	-0.2961735
187	0x3dc05f84	0.09393218
188	0x3e8f514e	0.27991718
189	0x3ef896e2	0.48552614
190	0x3fd902c8	1.6953974
191	0x3f6004dd	0.8750742
192	0x3fdcd5a1	1.7252694
193	0x3f3b4ec8	0.73167086
194	0x3e2fe77c	0.17178148
195	0xbed96250	-0.4245782
196	0x3e938ab3	0.28816757
197	0xbdbc8c31	-0.09206427
198	0x3e0f397a	0.1398677
199	0xbc57ed15	-0.013179083
200	0x3f1622df	0.5864696
201	0x3e82c509	0.2554095
202	0xbe10c484	-0.14137465
203	0xbefc8178	-0.49317527
204	0xbe0b22bd	-0.1358747
205	0x3fd6b23c	1.6773143
206	0x3caba08d	0.02095058
207	0xbf7fa5f5	-0.99862605
208	0x3e6b1834	0.22958452
209	0xbe23bc85	-0.15989883
210	0xbeaae42d	-0.3337721
211	0xbe5ee554	-0.21767169
212	0xbeee494d	-0.465403
213	0xbe97adae	-0.29624695
214	0xbee72704	-0.45146954
215	0x3e9b7064	0.30359185
216	0xbeafe017	-0.34350654
217	0xbd324f12	-0.04353244
218	0xbebee609	-0.37284878
219	0x3dc64642	0.09681369
220	0x3faa3c31	1.3299619
221	0x3e455246	0.19269666
222	0xbf628dab	-0.8849742
223	0xbeb84979	-0.35993555
224	0x3db3fc3f	0.087883465
225	0x3e824042	0.2543965
226	0xbde42d30	-0.11141431
227	0x3eb0cd0b	0.34531435
228	0xbf779e61	-0.9672604
229	0x3c07fa86	0.008299476
230	0xbee329f3	-0.44367942
231	0x3f9aec56	1.2103374
232	0xbf6bb720	-0.920763
233	0x3e971a47	0.29512236
234	0x3f3cdc84	0.7377398
235	0x3f3b430b	0.73149174
236	0x3ef68e3c	0.4815539
237	0x3d0b3bcc	0.033992574
238	0xbf43b380	-0.7644577
239	0xbe9d05e8	-0.3066857
240	0xbe58a6e0	-0.21157408
241	0x3e0ee96e	0.13956234
242	0x3fdb1e25	1.7118574
243	0xbe08856c	-0.13332146
244	0xbea30208	-0.31837487
245	0xbe27ba4c	-0.1637966
246	0x3e48476e	0.19558498
247	0x3e96c32a	0.29445773
248	0x3e16cc37	0.1472634
249	0xbe7ed8e2	-0.24887422
250	0x3efdd944	0.49579823
251	0x3e8e388f	0.27777526
252	0x40021b95	2.0329335
253	0xbe84fc5d	-0.25973788
254	0x3f6c994d	0.9242142
255	0xbeaf31cf	-0.34217688

critic.0.bias f4 [64]
0	0x3d58a9b8	0.05289623
1	0xbed66a33	-0.418779
2	0x3f0706f8	0.5274501
3	0xbf4df961	-0.80458647
4	0x3f5ccf0e	0.8625344
5	0x3f7ebe19	0.99508816
6	0x3e494222	0.19654134
7	0xbf48c3b8	-0.78423643
8	0x3e8e89db	0.2783955
9	0x3f3699aa	0.7132822
10	0xbf577c43	-0.84173983
11	0xbebbc076	-0.36670274
12	0xbf48c844	-0.7843058
13	0x3ec4a833	0.38409576
14	0x3e792a26	0.24332485
15	0xbec5185a	-0.3849514
16	0xbf7ea907	-0.99476665
17	0x3f2c3883	0.6727373
18	0x3da938c3	0.082627796
19	0x3d6c9bcc	0.057765767
20	0x3e9c6010	0.3054204
21	0x3eb98b0d	0.362389
22	0x3f43d9b8	0.7650409
23	0xbf316c1a	-0.69305575
24	0xbe07dc5e	-0.13267657
25	0x3e73c267	0.23804627
26	0x3dca4406	0.09876256
27	0xbd1c07a3	-0.03809322
28	0xbeb66bd6	-0.35629147
29	0xbf6b22d6	-0.9185003
30	0xbe9f0db3	-0.3106514
31	0x3f0264b4	0.5093491
32	0xbe9421c0	-0.28932
33	0x3d181a83	0.03713466
34	0x3f0d88bb	0.5528676
35	0xbf780a4d	-0.9689072
36	0x3f9e0dad	1.2347924
37	0xbed223b5	-0.41042867
38	0x3e8b88fd	0.2725295
39	0xbd6f5f83	-0.058440696
40	0x3e61f1fc	0.22064966
41	0xbe6ab273	-0.22919635
42	0xbf9a00db	-1.2031511
43	0xbeae0c03	-0.3399354
44	0x3f56fb43	0.83977145
45	0x3ee66364	0.44997704
46	0x3f4e440a	0.8057257
47	0xbe8a2458	-0.26980853
48	0xbf977242	-1.1831744
49	0x3d07cd34	0.03315468
50	0xbf8bf5f5	-1.0934435
51	0x3e714051	0.23559691
52	0x3e16c8e5	0.14725073
53	0xbe9454b1	-0.28970864
54	0xbeffb9f1	-0.4994655
55	0x3f8a8d0d	1.0824295
56	0x3eccd924	0.40009415
57	0x3f488934	0.78334355
58	0x3f50d36c	0.81572604
59	0x3f4f9f50	0.81102467
60	0x3f366717	0.7125105
61	0x3ed18677	0.409229
62	0x3f0f00af	0.5586042
63	0xbf450f5f	-0.7697658

critic.2.weight f4 [64, 64]
0	0xbecadeb7	-0.39623043
1	0xbed53c29	-0.4164746
2	0x3f8034cd	1.0016114
3	0xbf92fb65	-1.148297
4	0x3db7edfd	0.089809395
5	0x3eba498c	0.36384237
6	0xbf1877a0	-0.59557533
7	0xbf88a417	-1.0675076
8	0xbd32f1c7	-0.043687608
9	0xbdab10af	-0.083527915
10	0xbf314efc	-0.69261146
11	0x3f2e768d	0.68149644
12	0x3eddaa0b	0.43293795
13	0x3f235270	0.63797665
14	0x3eda7508	0.42667413
15	0x3eaca16b	0.33716902
16	0xbe20664f	-0.15664028
17	0x3e1e0377	0.15431009
18	0x3eaab02c	0.33337533
19	0xbddcd43b	-0.10782667
20	0xbbab9935	-0.0052367696
21	0x3f1a015d	0.6015833
22	0x3f761cc5	0.9613765
23	0x3e09cec0	0.13457775
24	0xbf776839	-0.96643406
25	0xbf30aed2	-0.69016755
26	0xbeeb31c5	-0.4593641
27	0xbe54373d	-0.20724197
28	0xbc2acac5	-0.010424321
29	0xbe9bd25c	-0.3043393
30	0x3eb81e63	0.35960683
31	0x3f4d3dd0	0.80172443
32	0x3ef6c0f3	0.48194084
33	0x3ebf2f76	0.37340897
34	0xbe9ecfbd	-0.31017867
35	0x3e2866b7	0.16445433
36	0xbd91d3d5	-0.07120482
37	0x3e7fbd7b	0.24974625
38	0xbe9a5457	-0.3014247
39	0x3f491ea1	0.7856236
40	0x3de899c8	0.113574564
41	0x3f3e7054	0.7439015
42	0xbefcac07	-0.49349996
43	0x3d732877	0.059364762
44	0xbd0a1a66	-0.03371658
45	0x3e34a896	0.17642435
46	0xba890d3c	-0.0010456215
47	0xbe5ce310	-0.21570992
48	0x3dc4ca65	0.09608916
49	0xbe1e1da8	-0.15441
50	0xbee93502	-0.45548254
51	0x3f18f49c	0.59748244
52	0x3e233654	0.15938693
53	0xbe5dfd80	-0.21678734
54	0xbf048c99	-0.51777035
55	0x3ebbb3ff	0.36660764
56	0x3f4dba4b	0.80362386
57	0x3f958d6e	1.1683786
58	0xbe5ff04a	-0.21869007
59	0x3f64168c	0.89096904
60	0x3e5f2d8f	0.21794723
61	0x3b97a942	0.0046283314
62	0x3f18b3dd	0.5964945
63	0xbec1a13d	-0.37818328
64	0x3f16a7a3	0.58849543
65	0xbd8d26c6	-0.06892161
66	0xbe45fd5b	-0.19334929
67	0xbd8c7c2b	-0.06859621
68	0xbd8b682a	-0.06806977
69	0x3f780f09	0.9689794
70	0xbdf82ea0	-0.12118268
71	0xbf87bc1a	-1.0604279
72	0xbf106e9a	-0.56418765
73	0x3e8a1cc3	0.26975068
74	0xbf83b1f3	-1.0288681
75	0xbf0ec79c	-0.5577333
76	0xbf69bda7	-0.9130501
77	0x3fb56b32	1.4173338
78	0xbeae5e33	-0.34056243
79	0x3eb4a6df	0.35283563
80	0xbf879823	-1.0593303
81	0x3fde450b	1.736482
82	0xb9fcf1e2	-0.00048245402
83	0xbe160875	-0.14651664
84	0xbed20eaa	-0.41026813
85	0x3ebc30c4	0.36755955
86	0xbe4eac65	-0.20182951
87	0xbf101f0e	-0.56297386
88	0x3e2162cd	0.15760346
89	0x3f33ff60	0.70311546
90	0xbe003836	-0.12521443
91	0x3f82ccb7	1.0218724
92	0xbf0a971c	-0.54136825
93	0xbf638c80	-0.8888626
94	0xbf2b897a	-0.6700665
95	0x3e526a46	0.20548353
96	0x3da5acf0	0.08089626
97	0xbf125057	-0.5715384
98	0x3f228b9c	0.63494277
99	0xbf9e520b	-1.2368788
100	0x3f866395	1.049914
101	0xbdc41a55	-0.09575335
102	0x3efe7601	0.49699405
103	0xbea22c77	-0.3167455
104	0x3edf3bf9	0.43600443
105	0x3e5291f1	0.20563485
106	0xbf2e2d62	-0.68038
107	0x3ec83a46	0.3910696
108	0x3f4baa6c	0.7955692
109	0x3a020165	0.0004959314
110	0xbe556f1b	-0.20843165
111	0xbfa09e70	-1.2548351
112	0xbf48c113	-0.7841961
113	0x3ed640a3	0.4184619
114	0xbf80943f	-1.0045241
115	0x3f387181	0.72048193
116	0x3f57f96e	0.84364974
117	0xbf3f886b	-0.7481753
118	0x3d6ef86f	0.058342393
119	0x3f956fa9	1.1674701
120	0x3f28b5be	0.65902317
121	0x3f94a2f2	1.1612227
122	0x3f8482ea	1.0352452
123	0x3f8490e7	1.0356721
124	0x3ed9d89f	0.4254808
125	0x3f4e5bef	0.8060903
126	0x3e047129	0.12933792
127	0xbf630094	-0.8867276
128	0xbe9b0d9b	-0.30283818
129	0xbea2985b	-0.31756863
130	0xbdc63eaa	-0.09679921
131	0xbd91c094	-0.071168095
132	0x3e4bbbec	0.19895905
133	0x3f0d19d6	0.5511755
134	0xbeadf9a2	-0.33979517
135	0x3e36d36f	0.17854093
136	0x3e88d843	0.26727495
137	0xbe5ef81a	-0.2177433
138	0xbec27414	-0.37979186
139	0xbe6680e0	-0.225101
140	0x3ee702d7	0.45119354
141	0xbe1665ed	-0.14687319
142	0x3e91e0c0	0.28491783
143	0xbf32f1c0	-0.6990013
144	0xbe985950	-0.2975564
145	0xbd45cf69	-0.048293505
146	0x3f76e94a	0.9644972
147	0xbe09d309	-0.1345941
148	0x3ef88e1f	0.4854593
149	0x3e8f430b	0.27980837
150	0xbd14d2ad	-0.03633373
151	0x3f02a034	0.510257
152	0xbdf603ce	-0.120124444
153	0x3ecebdfa	0.40379316
154	0xbe3af2ea	-0.18256727
155	0xbe2528aa	-0.16128793
156	0xbf2e4253	-0.6806995
157	0xbf2b1ab2	-0.6683761
158	0xbf8cd6e3	-1.1003078
159	0xbc9c5835	-0.01908503
160	0xbcc2a0cf	-0.02375832
161	0x3d5c4d34	0.053784564
162	0x3f198c5d	0.599798
163	0xbe543124	-0.2072187
164	0x3fa7f5c0	1.3121872
165	0x3ee62f52	0.44957978
166	0x3dc56bb6	0.09639685
167	0x3f25f008	0.64819384
168	0xbd8f98f7	-0.070115976
169	0xbf21101b	-0.629152
170	0xbf1aea8f	-0.6051416
171	0xbe07500e	-0.13214132
172	0x3e5e1a64	0.21689755
173	0x3c23f595	0.010007282
174	0xbc230a76	-0.009951225
175	0xbe08e2a7	-0.13367711
176	0xbf10d235	-0.5657075
177	0x3e349f4f	0.17638896
178	0x3da4f97b	0.08055397
179	0xbecff027	-0.4061291
180	0xbc88b5e5	-0.016688297
181	0xbf506627	-0.8140587
182	0x3df327a0	0.11872792
183	0x3f1e47e3	0.6182844
184	0xbf4ce46c	-0.80036044
185	0x3f2281b8	0.63479185
186	0x3e0bc5e0	0.13649702
187	0x3f28695c	0.65785766
188	0x3e9f6617	0.31132576
189	0xbd3a4180	-0.045472622
190	0x3e278c95	0.16362222
191	0xbf0dc24e	-0.5537461
192	0x3fb2d678	1.3971701
193	0x3f460564	0.77351975
194	0x3eb3a773	0.3508869
195	0xbe40dc74	-0.18834096
196	0x3f53acc4	0.82685494
197	0xbe6f8b47	-0.23392974
198	0x3fc4cfca	1.5375912
199	0xbed007d8	-0.40630984
200	0xbf3b9e51	-0.73288447
201	0x3f99a6fc	1.2004085
202	0xbe92b255	-0.28651682
203	0xbff1b4bf	-1.8883284
204	0xc00d74ef	-2.210262
205	0x3fb262cf	1.3936404
206	0xbf380a2a	-0.7189051
207	0x3eb70d11	0.35752156
208	0xbfa61942	-1.2976458
209	0x3f38447c	0.719795
210	0xbfab977a	-1.3405602
211	0xbf810b79	-1.0081626
212	0xbf427ff0	-0.7597647
213	0x3e9261b1	0.28590158
214	0xbf88e8b6	-1.0696018
215	0xbddb34d1	-0.10703433
216	0x3f37b732	0.7176391
217	0x3eeba0fd	0.46021262
218	0x3f13f530	0.57796
219	0x3f1bf74e	0.6092423
220	0xbff79f19	-1.9345428
221	0xbd974395	-0.07385937
222	0xbf77ec5a	-0.9684502
223	0xbf0993af	-0.5374097
224	0x3fed1039	1.8520576
225	0xbf0cc2bf	-0.5498466
226	0x3fcbae20	1.5912514
227	0xbf630999	-0.8868652
228	0xbee6b82a	-0.4506238
229	0xbf493b88	-0.7860646
230	0x3fe31501	1.7740785
231	0xbf88d535	-1.0690066
232	0x3e6d85eb	0.23195617
233	0x3d85c313	0.06531348
234	0xbebd989d	-0.37030497
235	0x3f15affd	0.5847166
236	0x3f460358	0.7734885
237	0x3debcdcb	0.11513861
238	0xbe96d84c	-0.29461896
239	0xbf756aa6	-0.9586586
240	0x3e8afd9a	0.27146608
241	0x3fd565a6	1.6671646
242	0xbf4acb9c	-0.79216933
243	0xbf174ea4	-0.5910437
244	0xbdbe531e	-0.09293197
245	0xbf768682	-0.9629899
246	0x3f238858	0.6387992
247	0x3e5ccad8	0.21561754
248	0xbf93b45c	-1.1539416
249	0xbf82c5fd	-1.0216671
250	0x3fa4ba4b	1.2869352
251	0xbec68afe	-0.38777918
252	0x3f0ed0c2	0.5578729
253	0x4017ede7	2.3738954
254	0xbf1624c0	-0.58649826
255	0x3ed9afea	0.42517024

critic.2.bias f4 [64]
0	0x3f05d298	0.52274466
1	0x3f1a5ce3	0.60297984
2	0x3ee5ac3d	0.4485797
3	0x3e1ffcf3	0.15623836
4	0xbe002a7e	-0.1251621
5	0xbeedc720	-0.46440983
6	0x3e52a7c8	0.20571816
7	0x3dd56e1d	0.10421393
8	0x3e7f8bc0	0.24955654
9	0xbd066abb	-0.03281663
10	0xbe43b81a	-0.19113198
11	0xbee95a07	-0.45576498
12	0x3e8fac5b	0.28061184
13	0x3e8bc425	0.27298084
14	0xbf11cfa9	-0.5695749
15	0xbeee209f	-0.46509263
16	0x3e09bf23	0.13451819
17	0x3c113e52	0.008864956
18	0xbee30768	-0.44341588
19	0x3f027351	0.5095721
20	0xbebd94ee	-0.37027687
21	0x3ed1680a	0.40899688
22	0xbf1dd461	-0.6165219
23	0x3e72c8b5	0.23709376
24	0x3e695ca9	0.22789253
25	0xbd6427b2	-0.05570192
26	0x3eab210b	0.33423647
27	0xbda0089c	-0.07814142
28	0x3c70a812	0.014688509
29	0x3d398135	0.045289237
30	0x3e3d85f5	0.18508132
31	0x3d891a3b	0.06694456
32	0x3f100a25	0.5626548
33	0x3ea8ddb1	0.32981637
34	0x3ea7cbb8	0.32772613
35	0x3e3cc12e	0.18433067
36	0xbe8de749	-0.2771552
37	0x3de56d82	0.112025276
38	0x3f09d96f	0.538474
39	0x3e0885af	0.13332246
40	0xbef3490e	-0.47516674
41	0xbf442e04	-0.76632714
42	0xbd80f15b	-0.06296035
43	0x3e559e7e	0.20861241
44	0x3e8b0793	0.27154216
45	0xbec98a4b	-0.39363322
46	0x3f2eff31	0.6835814
47	0x3ec56543	0.3855382
48	0xbdcb5019	-0.09927387
49	0xbf0c1049	-0.5471235
50	0xbef0c33e	-0.47023958
51	0x3e3b05e5	0.18263967
52	0xbec7b321	-0.39003852
53	0x3effb339	0.49941424
54	0xbe63ce9e	-0.22246787
55	0x3eb699d7	0.35664245
56	0xbdb6050f	-0.088876836
57	0x3ee0e04f	0.43921134
58	0xbeb45663	-0.35222158
59	0x3d9fc055	0.07800356
60	0xbee60d78	-0.4493215
61	0x3eb332f9	0.34999827
62	0x3dc61c07	0.096733145
63	0xbe1f78c2	-0.15573409

critic.4.weight f4 [1, 64]
0	0xbe98f9dd	-0.2987813
1	0xbeb77e41	-0.35838512
2	0xbf285410	-0.6575327
3	0xbf026f92	-0.5095149
4	0xbea782ef	-0.32717082
5	0x3ed2ee10	0.41197252
6	0xbec1b37c	-0.37832248
7	0xbe2aa244	-0.16663462
8	0x3dbe7638	0.09299892
9	0xbe825a22	-0.2545939
10	0x3e8680cd	0.26270142
11	0x3f0707a6	0.52746046
12	0x3eb59b1f	0.3546991
13	0x3dced7a2	0.100997224
14	0xbfb2590e	-1.3933427
15	0xbeaa2c69	-0.33237007
16	0xbeb20086	-0.34766024
17	0xbe87b5e5	-0.26505962
18	0xbe2e8361	-0.17042305
19	0xbea27202	-0.31727606
20	0xbd882215	-0.06647126
21	0xbf3c32ec	-0.735152
22	0xbe5e3169	-0.21698536
23	0x3e0969e7	0.13419305
24	0x3f042662	0.5162107
25	0x3f92576c	1.1432929
26	0x3ebe905b	0.3721951
27	0x3e2f4561	0.1711631
28	0x3e20d237	0.1570519
29	0x3e81b455	0.25332895
30	0xbf4b0b33	-0.79313964
31	0xbe1a2efb	-0.15056984
32	0xbe025594	-0.12727958
33	0xbefa4685	-0.48881927
34	0x3e018b2d	0.12650748
35	0x3ebd7f62	0.37011248
36	0xbc938922	-0.018009726
37	0xbee5e6ca	-0.4490264
38	0xbf2c3cec	-0.6728046
39	0x3f0463d7	0.51714844
40	0x3f2f2a66	0.6842407
41	0x3ed88a0e	0.42292827
42	0xbd7c0f61	-0.061538104
43	0xbec29721	-0.38005927
44	0x3e4cbae6	0.19993171
45	0x3e3314c6	0.17488393
46	0x3d6faef1	0.058516447
47	0xbe0e046b	-0.13868873
48	0x3eb8c486	0.36087435
49	0x3e9c5115	0.3053061
50	0x3c6782ea	0.014130333
51	0x3f11bf3b	0.5693242
52	0x3e901dec	0.2814783
53	0x3f8ee329	1.1163074
54	0x3e71fdaf	0.23631929
55	0xbdabf621	-0.08396555
56	0x3f642537	0.89119285
57	0xbf499227	-0.78738636
58	0x3ec6dd20	0.3884058
59	0xbdb162fe	-0.086614594
60	0x3ed8765a	0.42277795
61	0xbe341193	-0.17584829
62	0xbf2c8a46	-0.6739849
63	0xbdbf5471	-0.09342278
