PPO_preTrained/RoboschoolHopper-v1/PPO_RoboschoolHopper-v1_0_0.pth (torch, 46811 bytes, 11 tensors)

actor.0.weight f4 [64, 15]
000000 ea d1 75 be 36 a4 bf 3d 4c bd 52 3e 53 6b a8 3e
       -0.24005857 0.093574926 0.20580024 0.32894382
000010 3b 2c 70 be a1 05 15 bf ec 2f 4c be 17 26 ce be
       -0.23454373 -0.58211714 -0.19940156 -0.40263435
000020 e3 87 9c 3e de 1e 00 3f 10 94 00 bd 22 fe b8 3d
       0.30572423 0.500471 -0.031391203 0.09032847
000030 45 72 30 3e e8 48 db 3e 4b 21 df bd 24 aa f0 3e
       0.1723109 0.4282906 -0.10895022 0.47004807
000040 96 e3 80 3e f5 e1 9f be 1d e6 82 3e 2a 07 b8 bd
       0.25173634 -0.3122708 0.25566188 -0.089857414
000050 92 27 a6 3e ae 9c 33 be e9 f0 10 3e a5 7a 62 3e
       0.32452065 -0.17540237 0.141544 0.22117098
000060 26 aa 21 3f d2 f6 32 be bb 32 9b 3e 4a 27 79 3d
       0.6315025 -0.17476967 0.30312142 0.060828485
000070 a8 6c df 3b a0 b8 6c be a4 62 d2 3e a1 2b c6 3c
       0.0068183728 -0.23117304 0.41090882 0.024190726
000080 7b a9 aa 3d 10 d5 63 be dd 46 2a be f9 55 5f 3e
       0.08333107 -0.22249246 -0.16628595 0.2181014
000090 b3 58 f4 bd 53 9d db be 67 34 79 3e e4 b7 01 3f
       -0.119309805 -0.42893466 0.24336396 0.5067122
0000a0 12 dc a7 3d 85 d5 28 bd d3 6a 83 3c 9f df cd 3e
       0.08196272 -0.041219253 0.016042149 0.40209672
0000b0 9f ca f3 3c 99 11 14 3e 4e b0 97 3d 9d 54 e5 bd
       0.029759703 0.14459838 0.07406674 -0.11197779
0000c0 ee 41 dc 3d c5 9e 0d 3e 33 6b 1e 3e b4 af 86 bd
       0.107547626 0.13830097 0.15470581 -0.065764815
0000d0 9c 29 51 3e 94 0f b8 be 60 97 84 3d 5a 99 c9 3e
       0.20426029 -0.35949385 0.06474185 0.3937481
0000e0 cf 19 6c 3e bc 9f bb be e5 b0 f3 3d 9a fe 69 3e
       0.2305672 -0.36645305 0.11898974 0.22851029
0000f0 0c f9 d2 be cf 34 3c be 8f a2 ba 3b 64 0f 11 bf
       -0.41205633 -0.1837952 0.005695648 -0.5666411
000100 de eb 39 3b a9 c3 a8 be fd 83 67 be 51 4d 11 3d
       0.0028369348 -0.32961777 -0.22608943 0.035474125
000110 17 83 d2 bc 9e 4a 08 bf 08 d3 ac be 88 6a b6 be
       -0.025697274 -0.53238857 -0.33754754 -0.35628152
000120 8a b3 85 3e 4a 9a 93 be 48 db cb be f5 e0 01 3e
       0.2611354 -0.2882865 -0.39815736 0.1268347
000130 0b be 59 bd 63 6d 60 be f4 b0 fb 3e 88 4d 74 3e
       -0.053159755 -0.21916728 0.49158442 0.23857701
000140 d2 96 1b be c1 b8 0f be 09 78 c6 be 7a e4 91 3e
       -0.15194252 -0.14035322 -0.38763455 0.28494626
000150 f6 47 12 3f ef 68 88 3d 42 7b a6 3e 44 f2 83 3c
       0.57141054 0.066606395 0.32515913 0.016106732
000160 a5 7a 42 be 65 94 ce 3e 99 23 49 3f c9 33 48 be
       -0.18992098 0.4034759 0.7856994 -0.19551004
000170 75 39 1e be b4 7c 35 be 96 2e bc bd 71 56 1f 3e
       -0.15451606 -0.17723352 -0.09188573 0.15560319
000180 95 c5 19 bd b4 13 7b bb b7 98 85 3e e8 50 48 3e
       -0.037541945 -0.0038311305 0.26093075 0.19562113
000190 41 94 ea bc c9 01 fc be 87 71 14 be 6c 04 e7 3c
       -0.028635146 -0.49220112 -0.14496432 0.02820035
0001a0 8d 88 57 be a9 e7 41 bd 4e 63 67 3e 8d 4c 63 bd
       -0.21048184 -0.04734007 0.22596475 -0.055492926
0001b0 1f 44 d9 bd 3d 21 00 be 10 1e 7c 3e 47 6d d6 bc
       -0.10608696 -0.1251268 0.24620843 -0.026175154
0001c0 a3 c6 b9 be 07 85 03 3e 3e 05 31 3f b1 91 2f 3e
       -0.3628436 0.12843715 0.69148624 0.1714542
0001d0 c8 c7 32 bf f1 75 81 3e ac 84 8a be a9 02 9c 3c
       -0.6983609 0.25285295 -0.27054346 0.019044237
0001e0 0d c2 d4 3e 07 7f 20 3e 7a 82 6b be e4 57 54 be
       0.415543 0.15673457 -0.22998992 -0.20736653
0001f0 fc 1a 50 bd 2e c7 f5 3e 89 31 28 bd 29 fd 03 3f
       -0.050806984 0.48003525 -0.041062865 0.51558167
000200 67 aa 61 3e b2 71 cf 3e d2 1c 62 3e 01 00 38 3e
       0.2203766 0.4051643 0.22081307 0.17968751
000210 a3 7c 6d 3e 79 a0 94 3e ce 55 13 3e 56 b6 0a 3e
       0.23192076 0.2902868 0.143882 0.13546118
000220 64 d0 be bd 99 8a 67 bd 6d e2 1b be b3 d4 5b 3e
       -0.09317091 -0.05652866 -0.15223093 0.21467857
000230 53 7b cc 3d 31 eb d5 3d d8 14 ca 3e 84 75 01 3f
       0.0998446 0.1044525 0.39469028 0.5056994
000240 e6 3d 86 3d ad 7f bd 3d 73 fd 06 3e 0c 69 0f 3e
       0.06554775 0.09252868 0.1318262 0.14004916
000250 e0 67 de 3d 64 1c aa be 73 b0 f4 3d 6d b3 d2 3c
       0.10859656 -0.33224785 0.119477175 0.025720323
000260 45 70 af 3c 7f 88 08 3f c6 8e 62 be be 15 cb bd
       0.021415839 0.53333277 -0.22124776 -0.09916256
000270 dc d5 6c 3e 26 8a 78 3e 87 7e 48 3e af bd eb bd
       0.23128456 0.2427145 0.19579516 -0.11510789
000280 6b 3d 24 3d 74 2e 2a be c1 a0 5e bd 80 9e 6f bd
       0.040097635 -0.16619283 -0.054352526 -0.058500767
000290 91 ec 4b be 43 e4 4b bf 21 65 56 be de 34 ac bd
       -0.19914462 -0.79645175 -0.20937015 -0.08408521
0002a0 65 f4 14 3e b9 d5 3a be 50 3c 8e be 7e 21 55 bd
       0.14546354 -0.18245591 -0.2778039 -0.052033894
0002b0 8f 0a 74 3e 39 7a f5 bd 47 9c da be 0e a1 19 be
       0.23832153 -0.11986203 -0.42697355 -0.15002844
0002c0 f3 a9 e1 bd 99 6c a0 be aa c7 c5 be 9f ab 26 3e
       -0.11018743 -0.31332853 -0.38628894 0.16276406
0002d0 01 92 73 3e 4c 68 4c 3d 8c e5 f1 bd 15 9e 30 be
       0.23786165 0.049904153 -0.11811361 -0.17247804
0002e0 9d 78 13 3d b4 48 0d bd c0 48 39 3d f2 f7 07 3f
       0.036003698 -0.034493163 0.045235395 0.5311271
0002f0 c8 13 38 be d4 03 d5 be 56 3a cd 3d 8a 49 ae 3d
       -0.17976296 -0.41604483 0.10020892 0.0851012
000300 b9 8f f9 3c de 01 0e 3f 84 bf db be 32 ac e0 bd
       0.03046404 0.554716 -0.42919552 -0.10970344
000310 e6 cb 7a be 1b bb 67 be c5 57 85 be 4e e4 70 3e
       -0.24491844 -0.22629969 -0.26043525 0.23524591
000320 7f 8e bf 3e d6 6d a6 3d 2b af fe bd cd 46 d0 bc
       0.37413403 0.08126418 -0.124357544 -0.025424385
000330 f5 ae dd be 94 36 78 3d fc 10 55 bf 4b c8 55 3e
       -0.43297544 0.060598925 -0.8322904 0.20877187
000340 a9 dc 9d be b7 5c 42 3e 82 46 2c 3f d3 a7 69 3e
       -0.30832413 0.1898068 0.67295086 0.22817926
000350 72 c1 99 3e 3b 60 45 3e 11 9d 3f be 6c 61 b4 3e
       0.300304 0.1927499 -0.1871226 0.35230577
000360 38 76 86 bd 63 64 75 bd 09 1d ac 3e e7 b2 b8 3e
       -0.06565517 -0.05991019 0.33615902 0.36073992
000370 59 ca 2f be 92 03 9f bd bb e5 c9 3e bb 3a 3f bd
       -0.17167033 -0.07764353 0.39433083 -0.04668687
000380 b5 1f 9f bd 57 05 0a 3f 2a fa 18 3e 84 31 40 be
       -0.077697195 0.539144 0.1493918 -0.18768889
000390 5e a3 a3 3e 07 d3 c4 3d 69 8b 4d be c3 1b 8c 3d
       0.31960577 0.09610563 -0.20072712 0.06841233
0003a0 36 35 b6 be 33 38 38 be ae df 87 3d fb af 32 3e
       -0.35587472 -0.17990188 0.066344604 0.17449944
0003b0 74 26 de 3e 74 f8 4e be 46 86 59 3e ca 09 67 be
       0.43388712 -0.20211965 0.21242628 -0.22562328
0003c0 18 81 04 be a0 81 e1 3d 1c f3 07 bc 8a b5 e7 bc
       -0.1293987 0.11011052 -0.008297708 -0.028284807
0003d0 b2 02 69 3e 8e 33 c8 3e 15 67 11 3e 01 55 bd 3e
       0.22754934 0.39101833 0.14199479 0.36978915
0003e0 56 bd a4 bd d1 d0 b4 be 20 a0 a2 3e 88 c2 33 3e
       -0.080439255 -0.35315564 0.3176279 0.17554677
0003f0 19 61 af be ad 9f 81 3e 69 8a 04 3e d7 45 01 bf
       -0.34253767 0.25317135 0.12943424 -0.5049719

actor.0.bias f4 [64]
000000 42 4a d8 3d b5 a8 44 be b9 49 64 be fd 85 f9 bc
       0.105610386 -0.19204982 -0.22293748 -0.030459398
000010 19 a7 87 be 9f 5d 3e 3e 38 af 2e bd ae 2c 67 bc
       -0.26494673 0.18590401 -0.04264757 -0.014109774
000020 ef 07 6a be 8e 0a f1 bd 8c b3 96 3d 36 27 31 be
       -0.22854589 -0.11769591 0.073584646 -0.17300114
000030 0f 11 9d 3d 32 9f e3 bc ec 0b 81 3e 9c cd 2c bd
       0.07669269 -0.027785871 0.25204408 -0.042188272
000040 58 68 90 3e 46 40 5d 3d 17 90 83 bd fa 6f 26 3d
       0.28204608 0.054016374 -0.06423967 0.040634133
000050 f4 37 7a be db 6e 64 3d d0 d3 18 3e 42 5c 19 be
       -0.24435407 0.055769783 0.1492455 -0.149766
000060 6f c1 69 3d 0f ab 9b 3e f0 84 7e 3e 8e c3 7d bd
       0.05706924 0.30403945 0.24855399 -0.061954074
000070 39 df d2 3c 94 46 97 bd 14 8d f4 bc ab 4f 96 bd
       0.025741206 -0.073865086 -0.029852428 -0.07339414
000080 4e 0c 32 3e f9 3d 70 be ba d9 26 3c 8d 1b b3 bd
       0.17387506 -0.2346114 0.010183746 -0.08745489
000090 75 a8 40 be 74 ac 6b 3e 32 08 77 3e a5 25 90 bb
       -0.18814261 0.23015004 0.2412422 -0.004399019
0000a0 ab d3 6e be de 10 86 3d aa 56 b6 bc 4a 89 c3 3e
       -0.23322932 0.06546186 -0.022258122 0.3819068
0000b0 ea 05 54 3e d4 35 10 3f 5a 75 23 3e e3 dd 90 be
       0.20705381 0.56332135 0.15962735 -0.28294286
0000c0 63 6f 9d 3d 30 80 40 be 22 a5 34 3c cb a7 06 3e
       0.07687261 -0.187989 0.011025699 0.13149945
0000d0 8c c2 83 be b0 05 6e 3e 23 3b 3a be 87 4f b0 bd
       -0.25734365 0.23244357 -0.18186621 -0.08608919
0000e0 28 6b 08 bd ab 35 83 be aa 95 6e 3e 67 fd a1 3e
       -0.033305317 -0.25626883 0.2329928 0.31638643
0000f0 a7 54 a8 3d bb 5c 2c be d8 b1 38 3e 6f d9 88 3e
       0.08219271 -0.16832249 0.18036592 0.2672839

actor.2.weight f4 [64, 64]
000000 ff b3 dd 3d dd 44 91 bd e8 e5 72 3e da ca 85 bc
       0.10825347 -0.07093213 0.23720515 -0.016332079
000010 c7 76 58 3c b9 dc dc 3d 6e 17 3c 3e 1e 87 02 3e
       0.0132119125 0.10784287 0.18368313 0.12746856
000020 af 96 59 3e 81 f4 5e be ab 77 ed bd 31 5f 84 bc
       0.21248887 -0.21772958 -0.115950905 -0.016158672
000030 a3 84 ed bd 69 5d 3c be 51 1d a4 bd 46 c5 13 3e
       -0.11597564 -0.18395008 -0.08013404 0.14430723
000040 36 1d 28 be a9 04 23 be 96 37 df 3d d0 ee 9a be
       -0.16417393 -0.15919746 0.10899274 -0.30260324
000050 be aa 4c be 41 c8 26 be df 44 50 3d 45 15 1e bd
       -0.19987008 -0.16287328 0.05084693 -0.038594503
000060 96 64 d3 3d 40 61 87 3d 33 aa 9b bd 3d c0 72 bb
       0.103219196 0.06610346 -0.07600822 -0.0037040852
000070 cb e5 88 be 70 ae aa 3d b2 41 ce be dc 84 23 be
       -0.26737818 0.083340526 -0.40284497 -0.1596865
000080 8f 98 90 bc d8 05 1e 3d 7a c5 35 3e df dc 9c bd
       -0.01765087 0.03857979 0.17751113 -0.07659315
000090 0d 76 56 3c eb 56 c1 bd 13 d3 af 3c 3e 55 9e 3d
       0.013089669 -0.094404064 0.021462953 0.077311024
0000a0 72 eb 0c 3b ad ec 6d 3c 64 99 a0 3d a1 a0 0a 3e
       0.002150264 0.01452176 0.07841757 0.13537838
0000b0 eb 83 27 3d 27 c1 89 3d 80 f3 4d 3e 0d 44 ac bc
       0.04089729 0.06726294 0.20112419 -0.021028543
0000c0 90 17 5f be fa 13 92 3d 3a 99 12 3e b5 c0 c0 3c
       -0.21786332 0.071327165 0.14316264 0.02352939
0000d0 2f 6d d8 3d 36 95 4a be c9 aa 44 be 89 6a e9 bd
       0.105677 -0.19783482 -0.19205774 -0.11397273
0000e0 15 81 10 3c 00 b0 19 3e cd 7a 8e bc 93 f2 83 bd
       0.008819838 0.15008545 -0.01739254 -0.06442752
0000f0 60 69 de 3d d0 41 e5 bd 64 f2 36 bd 3b 76 89 bd
       0.108599424 -0.11194193 -0.044664755 -0.06712004
000100 d9 9f f3 3e 8e 58 b5 bd 33 24 a0 be dc 22 f9 bc
       0.47582892 -0.08854781 -0.31277618 -0.03041213
000110 5f 6b 3a be d4 01 05 3f f0 f8 69 be 55 4a 97 3d
       -0.18205021 0.51955914 -0.22848868 0.073872246
000120 a7 6b 28 bf 99 6c e0 be 54 99 11 3d de e2 58 3c
       -0.65789264 -0.43832853 0.035546616 0.013237683
000130 57 2d bf be 9f 7a 44 bf a3 13 b5 3c 50 41 cf 3e
       -0.3733928 -0.76749605 0.02210409 0.40479517
000140 58 33 7e be e5 90 a4 3e b9 b0 9b 3d e4 97 99 be
       -0.24824274 0.32141796 0.076020665 -0.29998696
000150 82 f3 b5 be 6c c0 91 be ea 43 ed ba 69 43 7a be
       -0.35537344 -0.2846712 -0.0018101905 -0.24439777
000160 a4 36 27 3d b0 cc 43 3e 8f 95 a6 3d bc 92 2b be
       0.040823594 0.19121051 0.08133995 -0.16755193
000170 90 f7 75 bf 8a 8e 42 3d 9a 46 49 bd 4f 49 04 bf
       -0.96080875 0.047499217 -0.049139597 -0.5167436
000180 53 d8 2e 3d 9a a8 ff bd 88 b4 0a be db 79 53 bd
       0.04268677 -0.1248333 -0.1354543 -0.051629882
000190 80 e5 79 be 4e 35 e0 3c 47 25 37 3f fb dd be be
       -0.24403954 0.027369168 0.71541256 -0.37278733
0001a0 f4 88 f1 3d 83 8f 14 3e 07 9d b7 be 4a b5 4a 3e
       0.117937 0.1450787 -0.3586199 0.19795719
0001b0 36 8d 95 bd 8f 7a 00 3d 66 e6 46 3e 01 82 74 be
       -0.073023245 0.03136688 0.19423828 -0.23877718
0001c0 cd 85 71 be ea a4 09 bf cd 3c 69 be 21 d1 b2 bd
       -0.23586197 -0.53767264 -0.227771 -0.087312944
0001d0 b8 e7 93 3d fa 68 84 be 8e 56 c9 be 0a 28 db bd
       0.07221931 -0.2586134 -0.39323848 -0.10700996
0001e0 4d e4 b1 bb 8d f8 e1 3e 6f 2c bf bd d8 f2 82 3e
       -0.005428827 0.44134942 -0.09334647 0.255759
0001f0 47 2b e0 3c 22 44 28 be 29 c4 4f bc 2e 0e 11 3e
       0.027364386 -0.1643224 -0.012681046 0.14165565
000200 b4 30 be bc 36 9c 85 bd 5f 31 4a be d2 a1 10 bd
       -0.023216583 -0.065239355 -0.19745396 -0.035310574
000210 2d 59 2f 3d 50 72 98 bc 78 35 fd bc 5f bf 2c bd
       0.042809654 -0.018609196 -0.030909285 -0.042174693
000220 e0 99 22 3d 9d 0b bb 3c 37 0a f0 3c f2 3f 85 bd
       0.039697528 0.022832686 0.029301746 -0.06506337
000230 cd de 36 3e 67 4d a1 bb 43 10 46 3d 33 55 89 3d
       0.17858429 -0.004922557 0.048355352 0.067057036
000240 65 7d 3b 3e 0a ed 1d be e1 95 ac 3d de 25 46 3e
       0.18309553 -0.15422454 0.08427025 0.19350383
000250 c6 66 22 3e 4a aa 04 be ca 64 ac bd e2 30 2c be
       0.15859517 -0.12955585 -0.084176615 -0.16815522
000260 05 bb 89 3d e9 2d c1 bd a9 4a d8 3d 08 eb 4e bd
       0.06725124 -0.09432585 0.10561115 -0.050517112
000270 7d 0b 0a 3e 50 c0 84 bd fd d0 b4 3c 91 0b b8 3d
       0.13480945 -0.06481993 0.02207231 0.08986581
000280 b4 29 e4 3d f0 ab 76 3c ba 45 8c bc 8f 4b 18 3e
       0.11140767 0.0150556415 -0.017123092 0.14872573
000290 ec 74 0f be cf 46 59 3d 00 54 ad bb ed b7 82 3d
       -0.14009446 0.053046044 -0.0052895546 0.06382737
0002a0 97 c9 59 3d e7 73 fe bd 24 04 96 bd 7b 03 a5 bd
       0.053170767 -0.1242445 -0.073250085 -0.080573045
0002b0 6b c1 07 be bf e4 ff 3c 48 09 2b be 8f 79 be bd
       -0.13257377 0.031237004 -0.1670276 -0.09300529
0002c0 c5 15 8b 3d cf 21 49 3d 63 c3 30 bd 4a cc c6 3d
       0.067912616 0.049104508 -0.043155085 0.09706934
0002d0 f3 64 ae bd a0 0b f2 bb e1 e8 1e 3e 96 f5 91 bd
       -0.08515348 -0.0073866397 0.15518524 -0.0712692
0002e0 af 84 d4 bd a3 e1 7c bc c8 9b dc 3d e3 e7 ea bd
       -0.1037687 -0.015434655 0.107719004 -0.1147001
0002f0 d4 55 e4 3d b2 21 25 3e f7 e2 77 bd 1e fb a4 3d
       0.11149183 0.16126135 -0.060519185 0.08055709
000300 fc b4 04 3c 2e 97 b2 3d 07 c8 78 3e 8e eb 68 bd
       0.008099791 0.087202415 0.24295054 -0.056865267
000310 be d3 68 bd 2f d2 5c 3e 85 a0 93 3d 3b fd 2c bd
       -0.056842558 0.21564554 0.07208351 -0.042233687
000320 67 81 d2 3c da 52 ab 3c 77 24 ba 3d 2e de 0b be
       0.02569647 0.02091353 0.09088986 -0.13658974
000330 91 25 2f be 61 b5 bc be 46 ea a9 bd a0 dc 3a 3e
       -0.17104174 -0.3685713 -0.08296637 0.18248224
000340 ed 8e 92 be e5 da 8b 3d 3b 65 25 be c6 9b 6e bd
       -0.2862467 0.0682886 -0.16151898 -0.058254026
000350 17 e7 53 bd a7 5a 2e 3f f7 61 67 be ed 60 f9 3c
       -0.051734056 0.68107074 -0.22595964 0.030441726
000360 d4 a0 51 be 90 15 9d bd d1 49 16 3e b7 fc 77 3e
       -0.20471507 -0.07670128 0.14676596 0.24217497
000370 4b ea 73 be ce 87 7f 3e da 0e 7b bd 5a fe 97 3c
       -0.23819844 0.24954149 -0.06129346 0.018553901
000380 b5 48 fe 3d c0 2c fa 3d 39 9b 9b 3e 2e b0 8c 39
       0.124162115 0.12215567 0.30391863 0.00026834145
000390 89 ef a7 3d 65 17 8f be 26 54 db be f6 e0 83 3d
       0.081999846 -0.27947536 -0.42837638 0.06439392
0003a0 41 ca ca 3d 82 23 c1 3d 90 80 c3 3e 03 09 4c be
       0.09901858 0.09430601 0.38184023 -0.19925313
0003b0 3c b8 2e be 39 6a 7e 3e 17 7b 23 3e 3f 1d c9 bd
       -0.17062467 0.24845208 0.15964924 -0.098200314
0003c0 2b c4 e7 3e ed 6f 04 3e 12 0f 36 3e 64 6f c3 bd
       0.45266852 0.12933321 0.17779186 -0.095427305
0003d0 ae fd c2 bd ee 74 3e bd b3 28 30 be f6 ea f3 bd
       -0.09521042 -0.04649823 -0.17203026 -0.119100496
0003e0 ed 56 a1 bd 08 2e 96 3e ec 0b 4e be a0 97 a6 ba
       -0.07877908 0.29331994 -0.20121735 -0.0012709983
0003f0 87 d4 95 3d 3e f9 e7 bc 6c 7c 70 be 3a b7 a2 3d
       0.07315927 -0.02831709 -0.23484963 0.07945104

actor.2.bias f4 [64]
000000 26 de cc 3d b4 4d c8 3d f6 5c 33 be eb 2c 46 3d
       0.10003309 0.09780446 -0.1751593 0.04838268
000010 2a ed 34 3e 59 d9 01 be 62 22 2a 3d 79 8a 85 3e
       0.17668596 -0.12680568 0.041536696 0.2608221
000020 c6 84 0f be b2 37 8c 3e 93 ff d6 bd ce 78 94 be
       -0.14015493 0.27386242 -0.10497966 -0.28998417
000030 c3 68 30 be a9 25 ec 3b eb 9e b2 bd f1 54 2e bd
       -0.17227463 0.007206638 -0.087217174 -0.042561475
000040 55 59 cd 3d 25 1c 65 bd dc 55 1c 3d 8a e6 99 3c
       0.10026804 -0.055935044 0.03816782 0.018786687
000050 2f 1b be 3d aa 00 6f bd db 65 7a 3d c8 4b 99 3d
       0.092825286 -0.058350243 0.061132293 0.07485157
000060 66 31 6c 3e 28 c0 25 bc 4a 47 3c be 54 79 5f 3d
       0.23065719 -0.010116614 -0.1838657 0.054559067
000070 33 22 ef bc 3f 02 28 3e 75 34 4b 3d 7a 30 71 be
       -0.029191112 0.16407107 0.049610574 -0.23553649
000080 76 7e 26 bd 08 59 6d 3c b4 6c 84 3d 1f c9 8e bd
       -0.040647946 0.014486559 0.06466046 -0.069719546
000090 22 d4 30 3e 85 ac 00 3c 18 dd 48 bd 89 55 0f be
       0.17268422 0.007853632 -0.049038976 -0.13997473
0000a0 2f 7e 04 3e 02 de c4 bd 0c b6 b9 3d 87 9b a0 3e
       0.1293876 -0.09612657 0.09067926 0.31368658
0000b0 ff e2 cc bd 3c 37 ff 3d 3c 4e 18 3b 0e 97 0d bd
       -0.100042336 0.12461707 0.002323999 -0.034567885
0000c0 1c 4a 50 3c 51 2d be 3d e0 49 d6 3d 2a 37 2f be
       0.012712982 0.09285987 0.10463309 -0.17110887
0000d0 16 76 41 3e f8 b0 14 be 0c 6d 72 3d ae 9c a4 3d
       0.18892702 -0.14520633 0.059186026 0.08037697
0000e0 57 38 10 3c 2a 4b 6e bd 07 2d 5b bd 3b fe 91 3d
       0.008802495 -0.05817715 -0.05350974 0.07128569
0000f0 68 f3 64 3e c9 28 b3 3d b8 e9 46 3c d1 f2 81 bc
       0.22358477 0.087480135 0.012140684 -0.015862854

actor.4.weight f4 [3, 64]
000000 6c 3a 63 3e a2 ad b5 3e e7 dd 6d be cf 55 5d 3e
       0.22190255 0.35484034 -0.2322918 0.21614765
000010 66 e6 0a 3f 74 56 ac bd 9f 61 c4 3c 8b c5 97 3e
       0.5425781 -0.08414927 0.02397233 0.296429
000020 79 5b 65 bd 4b 0b e1 3d e0 05 2d be 7f 2e de 3d
       -0.05599544 0.10988482 -0.16896772 0.10848712
000030 7a c2 86 be 59 6e cd 3e 3d c0 09 bd bc f9 c6 bd
       -0.2632025 0.4012325 -0.0336306 -0.09715602
000040 36 0b 87 3e b3 53 03 3e a9 87 1e be d3 5a 22 3d
       0.2637574 0.12824897 -0.15481438 0.039637398
000050 8b 6e 5a 3d 89 a7 80 be e1 27 59 bd 12 62 82 be
       0.05332808 -0.2512782 -0.053016547 -0.25465447
000060 5d d1 77 3e 61 4c cf bd a6 63 c3 be 50 f3 4a be
       0.2420096 -0.1012199 -0.38161963 -0.19819379
000070 c8 36 4d be e3 42 03 3e 97 dc fd 3b bc 29 23 3e
       -0.20040429 0.12818484 0.0077472436 0.15933889
000080 36 39 e6 bc 23 28 52 be f1 12 59 3e b2 d3 67 be
       -0.028103452 -0.20523123 0.21198632 -0.22639349
000090 d0 50 a8 be ef cd 10 3d e0 8f c0 be 83 c0 38 3e
       -0.32874155 0.035352644 -0.37609768 0.18042187
0000a0 c2 1f fa be 53 40 86 bd cb 7a 6a 3e 1b 7d 9c 3e
       -0.48852354 -0.065552376 0.22898404 0.30564198
0000b0 84 c7 ae 3c 28 d4 f1 bc ca 5b 08 be 3f 16 ac bc
       0.02133537 -0.02952011 -0.13316265 -0.021006702
0000c0 f4 f5 d2 be a3 97 8d 3e 1c 59 1b 3e 7a a3 5c be
       -0.41203272 0.27654752 0.15170711 -0.21546736
0000d0 70 00 03 bd 68 6c db be 0e f2 1c 3e 46 95 7b 3e
       -0.03198284 -0.42856145 0.15326712 0.24568662
0000e0 3f e0 31 3d 55 b6 ea be 89 73 d4 3e fc 7a b2 3e
       0.04342675 -0.45842233 0.41494396 0.34859455
0000f0 a2 c5 1b bf 97 aa 2f 3e 29 1e be 3e f0 11 78 3e
       -0.6084844 0.17154919 0.37132385 0.24225593
000100 6b d8 38 bd 38 a1 2b 3e 01 55 82 bd c4 b1 3c 3e
       -0.045128267 0.16760719 -0.063638695 0.18427187
000110 59 1e b8 bd a2 88 39 3e 59 bb b0 3e 36 3f 8c be
       -0.08990163 0.18118528 0.34517935 -0.27391976
000120 bb 40 5e bd 4e b8 c0 be 44 49 a0 be c5 36 89 3e
       -0.05426095 -0.37640613 -0.31305897 0.26799598
000130 16 20 88 3d c7 e0 c0 bd 2e 81 4d 3e 62 db c4 3e
       0.06646745 -0.09417873 0.2006881 0.38448626
000140 6f cc b2 3e 89 f0 a9 3e df 5a aa be 1e 36 55 be
       0.34921595 0.33191326 -0.33272454 -0.20821425
000150 06 8a bd 3e 0f 63 ed bd d4 73 d4 3c 41 a8 7e 3d
       0.37019366 -0.115911596 0.025934137 0.06217218
000160 ed b3 32 be 06 40 2d 3e 11 e7 b8 bd f4 65 d9 3d
       -0.17451449 0.16918954 -0.090284474 0.10615149
000170 44 db 91 bd b8 59 b3 3e 71 35 a8 be aa c2 1f 3d
       -0.071219 0.35029387 -0.32853273 0.039004005
000180 96 bc 67 be 7a 6f 83 3e 5e b7 3d 3e 2c aa 5e be
       -0.22630534 0.25670987 0.1852698 -0.21744603
000190 75 0c 12 3e ce 7a 2c 3e 30 4a 5c be c2 71 b5 3e
       0.14262564 0.16843721 -0.21512675 0.35438353
0001a0 26 bc dc 3e 38 e1 eb bb 4e 29 93 3e 2d ce 26 3e
       0.43112296 -0.007198479 0.2874245 0.16289587
0001b0 7f f2 dc 3e c7 5f bc be 4f 49 e0 3e f1 8e 34 3e
       0.4315376 -0.36791822 0.4380593 0.17632653
0001c0 e3 bb aa 3e db bf 18 bd 77 8f 84 be bc de 2a be
       0.3334647 -0.037292343 -0.25890705 -0.16686529
0001d0 13 58 be be fd 52 e9 3c 3b 09 96 3e 76 c4 ad be
       -0.3717657 0.028481955 0.29303917 -0.3393895
0001e0 b4 03 90 3e 4d f1 1f 3e 40 a7 23 bb 83 8d 46 3e
       0.28127825 0.15619393 -0.0024971515 0.1938992
0001f0 c9 07 7f 3e 8e 79 89 3e 61 72 50 be 03 8e d7 be
       0.24905314 0.2685055 -0.20356132 -0.42100534
000200 7a dd 73 3e a5 c7 fd bd 4c 9f a0 bd 82 26 00 3f
       0.23814955 -0.12391595 -0.078428835 0.5005876
000210 11 de a5 3d f0 26 b1 3e 85 ff d6 3e 8a c8 4a be
       0.080989964 0.3460002 0.4199182 -0.19803062
000220 fd 51 8c 3e 4c 52 93 be 3b 83 8d 3e 0d 60 9f be
       0.27406302 -0.28773725 0.27639183 -0.31127968
000230 85 a3 c7 3e 54 fd 65 be 6f b3 3e 3f 90 1f 40 be
       0.38991943 -0.22459918 0.74492544 -0.1876204
000240 e4 69 a3 bd 3a c6 ea 3d 37 e3 ae 3e ee 76 2c bf
       -0.079791814 0.1146359 0.34157726 -0.6736897
000250 ac 8d b5 be 84 b1 0a be ac 9d 03 bf b1 95 40 be
       -0.3545965 -0.1354428 -0.51412463 -0.18807103
000260 9f 94 92 be 3a 25 03 bf 4d 1e 64 3d 06 c5 0e bf
       -0.28629014 -0.5122868 0.05569296 -0.55769384
000270 4f 34 d3 3e fe 08 a6 be 01 9f b6 3e 92 94 a2 3e
       0.41250846 -0.32428735 0.35668185 0.31753975
000280 a9 d9 89 3e c2 a9 06 bf 1a d4 28 3f b9 ec ad be
       0.26923874 -0.5260278 0.6594864 -0.33969668
000290 3d c2 d8 be fb 7a 16 be 37 f4 ec 3e 7c 54 68 be
       -0.42335692 -0.14695351 0.4628007 -0.22688478
0002a0 60 1f d8 be 80 0f 9f be 6a e9 86 3e 15 7d e2 be
       -0.42211437 -0.31066513 0.26349956 -0.44236055
0002b0 02 47 5f 3d 38 01 00 3d f2 1f 0b 3e 44 19 2f bf
       0.054511078 0.031251162 0.13586405 -0.6839793
0002c0 8f e9 a1 be 65 71 ea 3e a5 f4 93 be 5d 9b 96 3e
       -0.31623504 0.45789638 -0.28897586 0.29415408
0002d0 f2 df eb be fc 68 52 3d 3c e0 ae be 1c 18 f9 3e
       -0.46069294 0.051369652 -0.34155452 0.48651206
0002e0 57 f2 8b 3e c8 ab d0 3e e6 37 a5 3d b8 de 34 3e
       0.27333328 0.4075606 0.080673024 0.17663085
0002f0 83 cd 69 3e 86 5a 2d bf a5 f6 a0 3e 2a 0c 3b be
       0.22832303 -0.6771625 0.31438175 -0.18266359

actor.4.bias f4 [3]
000000 b4 cd 2e 3e cc a2 19 bc 43 72 e0 bd
       0.17070657 -0.009377193 -0.10959294

critic.0.weight f4 [64, 15]
000000 f2 6d 14 bf dc 04 0f bd c1 33 00 bf c9 be 04 be
       -0.57980263 -0.034916744 -0.5007897 -0.12963404
000010 31 ce 6b bd e0 9c b5 3e 4a 8e f0 3d 11 cf 90 bf
       -0.057569686 0.3547125 0.117458895 -1.1313192
000020 8c 60 55 3f 3b c3 da bd 5b cf 2e 3f b4 16 65 3e
       0.83350444 -0.106817685 0.6828515 0.22371942
000030 14 0c 23 bd 92 bf 9f be f7 b7 3c be ca dd 1e 3f
       -0.03980644 -0.31200844 -0.18429552 0.62057173
000040 b8 43 78 bd af 84 44 be 12 d5 88 3e 48 d7 ca bd
       -0.060611457 -0.1919124 0.2672506 -0.09904343
000050 0b 05 49 3f 99 d7 c8 bc 88 17 1d 3e b2 92 14 bf
       0.7852332 -0.024516867 0.15341008 -0.5803634
000060 6a 84 cf bf 04 91 22 3e 55 64 8b be 1b 80 04 3f
       -1.6212285 0.15875632 -0.27224985 0.51757973
000070 5c 67 40 bd 19 b7 5c 3e 0f 20 f9 be c0 42 68 bd
       -0.04697357 0.21554221 -0.4865727 -0.056704283
000080 41 f3 7a bf 24 11 df be d1 87 3d 3e 41 c2 86 be
       -0.98027426 -0.43567765 0.18508841 -0.2632008
000090 b0 1f 4a 3e 0e 17 04 c0 97 da 8f bf 26 a2 2d 3e
       0.1973865 -2.0639071 -1.1238583 0.16956386
0000a0 f4 12 78 be b6 5f c8 3c cb 8d 7d 3e 2e ee 1c 3c
       -0.2422598 0.024459701 0.24761121 0.009578271
0000b0 4a ee b6 3d 89 68 58 c0 ed 3d af 3c b3 ed 3c 3f
       0.08932169 -3.3813803 0.021391833 0.738002
0000c0 c5 3e 1f 3e 7d 88 49 3e c5 c6 5c bd a4 f3 72 3e
       0.15551288 0.19680972 -0.0539005 0.23725754
0000d0 18 33 4b be 2d 26 a3 be 3f f5 2f bf b0 3a 72 3f
       -0.1984371 -0.31865063 -0.6873359 0.946208
0000e0 b5 11 b0 3e f3 09 b5 3d 8b 24 b5 be 09 fd 38 3e
       0.3438851 0.08839788 -0.35379443 0.18065275
0000f0 60 24 1a be 8d c5 bf bd 71 18 2a 3f ec a7 ae be
       -0.15052938 -0.09363852 0.66443545 -0.3411249
000100 42 74 aa 3c aa 98 5c be 5b cd 40 3e 2d f6 63 3f
       0.02080739 -0.21542612 0.18828337 0.8904751
000110 46 47 7b bf c4 11 57 3f e3 8b 42 bf 93 c9 06 3d
       -0.9815563 0.84011483 -0.759947 0.03290708
000120 09 88 75 be 41 73 c1 be 69 80 54 be 22 81 fc bf
       -0.23977675 -0.37783244 -0.2075211 -1.9726908
000130 92 95 18 3e cd bf 07 bf 78 03 cf be d1 02 98 3d
       0.14900807 -0.5302704 -0.40432334 0.07422412
000140 3a d0 dc 3e d6 c6 3c be c4 23 48 be 07 54 c1 3f
       0.43127614 -0.18435225 -0.19544894 1.5103768
000150 05 01 bb 3f 18 b5 08 3d e9 c5 3a bd 1c d9 87 bd
       1.4609686 0.03337583 -0.045598898 -0.06633207
000160 0d 03 ac 3d ab ec b3 bd cb 52 c3 be f0 e5 66 3e
       0.083990194 -0.08785375 -0.38149104 0.22548652
000170 f0 82 dd be a4 3a 45 bf ab 03 9f 3d 95 fd 81 be
       -0.4326396 -0.77042603 0.077643715 -0.2538878
000180 b6 74 2a bd 11 a0 1a bf 59 7b ed be 85 a2 eb 3f
       -0.04161521 -0.6040049 -0.4638317 1.8408972
000190 f9 b2 5d be 75 f0 6b 3e 36 bc 33 3e d1 69 3b 3e
       -0.21650304 0.23040946 0.17552266 0.18302085
0001a0 2e 8e dd 3e 7b 74 b6 bf 30 40 20 bb c2 6c 9f be
       0.43272537 -1.4254297 -0.0024452321 -0.31137663
0001b0 47 b0 de 3e 4c d2 d6 b9 16 82 6f 3e 68 6c 37 3e
       0.43493864 -0.00040973944 0.23389468 0.17912447
0001c0 8e 57 94 bf c0 06 21 c0 db cf 9c be 43 10 a2 bf
       -1.158922 -2.516037 -0.3062733 -1.2661213
0001d0 4f 79 46 3e c2 b9 62 3d 05 c3 4c 3e 83 50 f1 bd
       0.19382213 0.055352934 0.19996269 -0.117829345
0001e0 12 f8 6b 40 32 eb 1c 3d f7 17 a2 be 90 db ea be
       3.687016 0.038310237 -0.3165891 -0.45870638
0001f0 ec 18 23 bd a5 bb e7 3e 5c 6f 28 3e b9 49 e8 be
       -0.03981869 0.4526035 0.1644873 -0.45368746
000200 74 5b 7e 40 3d 36 e5 bd d8 56 43 be 8c f4 a5 3e
       3.9743319 -0.11191986 -0.19076097 0.32413137
000210 7c cc 0b 3f fd 48 b8 be 32 3e fa bd ed 53 ac bf
       0.54608893 -0.35993186 -0.12218894 -1.3463112
000220 53 b0 68 3d fd 2c 9b bc 82 37 80 3e 9c 52 11 be
       0.05680878 -0.01894235 0.2504235 -0.14191669
000230 b7 51 f7 3e ae e0 32 3e b8 29 1b c0 70 c9 a9 3e
       0.4830453 0.17468521 -2.4244213 0.33161497
000240 4d 15 eb 3e e5 c9 85 3e fc 1c bc bd 3c 93 8b 3d
       0.4591469 0.26130596 -0.09185216 0.06815192
000250 16 a2 37 be a1 87 b4 bd ba 79 1a 3f 7a f7 46 be
       -0.17932925 -0.08814932 0.6034199 -0.19430342
000260 5f a6 39 bf 45 96 47 be 1e dd 37 3e 17 e3 dc bb
       -0.7251949 -0.19490917 0.17955443 -0.0067409384
000270 96 0c 55 3e 12 6b aa bf e2 9d 9a 3f 6c a5 9d 3e
       0.20805582 -1.3313925 1.2079432 0.3079027
000280 cc 64 62 3e 05 bd 11 3e ef 3a bb 3e a6 c5 03 bd
       0.22108763 0.14232261 0.365684 -0.032170914
000290 df 5c fd 3d 0c 61 11 bf c5 98 81 3e 48 68 35 3f
       0.123712294 -0.56788707 0.25311866 0.70862246
0002a0 e5 5a 0d 3d b3 16 09 3e f9 bf 90 3c e4 6a 15 be
       0.034510512 0.13387565 0.017669665 -0.14591557
0002b0 f3 1d 8d 3f 0e 1c 98 bf 14 97 29 3f 7c 40 3e 3f
       1.1024765 -1.1883562 0.6624615 0.74317145
0002c0 fe 30 02 3f 62 6f b6 3e 8c 27 ae be 9b 36 54 3e
       0.50856006 0.35631853 -0.34014547 0.20723955
0002d0 5f 9f 27 3f 0f f5 11 bd f9 c6 1a bf 77 d5 62 bf
       0.65477556 -0.035634097 -0.6045986 -0.8860697
0002e0 fb 57 a5 3d 61 4b 83 3e 93 a6 87 3d 9f 6a fc bf
       0.080734216 0.25643447 0.066235684 -1.9720038
0002f0 9b ac 49 3d 33 63 51 3f 90 fc 87 3d 18 bc 02 bd
       0.049236875 0.8179199 0.06639969 -0.03191766
000300 f6 e0 1f 3e fa a1 5d 3e 87 61 82 bd 54 21 1e c0
       0.1561316 0.2164382 -0.06366258 -2.4707842
000310 76 02 4a be c4 c4 c3 be 1b 30 93 3c 22 f2 51 3e
       -0.19727501 -0.38236058 0.017967274 0.20502523
000320 4a 1e be bd 30 d1 82 3d 56 8e 87 bf ba 97 f0 3e
       -0.09283121 0.063875556 -1.0590312 0.46990758
000330 c3 54 51 be e3 e7 75 3f 65 60 ae bc fa be a4 3f
       -0.2044249 0.96056956 -0.021286199 1.2870781
000340 8c e4 1f 3e 90 1e 03 3f f8 a4 67 bd e7 cd f0 bd
       0.15614527 0.5121851 -0.05655381 -0.11758023
000350 82 be bc bd 4e 3e 82 be ac 1c 54 3e 5e 21 07 3f
       -0.09216024 -0.2543816 0.20714062 0.5278529
000360 49 c0 82 be 76 34 15 c0 eb a2 54 3f 89 25 b7 3f
       -0.25537327 -2.331327 0.83061093 1.430833
000370 83 aa 2c 3e 1d 65 1e bd a7 c5 03 be 42 b8 6a be
       0.1686192 -0.038670648 -0.12868367 -0.22921851
000380 23 91 22 bc 44 92 b6 bf cf a0 72 be fd 46 7c 3f
       -0.009922299 -1.4263387 -0.23694156 0.9854582
000390 77 a7 56 bb f2 17 47 3d 9a 75 29 bd ff 3a 47 be
       -0.0032753625 0.04860682 -0.04137192 -0.19456099
0003a0 c8 c5 8c 3e 53 54 9c 3e 89 ed 1d 3f 0d 04 93 bd
       0.27494645 0.30533084 0.61690575 -0.07178507
0003b0 af f7 87 3e 80 8d af bc 46 24 3a 3e 72 a6 f8 bd
       0.26556155 -0.021429777 0.181779 -0.12141122
0003c0 07 25 b5 bf 9f ae 38 be 4a 2a bc ba 11 29 ef be
       -1.4151925 -0.18035363 -0.0014355865 -0.4671102
0003d0 da 20 95 bd ea e5 26 3f e7 86 91 3d e2 12 bc bf
       -0.072816566 0.6519457 0.07105809 -1.4693263
0003e0 fc 85 8d bf 54 d0 8c 3e c6 c1 27 3f 9b 56 ad 3e
       -1.1056514 0.27502692 0.6553005 0.33855137
0003f0 66 d8 52 3e e7 39 0a 3f dc b2 35 be 1d e1 bb be
       0.20590362 0.539946 -0.1774401 -0.36695185

critic.0.bias f4 [64]
000000 9d 86 68 bf bc 8a 58 be 50 06 29 bf 5a cf 8f 3f
       -0.90830404 -0.21146673 -0.6602526 1.1235154
000010 bc b0 15 3f 6a b7 06 bf 73 a1 15 be f3 bf 10 3d
       0.584728 -0.5262362 -0.14612369 0.035339307
000020 a3 8d fe be 03 27 56 3d c4 83 ef be 9c 2e 38 3f
       -0.49717435 0.0522833 -0.46780217 0.7194612
000030 87 05 07 bf b4 fc 84 be 8c 82 cd bd 2e 8d 50 3f
       -0.5274281 -0.25974047 -0.100346655 0.81465423
000040 6a 80 a7 bd ec ed 00 3f c0 84 a1 3e 3f a0 0f bf
       -0.0817879 0.5036304 0.31546593 -0.5610389
000050 13 9e f8 be d7 d2 42 bc 2b 49 14 bf af 59 42 3c
       -0.485581 -0.011891088 -0.57924145 0.011862203
000060 26 f4 d2 3e ee db cf 3e 1a 5b fb 3d df 5d 6d 3d
       0.41201895 0.4059748 0.122732356 0.05795085
000070 81 f2 a5 3e 47 59 60 3e a5 0c 59 3f 34 04 35 3f
       0.32411578 0.21909057 0.8478492 0.7070954
000080 0c 8a 26 3f 6e 78 43 bd ce 9e d1 be b7 5d d1 3f
       0.6505439 -0.047722273 -0.4094147 1.6356725
000090 0c f2 17 bf 05 e0 89 bf 08 c8 84 3f b1 97 9f 3e
       -0.5935371 -1.077149 1.0373545 0.3117042
0000a0 72 36 82 3f a4 f1 b2 3e 85 0e 9a be 63 5a 16 3f
       1.0172865 0.34949982 -0.30089203 0.5873167
0000b0 cb 73 92 bc 9b 01 92 3e 01 9c 6f bf a0 c5 25 bf
       -0.01787748 0.2851685 -0.9359742 -0.64754677
0000c0 44 31 20 3f 36 2c fe be dc 66 1e bf 44 50 04 3e
       0.62575173 -0.49643105 -0.618757 0.12921244
0000d0 66 01 37 bf 50 b9 d6 3e 09 3a 76 be aa 89 96 be
       -0.7148651 0.41938257 -0.24045576 -0.29401904
0000e0 64 f0 cd 3e 24 ec 0d 3e cf d6 41 bb 51 df 56 3d
       0.40222466 0.13859612 -0.0029577499 0.052459065
0000f0 cf 9b d5 be 4b c9 88 bf da 8b 37 bf 63 3a ca 3e
       -0.41720435 -1.068643 -0.7169777 0.3949767

critic.2.weight f4 [64, 64]
000000 c8 7f e9 be 8e bc 93 be b4 4b 85 be 5c 4f 58 bf
       -0.45605302 -0.28854793 -0.2603432 -0.8449609
000010 69 15 43 3e a2 ae b7 3f 99 86 9a 3f 1d 39 8e 3f
       0.19051136 1.4350169 1.2072326 1.111118
000020 41 72 03 3f f8 8d 6c be 83 35 01 be f2 85 8c bf
       0.5134621 -0.23101032 -0.1261807 -1.0978377
000030 8b e4 a2 bd 31 9e db be 9f f6 45 3e 3a e7 80 3e
       -0.07953747 -0.42894128 0.1933236 0.25176412
000040 d0 a7 0d 3f d7 1c b7 be 56 dc cc 3d 6d 5b e8 3f
       0.55334187 -0.3576419 0.10002963 1.8152901
000050 bf d8 c1 3f 20 6a b6 3e db 0b a7 3f 72 ff 7f bf
       1.5144271 0.35627842 1.3050493 -0.99999154
000060 e9 7b 0a bf af db 20 3e a1 d8 c6 bf 81 55 aa bd
       -0.5409532 0.15708803 -1.553486 -0.0831709
000070 29 3f 3a be 12 9e 82 bf 7c cd c1 bd 55 dc b7 bc
       -0.18188156 -1.0204489 -0.09463021 -0.02244393
000080 b8 23 0f bf e1 9e 51 3f fa f5 d2 be 72 49 f2 bf
       -0.5591388 0.81883055 -0.4120329 -1.8928664
000090 49 c3 47 3e 6a d7 0f 40 fe f2 a0 3c f6 37 aa be
       0.19508089 2.2475228 0.019647118 -0.3324582
0000a0 a1 9a f2 3e 88 aa c8 3e 75 b1 d2 be 0c fa f2 be
       0.47383597 0.39192605 -0.41151014 -0.47456396
0000b0 a2 ce c1 be 76 56 d4 be bc c4 10 40 fc 67 55 be
       -0.3785296 -0.41472214 2.2620077 -0.20840448
0000c0 eb 8c bb bf 8d 66 0e bf c9 2f c1 3f b7 4e b5 be
       -1.465238 -0.5562523 1.5092708 -0.35411617
0000d0 58 c4 10 3f 51 f9 a8 bf e6 93 0a be 44 c5 15 3f
       0.56549597 -1.3201085 -0.13532981 0.5850413
0000e0 4e 3d aa be 0e af 91 3d c9 44 a6 3f fb 5c 47 3f
       -0.33249897 0.07113467 1.2989742 0.7787625
0000f0 1d 28 5e 3f c6 2f 2a 40 bf 1b e1 bd 4c 81 b0 bf
       0.8677996 2.6591659 -0.1099162 -1.3789458
000100 05 27 e0 3f c1 26 88 3f f0 6f a2 3f 10 9d 01 bf
       1.7511908 1.0636827 1.2690411 -0.50630283
000110 14 c6 92 bf 43 2e d2 bd 8a 87 6d bd 73 9a 17 3e
       -1.1466699 -0.1026273 -0.05799059 0.14805011
000120 5e e8 0c 3f fa 66 a1 be 4f f0 83 3f f0 5b 2b bd
       0.55042064 -0.31523877 1.0307711 -0.041835725
000130 5f bf 9d 3e 23 fc 61 3d f2 20 b3 be 86 72 2e bf
       0.30810067 0.055172097 -0.34986073 -0.681435
000140 3b 6c 6e bf f2 72 72 bf a2 2f f2 3d b2 57 f5 3e
       -0.93133897 -0.9470664 0.118254915 0.4791847
000150 53 45 02 bf 61 cd 09 bf 8c ad 12 3e 85 b3 b6 be
       -0.5088703 -0.5382901 0.14324015 -0.35683838
000160 db 73 4f bc 64 6e 27 bf 71 28 98 3e 14 f1 78 3e
       -0.012661899 -0.6540282 0.29718354 0.24310714
000170 ab c5 1e be eb cb cb be 23 b2 23 bf 9c ca ad bf
       -0.15505092 -0.39804015 -0.6394369 -1.3577456
000180 17 87 a1 be 28 97 c6 be ce 6d a9 3e a9 56 29 3e
       -0.31548378 -0.38787198 0.33091587 0.16536964
000190 aa 6f 14 3f b7 07 b6 3e 20 91 7a be 99 d6 95 3e
       0.57982886 0.3555276 -0.24469423 0.29265288
0001a0 ff b5 c8 be 18 41 9b bf 16 5b b0 3e 96 40 50 bf
       -0.39201352 -1.212924 0.34444493 -0.8134855
0001b0 68 3c 8d 3e e8 59 5f bf c7 65 10 3f 0f 46 42 3f
       0.2758515 -0.8724656 0.564053 0.7588815
0001c0 b9 4a 1f bf 4a 67 bf 3f 6e 96 8a 3f 2c c5 a0 3e
       -0.6222339 1.4953396 1.0827157 0.3140043
0001d0 0a 2d 4c be c9 53 2c bd c5 5b 7b be 50 43 33 bd
       -0.19939056 -0.04207209 -0.24546726 -0.043765366
0001e0 f5 1c af 3e 5c e4 25 3f 10 dd de 3c 93 1d 81 bc
       0.3420178 0.64801574 0.02720502 -0.015761172
0001f0 c2 c1 ef 3d 61 c5 c1 3c cb 76 f0 3f 90 13 3e be
       0.11706878 0.023653688 1.8786253 -0.1856215
000200 b2 2a 9d bf 96 a3 71 3f 6c 74 60 bf b7 ea 02 bd
       -1.2278655 0.9439024 -0.87677646 -0.031962123
000210 05 af 45 3f 12 9a b4 bf 95 b4 69 bf 1a ad 9d 3f
       0.77220184 -1.4109519 -0.9129117 1.2318451
000220 40 1e 0e bf 9a fd cb bf 2b 8d c8 bf 14 49 5d 3e
       -0.5551491 -1.5936768 -1.5668081 0.21609908
000230 b5 28 d8 bf 37 da 70 bf c4 23 00 c0 bd d0 78 bd
       -1.6887423 -0.9408297 -2.002183 -0.060745943
000240 e3 6c 45 bf 00 a2 71 bf cf d8 8d 3f 72 aa 3a bf
       -0.7711927 -0.9438782 1.108179 -0.7291633
000250 f3 75 73 bf 2d cb 85 be 89 87 53 bf 8f 47 04 bf
       -0.9510185 -0.26131573 -0.82628685 -0.5167169
000260 a7 bc 32 40 a9 9a d1 3f 45 67 97 bf 11 99 f2 3e
       2.7927644 1.6375324 -1.182839 0.47382405
000270 9c aa 01 3f ce 9a a3 3f 63 f0 b1 3f 90 0d cf 3f
       0.50650954 1.2781618 1.3901485 1.6176014
000280 96 a5 3f be 22 c0 18 3d 59 68 a7 3d 69 cf 07 3e
       -0.1871551 0.037292607 0.081741996 0.13262714
000290 12 c5 01 c0 9d 09 0f bf 6e 96 e7 3e 7f ad ca 3f
       -2.0276532 -0.55874044 0.45231956 1.5834197
0002a0 8b 5c 04 bf ef e3 2d 3f d3 a1 c4 bf fb 3b 1b 40
       -0.5170371 0.67925924 -1.5361885 2.425536
0002b0 cf 8d 7b be 51 e4 0a bf 8b 66 8d bf 23 77 db 3e
       -0.24565814 -0.54254633 -1.1046919 0.42864332
0002c0 73 8b f4 3d 2c 63 30 be a5 6b 62 bf 59 9b 40 bf
       0.1194066 -0.17225331 -0.884455 -0.7523704
0002d0 50 c4 17 bd d6 f6 ea be 6b ae 86 bf 96 e1 35 bf
       -0.037052453 -0.45891446 -1.0521978 -0.7104734
0002e0 61 81 50 3f dc 8d 60 3f 84 3b c1 bf de 53 55 c0
       0.81447417 0.8771646 -1.5096288 -3.3332438
0002f0 87 21 ad 3f aa 38 a8 be e5 f7 3d be e4 67 80 bf
       1.3525857 -0.3285573 -0.18551596 -1.0031705
000300 3d 9b bc be ef 76 6d bf 1c 20 b6 3e e7 e6 a9 3d
       -0.36837187 -0.92759603 0.35571373 0.08295994
000310 1c bf 1f 40 81 72 6c bd eb b2 b5 3f 5c 7d 9d 3f
       2.4960394 -0.057726387 1.4195226 1.2303882
000320 e0 0b 28 c0 b9 d0 2c bf 08 d3 11 c0 ce e9 31 3f
       -2.6257248 -0.67505985 -2.2785053 0.6949738
000330 44 bc 98 be 4e a2 ef be 6d 6f f7 be 77 3b ee bd
       -0.29831135 -0.46803516 -0.483272 -0.11632436
000340 97 c3 4a 3f ef 15 83 be 64 ba a6 3f 87 56 39 3f
       0.79204696 -0.25602672 1.3025632 0.72397655
000350 f2 48 d2 bf 0f c1 03 bf 39 ad 0e be 83 aa 57 bf
       -1.6428511 -0.5146646 -0.13933267 -0.84244555
000360 bd 17 7d 3f 27 02 1a bf 21 a6 d1 bd 0a 49 4e 3e
       0.98864347 -0.60159534 -0.10236765 0.2014505
000370 ed ce b8 be 9f 28 8c bd 94 d2 a9 3e 06 d3 df bd
       -0.36095372 -0.06843685 0.3316847 -0.109289214
000380 5a 90 34 bf cd 31 5a bf 10 1e 46 bf d1 6c 17 be
       -0.70532763 -0.8523224 -0.7738962 -0.14787604
000390 11 f6 ea be 79 1f 01 3f c2 a1 af 3e 02 6d 87 3f
       -0.4589086 0.5043865 0.343031 1.0580142
0003a0 1a 7e ee be 18 31 39 bf eb ab cf bf 01 ee 27 3f
       -0.46580583 -0.72340536 -1.622434 0.6559754
0003b0 77 ab 12 bf a7 db a5 3e 12 71 83 3e d9 e9 38 be
       -0.57292885 0.32394144 0.25672203 -0.18057956
0003c0 dc 21 91 3e 51 7d e2 bd 4f f6 b0 bf dd 62 a3 3d
       0.28346145 -0.110590585 -1.3825167 0.07977841
0003d0 14 e0 80 3f 06 9d 7a bf 3a 2f cb bf d6 80 88 3e
       1.0068383 -0.9789585 -1.5873787 0.26660794
0003e0 ec c7 0e bf bf 9b 02 3f 58 c0 50 3e a8 37 42 3f
       -0.55773807 0.510189 0.20385873 0.75866175
0003f0 15 44 6c 3f 1d 1e 95 3c cf d6 ea 3e a4 6a fd 3d
       0.92291385 0.018202836 0.4586701 0.12373856

critic.2.bias f4 [64]
000000 9f 14 27 be 68 cb 22 bf e1 95 4f 3e 1f 60 ed be
       -0.1631646 -0.63591623 0.20272018 -0.46362397
000010 fb 64 22 3f 50 97 6c bf 26 c6 30 3f 1f 38 97 3d
       0.63435334 -0.92418385 0.6905235 0.07383751
000020 a9 6a b0 be 9a 33 81 be 3a be 46 3f 0f d8 25 3e
       -0.34456375 -0.2523468 0.7763401 0.16195701
000030 7a bd c2 3d e0 78 9e be 78 b6 6b bd bf da 26 be
       0.09508796 -0.30951595 -0.057547063 -0.16294383
000040 68 63 40 bf 8f 7c 13 bf 74 26 6c 3e 2d 01 67 bf
       -0.7515168 -0.57611936 0.23061544 -0.9023617
000050 fc f1 eb 3e 69 3e 1d 3f 73 f1 bd bd 49 d4 e2 3d
       0.46083057 0.61423355 -0.092745684 0.110756464
000060 b4 d4 0d bf 9c 3d 3a 3f 4a 84 8e bf c2 f5 94 bd
       -0.55402684 0.7275026 -1.1134121 -0.07273437
000070 ff 8e 8e 3e 4f 63 ad 3e f6 5c 89 bf e3 89 87 bf
       0.27843472 0.3386483 -1.0731494 -1.0588955
000080 90 cb fa 3e 41 ed 6a 3f 90 2d 35 bf ab 9e 55 bf
       0.4898343 0.9176827 -0.7077265 -0.83445233
000090 cb a6 a0 bd 8e 95 08 bf 99 75 b9 bd b0 54 9b ba
       -0.07844313 -0.533532 -0.09055633 -0.00118508
0000a0 ce c6 45 3e d0 e7 ea bd c2 7b fd 3c 8f 60 0f 3f
       0.19314119 -0.11469996 0.030942801 0.5600671
0000b0 1f ff ce 3e c7 a9 43 3e 36 f1 fa 3e 6b 0d 46 bf
       0.40429017 0.19107734 0.49012154 -0.77364224
0000c0 13 11 94 3e f9 b3 60 3f d6 fa 19 be f8 b4 1b 3e
       0.28919277 0.87774616 -0.15037093 0.15205753
0000d0 cd 8a e3 3d 28 fc 3d bf 9d d0 99 be 29 25 9a be
       0.111104585 -0.74212885 -0.30041972 -0.30106476
0000e0 d2 14 44 bf 35 3e a6 be b2 90 75 3e 93 a5 46 3f
       -0.7659427 -0.32469335 0.23980978 0.77596396
0000f0 ab 82 16 3f 95 91 08 3f 88 38 ec be e5 a7 55 3d
       0.58793133 0.5334714 -0.4613688 0.05216207

critic.4.weight f4 [1, 64]
000000 f1 29 77 be be 85 5a 3e e7 6d 71 bf ef 55 60 be
       -0.24137093 0.21340081 -0.9430832 -0.21907781
000010 a4 58 2c be a5 ca 87 3e d6 dc a4 be eb 89 ca bd
       -0.16830689 0.26521793 -0.32199734 -0.09889587
000020 86 3f 88 be e2 22 9d bd 09 c9 0a 3e ab 20 6d bd
       -0.26610965 -0.07672669 0.13553251 -0.057892483
000030 62 88 bf bc 63 cf 88 bd 1b 09 0d be b2 74 81 be
       -0.023380462 -0.06680181 -0.13773005 -0.25284344
000040 16 d2 b1 3e 2f ea 85 3e 1e ef ed bd 8e 3e 4e 3e
       0.34730595 0.2615523 -0.116178736 0.2014105
000050 e2 1b 5d be 97 d7 0a 3d 07 3f 62 3e ee c4 47 3e
       -0.21592668 0.03389701 0.22094356 0.19508716
000060 8d be 8e 3e 13 3f 78 be 86 12 1f be 76 3b db bd
       0.27879754 -0.24242811 -0.1553441 -0.10704701
000070 77 5c 60 3c 2f 96 14 be ec 30 a9 3e 3b 6a 66 be
       0.01369392 -0.14510415 0.33045137 -0.22501461
000080 b3 41 ee 3d dc 0d ae 3e d1 0a 24 3d c5 15 49 be
       0.11633625 0.3399495 0.040049378 -0.1963721
000090 88 44 f9 3e f2 9d 49 be 89 bd 4f bd 5c c9 43 bd
       0.48685098 -0.19689158 -0.050717864 -0.047799453
0000a0 89 64 4f 3e e5 f4 bf bd ab 64 f9 bd fd 9f a7 be
       0.20253195 -0.09372882 -0.12177404 -0.3273925
0000b0 cc 4a 15 be 34 dc 98 be d9 6e 82 be ef 95 c2 3e
       -0.14579314 -0.29855502 -0.25475195 0.38005015
0000c0 ac a4 08 be af 4c ae 3e c2 20 94 3e 06 7b b2 bd
       -0.13344067 0.3404288 0.28931242 -0.08714871
0000d0 18 f0 7b 3e a1 28 25 be a9 34 03 3e 2d 65 64 3e
       0.24603307 -0.1612878 0.12813057 0.2230422
0000e0 6c 45 8d be 94 ca b8 be a3 87 ab 3d 34 e6 b1 be
       -0.27592027 -0.36092055 0.0837548 -0.34745944
0000f0 4b 7f ab 3c 57 77 ce bd 85 29 29 3e 87 d5 a3 3e
       0.020934721 -0.10081356 0.16519745 0.31998846
